ImitationLearning/Models/Accepted/BC_16.pth (torch, 720957 bytes, 26 tensors)

gcn1.gcn.bias f4 [256]
000000 00 00 00 00 00 00 00 00 00 00 00 00 00 00 00 00
       0.0 0.0 0.0 0.0
000010 00 00 00 00 00 00 00 00 00 00 00 00 00 00 00 00
       0.0 0.0 0.0 0.0
000020 00 00 00 00 00 00 00 00 00 00 00 00 00 00 00 00
       0.0 0.0 0.0 0.0
000030 00 00 00 00 00 00 00 00 00 00 00 00 00 00 00 00
       0.0 0.0 0.0 0.0
000040 00 00 00 00 00 00 00 00 00 00 00 00 00 00 00 00
       0.0 0.0 0.0 0.0
000050 00 00 00 00 00 00 00 00 00 00 00 00 00 00 00 00
       0.0 0.0 0.0 0.0
000060 00 00 00 00 00 00 00 00 00 00 00 00 00 00 00 00
       0.0 0.0 0.0 0.0
000070 00 00 00 00 00 00 00 00 00 00 00 00 00 00 00 00
       0.0 0.0 0.0 0.0
000080 00 00 00 00 00 00 00 00 00 00 00 00 00 00 00 00
       0.0 0.0 0.0 0.0
000090 00 00 00 00 00 00 00 00 00 00 00 00 00 00 00 00
       0.0 0.0 0.0 0.0
0000a0 00 00 00 00 00 00 00 00 00 00 00 00 00 00 00 00
       0.0 0.0 0.0 0.0
0000b0 00 00 00 00 00 00 00 00 00 00 00 00 00 00 00 00
       0.0 0.0 0.0 0.0
0000c0 00 00 00 00 00 00 00 00 00 00 00 00 00 00 00 00
       0.0 0.0 0.0 0.0
0000d0 00 00 00 00 00 00 00 00 00 00 00 00 00 00 00 00
       0.0 0.0 0.0 0.0
0000e0 00 00 00 00 00 00 00 00 00 00 00 00 00 00 00 00
       0.0 0.0 0.0 0.0
0000f0 00 00 00 00 00 00 00 00 00 00 00 00 00 00 00 00
       0.0 0.0 0.0 0.0
000100 00 00 00 00 00 00 00 00 00 00 00 00 00 00 00 00
       0.0 0.0 0.0 0.0
000110 00 00 00 00 00 00 00 00 00 00 00 00 00 00 00 00
       0.0 0.0 0.0 0.0
000120 00 00 00 00 00 00 00 00 00 00 00 00 00 00 00 00
       0.0 0.0 0.0 0.0
000130 00 00 00 00 00 00 00 00 00 00 00 00 00 00 00 00
       0.0 0.0 0.0 0.0
000140 00 00 00 00 00 00 00 00 00 00 00 00 00 00 00 00
       0.0 0.0 0.0 0.0
000150 00 00 00 00 00 00 00 00 00 00 00 00 00 00 00 00
       0.0 0.0 0.0 0.0
000160 00 00 00 00 00 00 00 00 00 00 00 00 00 00 00 00
       0.0 0.0 0.0 0.0
000170 00 00 00 00 00 00 00 00 00 00 00 00 00 00 00 00
       0.0 0.0 0.0 0.0
000180 00 00 00 00 00 00 00 00 00 00 00 00 00 00 00 00
       0.0 0.0 0.0 0.0
000190 00 00 00 00 00 00 00 00 00 00 00 00 00 00 00 00
       0.0 0.0 0.0 0.0
0001a0 00 00 00 00 00 00 00 00 00 00 00 00 00 00 00 00
       0.0 0.0 0.0 0.0
0001b0 00 00 00 00 00 00 00 00 00 00 00 00 00 00 00 00
       0.0 0.0 0.0 0.0
0001c0 00 00 00 00 00 00 00 00 00 00 00 00 00 00 00 00
       0.0 0.0 0.0 0.0
0001d0 00 00 00 00 00 00 00 00 00 00 00 00 00 00 00 00
       0.0 0.0 0.0 0.0
0001e0 00 00 00 00 00 00 00 00 00 00 00 00 00 00 00 00
       0.0 0.0 0.0 0.0
0001f0 00 00 00 00 00 00 00 00 00 00 00 00 00 00 00 00
       0.0 0.0 0.0 0.0
000200 00 00 00 00 00 00 00 00 00 00 00 00 00 00 00 00
       0.0 0.0 0.0 0.0
000210 00 00 00 00 00 00 00 00 00 00 00 00 00 00 00 00
       0.0 0.0 0.0 0.0
000220 00 00 00 00 00 00 00 00 00 00 00 00 00 00 00 00
       0.0 0.0 0.0 0.0
000230 00 00 00 00 00 00 00 00 00 00 00 00 00 00 00 00
       0.0 0.0 0.0 0.0
000240 00 00 00 00 00 00 00 00 00 00 00 00 00 00 00 00
       0.0 0.0 0.0 0.0
000250 00 00 00 00 00 00 00 00 00 00 00 00 00 00 00 00
       0.0 0.0 0.0 0.0
000260 00 00 00 00 00 00 00 00 00 00 00 00 00 00 00 00
       0.0 0.0 0.0 0.0
000270 00 00 00 00 00 00 00 00 00 00 00 00 00 00 00 00
       0.0 0.0 0.0 0.0
000280 00 00 00 00 00 00 00 00 00 00 00 00 00 00 00 00
       0.0 0.0 0.0 0.0
000290 00 00 00 00 00 00 00 00 00 00 00 00 00 00 00 00
       0.0 0.0 0.0 0.0
0002a0 00 00 00 00 00 00 00 00 00 00 00 00 00 00 00 00
       0.0 0.0 0.0 0.0
0002b0 00 00 00 00 00 00 00 00 00 00 00 00 00 00 00 00
       0.0 0.0 0.0 0.0
0002c0 00 00 00 00 00 00 00 00 00 00 00 00 00 00 00 00
       0.0 0.0 0.0 0.0
0002d0 00 00 00 00 00 00 00 00 00 00 00 00 00 00 00 00
       0.0 0.0 0.0 0.0
0002e0 00 00 00 00 00 00 00 00 00 00 00 00 00 00 00 00
       0.0 0.0 0.0 0.0
0002f0 00 00 00 00 00 00 00 00 00 00 00 00 00 00 00 00
       0.0 0.0 0.0 0.0
000300 00 00 00 00 00 00 00 00 00 00 00 00 00 00 00 00
       0.0 0.0 0.0 0.0
000310 00 00 00 00 00 00 00 00 00 00 00 00 00 00 00 00
       0.0 0.0 0.0 0.0
000320 00 00 00 00 00 00 00 00 00 00 00 00 00 00 00 00
       0.0 0.0 0.0 0.0
000330 00 00 00 00 00 00 00 00 00 00 00 00 00 00 00 00
       0.0 0.0 0.0 0.0
000340 00 00 00 00 00 00 00 00 00 00 00 00 00 00 00 00
       0.0 0.0 0.0 0.0
000350 00 00 00 00 00 00 00 00 00 00 00 00 00 00 00 00
       0.0 0.0 0.0 0.0
000360 00 00 00 00 00 00 00 00 00 00 00 00 00 00 00 00
       0.0 0.0 0.0 0.0
000370 00 00 00 00 00 00 00 00 00 00 00 00 00 00 00 00
       0.0 0.0 0.0 0.0
000380 00 00 00 00 00 00 00 00 00 00 00 00 00 00 00 00
       0.0 0.0 0.0 0.0
000390 00 00 00 00 00 00 00 00 00 00 00 00 00 00 00 00
       0.0 0.0 0.0 0.0
0003a0 00 00 00 00 00 00 00 00 00 00 00 00 00 00 00 00
       0.0 0.0 0.0 0.0
0003b0 00 00 00 00 00 00 00 00 00 00 00 00 00 00 00 00
       0.0 0.0 0.0 0.0
0003c0 00 00 00 00 00 00 00 00 00 00 00 00 00 00 00 00
       0.0 0.0 0.0 0.0
0003d0 00 00 00 00 00 00 00 00 00 00 00 00 00 00 00 00
       0.0 0.0 0.0 0.0
0003e0 00 00 00 00 00 00 00 00 00 00 00 00 00 00 00 00
       0.0 0.0 0.0 0.0
0003f0 00 00 00 00 00 00 00 00 00 00 00 00 00 00 00 00
       0.0 0.0 0.0 0.0

gcn1.gcn.lin.weight f4 [256, 9]
000000 c0 36 11 3e 15 36 03 be c9 2c 6b 3c b2 96 48 3c
       0.14181042 -0.128136 0.014353939 0.01224296
000010 9d 63 d6 3d 9f e1 ab 3b 48 85 66 3c dc 64 6c 3d
       0.104682185 0.005245402 0.014069863 0.057713374
000020 33 24 d7 3d 2f ba f2 3b 1c da 82 3d 3f 8e c2 bd
       0.10504951 0.0074074487 0.06389257 -0.094997875
000030 83 09 e9 bd a2 77 0d 3e 6e c2 df bd 43 72 d4 3c
       -0.11378767 0.13815168 -0.109257564 0.02593339
000040 81 1f c9 3d 56 71 79 3d 8a 10 30 bd 39 f8 05 3e
       0.09820462 0.0608991 -0.042984523 0.1308297
000050 77 1b d1 3d 65 31 d5 bc 3e 02 c6 bc ea e5 ea bb
       0.10210317 -0.02602453 -0.024170991 -0.007168521
000060 69 b7 c6 bd ea b5 d0 bd 4d 5c da 3d 2d dc 08 be
       -0.097029515 -0.10190947 0.10662136 -0.1336524
000070 eb fc ee bd 0e 33 62 3d 18 cd 9b 3d 0f 42 04 3e
       -0.11669334 0.05522447 0.07607478 0.12915824
000080 1b f2 1d bd 27 a8 0d be 4f ed fc bc 8e 76 3c bd
       -0.038560968 -0.13833676 -0.030874876 -0.0460115
000090 0a 30 d6 bd 8b e1 00 be 68 ae d1 b8 f5 fb ae bc
       -0.104583815 -0.12586038 -9.998382e-05 -0.021360377
0000a0 1c d6 af 3d fe 34 9c 3d 08 1f 7c bd d3 59 cc 3d
       0.0858576 0.07627295 -0.06155303 0.0997807
0000b0 db 37 d6 bc 78 12 83 3d 6e d6 14 be fd ba 5d bd
       -0.02614968 0.06400007 -0.14534923 -0.054133404
0000c0 1a db 40 3c 52 42 86 bd cc f9 68 3c 2e ae 9f bc
       0.011770988 -0.06555618 0.0142197125 -0.019492235
0000d0 8f c8 19 be 13 55 01 3e 23 57 9e 3d 9a a4 0a 3d
       -0.15017913 0.1263011 0.07731464 0.033848383
0000e0 df 62 1a 3d 9c 02 b7 bd 83 25 cf bd 13 64 e5 3c
       0.037691947 -0.089360446 -0.10114577 0.02800182
0000f0 75 8c 06 be 79 bd d6 bc 87 a4 01 3e 1b 45 e6 3d
       -0.13139518 -0.026213394 0.12660418 0.112436496
000100 c3 47 23 3d 25 e4 d6 bc e4 2e 17 3e 0a 1b b3 3d
       0.03986336 -0.026231835 0.14763981 0.08745392
000110 11 9f a0 bd 5b 50 cb bd b4 9e 95 3d 4d 42 07 bd
       -0.078428395 -0.09927436 0.07305661 -0.033022214
000120 73 4e d8 3d ba e8 b2 bc 1d c2 85 3c c2 07 d7 bd
       0.10561838 -0.021839488 0.016327912 -0.104995266
000130 a7 cc a9 bb df 72 7d 3d 7a 0a eb 3b 71 d2 f6 3c
       -0.005181867 0.061877128 0.0071728798 0.030129643
000140 60 26 c1 3c ed 37 0e 3e 9b 72 0d be db e6 1d bd
       0.023577869 0.13888521 -0.1381325 -0.03855024
000150 34 6f 5f bc 9a e4 e7 bd a7 ea df 3d c5 e3 e0 bd
       -0.013637353 -0.11322899 0.10933428 -0.109809436
000160 2f 33 d0 bc ee 04 20 3d 55 e8 15 be 7b f7 85 bd
       -0.025415031 0.0390672 -0.14639409 -0.06541344
000170 68 fe 27 bd 0f e0 f7 bd 43 55 01 be 5a 47 5d 3d
       -0.041014105 -0.12103283 -0.12630181 0.054023124
000180 30 eb 2f bd 2e dc e9 bc 27 ff d2 bd 59 d2 83 3c
       -0.0429489 -0.028547373 -0.10302573 0.016091513
000190 8a f4 23 bd 6d b0 02 3d 67 03 68 3c 8c 9a 9a bd
       -0.040028132 0.031906534 0.014160967 -0.07549009
0001a0 87 51 0a be 43 ff 13 be 56 9e a4 bd ee cc e7 bb
       -0.13507663 -0.14452843 -0.08038013 -0.00707399
0001b0 50 b0 59 bd 23 4a 18 be 94 6f da 3d 36 8d cc 3c
       -0.05314666 -0.14872031 0.10665813 0.024969678
0001c0 01 e8 a2 3d bc 5c 98 bd 19 5b 18 be 96 d2 12 3e
       0.079544075 -0.07439563 -0.14878501 0.14338145
0001d0 f2 8c 24 3c 47 0f f3 bd 62 73 17 3d 7b 14 83 3d
       0.01004337 -0.11868148 0.036975272 0.06400391
0001e0 e2 e5 f9 3d 10 52 e1 bc d6 d5 8e bc 0b af ec bb
       0.1220205 -0.02750495 -0.01743595 -0.007223015
0001f0 64 1a d7 bd 51 92 08 3e 69 78 27 3d 89 af be bd
       -0.105030805 0.13337065 0.040886316 -0.093108244
000200 bc db 05 3e c0 64 db 3d 12 8d ad bd 11 52 0d 3e
       0.13072103 0.10712576 -0.08474173 0.13800837
000210 a5 d0 9d bd 97 9d 76 3d 68 bf c9 3d ac d9 cf bd
       -0.077058114 0.060208883 0.09850961 -0.101489395
000220 94 32 be bd 17 50 ae 3d f3 ca c7 3d b5 a4 0b 3e
       -0.09286991 0.0851137 0.09755506 0.1363705
000230 ae b3 c8 3d 5a ee 73 3b 94 21 04 be be 33 19 3e
       0.09799896 0.0037220926 -0.12903434 0.14961144
000240 0c 99 08 be 0d 20 d7 bd 92 40 eb bc e8 bb 05 bc
       -0.13339633 -0.1050416 -0.028717313 -0.008162476
000250 f6 77 ec bd fc b4 ed bd 17 ae bb 3d 06 2f a9 bd
       -0.11546318 -0.11606786 0.091640644 -0.08260922
000260 83 c5 ce bd ce 72 45 3d 63 66 9a 3d f4 f2 d8 bd
       -0.10096266 0.04820519 0.0753906 -0.10593215
000270 be 18 d3 bc 75 88 5c 3d 35 84 6b 3c cb 88 13 be
       -0.025768634 0.053841073 0.014374782 -0.14407651
000280 e4 bd ed 3a 91 2f 9b bc d4 21 ea bd 91 ec bf bd
       0.0018138257 -0.01894358 -0.114322335 -0.09371293
000290 94 f1 ba bd f1 c5 ab 3d e1 c1 c5 3d e4 03 0e bd
       -0.091281086 0.08387364 0.0965612 -0.03467168
0002a0 db 35 a3 bd 9b 99 a9 bc a2 ca ac bd 70 4f 7b bd
       -0.079692565 -0.020703128 -0.08437087 -0.061355054
0002b0 eb 2a 13 bb db 03 9b 3c 8c 60 07 3d 31 0f 9e bd
       -0.0022456 0.018922737 0.03305106 -0.07717741
0002c0 95 78 ca bc 6e ae 77 bc b4 81 12 3e 1c 9c 36 3d
       -0.024715701 -0.015117271 0.1430729 0.04458247
0002d0 ed f2 17 be 8d 9d a7 3d 81 93 32 3d 82 c8 14 3e
       -0.14838763 0.08184347 0.043597702 0.14529613
0002e0 35 aa bc bc 13 91 cd bc 2a 01 e3 bc d9 5e e9 3d
       -0.02303038 -0.02509359 -0.027710516 0.11395044
0002f0 64 e3 0a 3e 2e ff 3e 3d de 65 a0 bb e7 ee 06 bd
       0.13563305 0.046630077 -0.004894956 -0.03294268
000300 55 5b 27 bd 4c a8 f7 bc 61 8a 85 3d f3 47 d4 bd
       -0.040858585 -0.030231617 0.06520534 -0.10365286
000310 d8 b8 f0 bd 20 69 e0 3d 05 90 07 3c 4a e0 09 3e
       -0.11754006 0.10957551 0.008274083 0.13464466
000320 37 3e bc bd 0f 90 f5 3d 35 b6 da bd 3c 00 b4 bd
       -0.09191554 0.119903676 -0.106792845 -0.08789107
000330 e4 dd 06 be f5 c7 ce bd 20 fc 65 bd 6e 24 9c 3d
       -0.13170582 -0.100967325 -0.05614865 0.07624136
000340 0d d9 13 3e be 45 52 bd 74 0f ef bd 27 63 a9 3d
       0.14438267 -0.051336043 -0.11672869 0.08270865
000350 cc 01 fa bd 03 9e 7f 3a 8e a4 c1 3d 27 a7 84 bc
       -0.12207374 0.00097510236 0.094552144 -0.016192986
000360 ac 6d bf bd d6 8e 07 3e fd b5 e0 3d 42 81 80 bd
       -0.0934709 0.13238081 0.109722115 -0.06274654
000370 b9 dc af bd f4 28 8d bd 7e be 45 3d 8b 03 1a be
       -0.085870214 -0.06892577 0.04827737 -0.15040414
000380 a1 9a 18 be d5 3c 64 bd 37 25 ff 3d 99 a0 7b bd
       -0.14902736 -0.055722076 0.1245827 -0.061432455
000390 e8 d6 a3 3d a8 00 93 3d 6a 63 5d bd 8a d3 df bd
       0.079999745 0.071778595 -0.054049887 -0.1092902
0003a0 16 46 41 3d 4a 46 2f bc bf ac e8 3d 11 02 f7 bd
       0.04718598 -0.010697911 0.11361074 -0.12060941
0003b0 7c 01 17 be f1 28 93 bd 19 14 0b be 0c 89 18 3e
       -0.1474666 -0.07185543 -0.13581885 0.14896029
0003c0 5f 62 52 bb d0 b7 90 3d 8b 4b a6 bb ba 51 cd bd
       -0.003210209 0.070663095 -0.0050749234 -0.10025354
0003d0 e9 da 9f 3c 36 e5 ca 3d 33 02 ba bd 82 0b 88 bd
       0.019513564 0.09907 -0.09082451 -0.0664282
0003e0 59 26 d0 3d 0f 92 e2 bd e7 a2 c3 bb 0f 09 06 bd
       0.10163564 -0.11063015 -0.005970347 -0.032723483
0003f0 60 a6 24 3c 74 7d ed bc ed 5f c7 3d 80 eb 12 3e
       0.0100494325 -0.028990485 0.09735093 0.14347649

gcn2.gcn.bias f4 [256]
000000 00 00 00 00 00 00 00 00 00 00 00 00 00 00 00 00
       0.0 0.0 0.0 0.0
000010 00 00 00 00 00 00 00 00 00 00 00 00 00 00 00 00
       0.0 0.0 0.0 0.0
000020 00 00 00 00 00 00 00 00 00 00 00 00 00 00 00 00
       0.0 0.0 0.0 0.0
000030 00 00 00 00 00 00 00 00 00 00 00 00 00 00 00 00
       0.0 0.0 0.0 0.0
000040 00 00 00 00 00 00 00 00 00 00 00 00 00 00 00 00
       0.0 0.0 0.0 0.0
000050 00 00 00 00 00 00 00 00 00 00 00 00 00 00 00 00
       0.0 0.0 0.0 0.0
000060 00 00 00 00 00 00 00 00 00 00 00 00 00 00 00 00
       0.0 0.0 0.0 0.0
000070 00 00 00 00 00 00 00 00 00 00 00 00 00 00 00 00
       0.0 0.0 0.0 0.0
000080 00 00 00 00 00 00 00 00 00 00 00 00 00 00 00 00
       0.0 0.0 0.0 0.0
000090 00 00 00 00 00 00 00 00 00 00 00 00 00 00 00 00
       0.0 0.0 0.0 0.0
0000a0 00 00 00 00 00 00 00 00 00 00 00 00 00 00 00 00
       0.0 0.0 0.0 0.0
0000b0 00 00 00 00 00 00 00 00 00 00 00 00 00 00 00 00
       0.0 0.0 0.0 0.0
0000c0 00 00 00 00 00 00 00 00 00 00 00 00 00 00 00 00
       0.0 0.0 0.0 0.0
0000d0 00 00 00 00 00 00 00 00 00 00 00 00 00 00 00 00
       0.0 0.0 0.0 0.0
0000e0 00 00 00 00 00 00 00 00 00 00 00 00 00 00 00 00
       0.0 0.0 0.0 0.0
0000f0 00 00 00 00 00 00 00 00 00 00 00 00 00 00 00 00
       0.0 0.0 0.0 0.0
000100 00 00 00 00 00 00 00 00 00 00 00 00 00 00 00 00
       0.0 0.0 0.0 0.0
000110 00 00 00 00 00 00 00 00 00 00 00 00 00 00 00 00
       0.0 0.0 0.0 0.0
000120 00 00 00 00 00 00 00 00 00 00 00 00 00 00 00 00
       0.0 0.0 0.0 0.0
000130 00 00 00 00 00 00 00 00 00 00 00 00 00 00 00 00
       0.0 0.0 0.0 0.0
000140 00 00 00 00 00 00 00 00 00 00 00 00 00 00 00 00
       0.0 0.0 0.0 0.0
000150 00 00 00 00 00 00 00 00 00 00 00 00 00 00 00 00
       0.0 0.0 0.0 0.0
000160 00 00 00 00 00 00 00 00 00 00 00 00 00 00 00 00
       0.0 0.0 0.0 0.0
000170 00 00 00 00 00 00 00 00 00 00 00 00 00 00 00 00
       0.0 0.0 0.0 0.0
000180 00 00 00 00 00 00 00 00 00 00 00 00 00 00 00 00
       0.0 0.0 0.0 0.0
000190 00 00 00 00 00 00 00 00 00 00 00 00 00 00 00 00
       0.0 0.0 0.0 0.0
0001a0 00 00 00 00 00 00 00 00 00 00 00 00 00 00 00 00
       0.0 0.0 0.0 0.0
0001b0 00 00 00 00 00 00 00 00 00 00 00 00 00 00 00 00
       0.0 0.0 0.0 0.0
0001c0 00 00 00 00 00 00 00 00 00 00 00 00 00 00 00 00
       0.0 0.0 0.0 0.0
0001d0 00 00 00 00 00 00 00 00 00 00 00 00 00 00 00 00
       0.0 0.0 0.0 0.0
0001e0 00 00 00 00 00 00 00 00 00 00 00 00 00 00 00 00
       0.0 0.0 0.0 0.0
0001f0 00 00 00 00 00 00 00 00 00 00 00 00 00 00 00 00
       0.0 0.0 0.0 0.0
000200 00 00 00 00 00 00 00 00 00 00 00 00 00 00 00 00
       0.0 0.0 0.0 0.0
000210 00 00 00 00 00 00 00 00 00 00 00 00 00 00 00 00
       0.0 0.0 0.0 0.0
000220 00 00 00 00 00 00 00 00 00 00 00 00 00 00 00 00
       0.0 0.0 0.0 0.0
000230 00 00 00 00 00 00 00 00 00 00 00 00 00 00 00 00
       0.0 0.0 0.0 0.0
000240 00 00 00 00 00 00 00 00 00 00 00 00 00 00 00 00
       0.0 0.0 0.0 0.0
000250 00 00 00 00 00 00 00 00 00 00 00 00 00 00 00 00
       0.0 0.0 0.0 0.0
000260 00 00 00 00 00 00 00 00 00 00 00 00 00 00 00 00
       0.0 0.0 0.0 0.0
000270 00 00 00 00 00 00 00 00 00 00 00 00 00 00 00 00
       0.0 0.0 0.0 0.0
000280 00 00 00 00 00 00 00 00 00 00 00 00 00 00 00 00
       0.0 0.0 0.0 0.0
000290 00 00 00 00 00 00 00 00 00 00 00 00 00 00 00 00
       0.0 0.0 0.0 0.0
0002a0 00 00 00 00 00 00 00 00 00 00 00 00 00 00 00 00
       0.0 0.0 0.0 0.0
0002b0 00 00 00 00 00 00 00 00 00 00 00 00 00 00 00 00
       0.0 0.0 0.0 0.0
0002c0 00 00 00 00 00 00 00 00 00 00 00 00 00 00 00 00
       0.0 0.0 0.0 0.0
0002d0 00 00 00 00 00 00 00 00 00 00 00 00 00 00 00 00
       0.0 0.0 0.0 0.0
0002e0 00 00 00 00 00 00 00 00 00 00 00 00 00 00 00 00
       0.0 0.0 0.0 0.0
0002f0 00 00 00 00 00 00 00 00 00 00 00 00 00 00 00 00
       0.0 0.0 0.0 0.0
000300 00 00 00 00 00 00 00 00 00 00 00 00 00 00 00 00
       0.0 0.0 0.0 0.0
000310 00 00 00 00 00 00 00 00 00 00 00 00 00 00 00 00
       0.0 0.0 0.0 0.0
000320 00 00 00 00 00 00 00 00 00 00 00 00 00 00 00 00
       0.0 0.0 0.0 0.0
000330 00 00 00 00 00 00 00 00 00 00 00 00 00 00 00 00
       0.0 0.0 0.0 0.0
000340 00 00 00 00 00 00 00 00 00 00 00 00 00 00 00 00
       0.0 0.0 0.0 0.0
000350 00 00 00 00 00 00 00 00 00 00 00 00 00 00 00 00
       0.0 0.0 0.0 0.0
000360 00 00 00 00 00 00 00 00 00 00 00 00 00 00 00 00
       0.0 0.0 0.0 0.0
000370 00 00 00 00 00 00 00 00 00 00 00 00 00 00 00 00
       0.0 0.0 0.0 0.0
000380 00 00 00 00 00 00 00 00 00 00 00 00 00 00 00 00
       0.0 0.0 0.0 0.0
000390 00 00 00 00 00 00 00 00 00 00 00 00 00 00 00 00
       0.0 0.0 0.0 0.0
0003a0 00 00 00 00 00 00 00 00 00 00 00 00 00 00 00 00
       0.0 0.0 0.0 0.0
0003b0 00 00 00 00 00 00 00 00 00 00 00 00 00 00 00 00
       0.0 0.0 0.0 0.0
0003c0 00 00 00 00 00 00 00 00 00 00 00 00 00 00 00 00
       0.0 0.0 0.0 0.0
0003d0 00 00 00 00 00 00 00 00 00 00 00 00 00 00 00 00
       0.0 0.0 0.0 0.0
0003e0 00 00 00 00 00 00 00 00 00 00 00 00 00 00 00 00
       0.0 0.0 0.0 0.0
0003f0 00 00 00 00 00 00 00 00 00 00 00 00 00 00 00 00
       0.0 0.0 0.0 0.0

gcn2.gcn.lin.weight f4 [256, 256]
000000 17 51 75 3d 43 98 ba 3d d2 b8 ed 3c 2d 7d 75 3d
       0.059891786 0.09111073 0.029018793 0.05993383
000010 e3 51 56 3d f6 b2 00 bc 9a cb c8 bd c0 8f 21 3d
       0.052324187 -0.007855168 -0.09804459 0.03944373
000020 7f 60 d2 3b a9 34 ce bd 92 28 a1 3d 40 02 8f bc
       0.0064201946 -0.10068638 0.07869066 -0.017457128
000030 18 56 ac 3c 20 dc d7 bd b0 d8 b1 3d 23 a7 51 bd
       0.021037146 -0.105400324 0.08683908 -0.051184785
000040 7c 4e 76 3d c9 4e 77 bc 36 0a 88 3d 18 41 ab bd
       0.060133442 -0.015094467 0.066425726 -0.08362025
000050 f7 09 a3 3d 79 b4 e9 3c a2 ac ad 3d 20 15 2b bd
       0.07960885 0.028528439 0.08480193 -0.041768193
000060 f6 27 bf 3d cf 14 6b bd 17 90 2c 3d a1 7e 11 3d
       0.09333794 -0.05739289 0.042129602 0.035521153
000070 09 45 20 3b fc 1d cb bd b6 94 ad 3d fb 35 b7 bd
       0.002445521 -0.099178284 0.0847563 -0.08945843
000080 c7 3a 2a 3c 50 11 60 3d 87 bb c6 3c ed 9e d5 bd
       0.01038999 0.05470401 0.024259342 -0.10430703
000090 7c d5 59 bc 20 84 a5 bd e2 6e 29 ba 83 96 01 bc
       -0.013295528 -0.080818415 -0.0006463361 -0.00790942
0000a0 ae 52 af bd 10 0f da bd ac f7 b2 bd 99 9e 8d bd
       -0.08560692 -0.10647404 -0.08738646 -0.06915016
0000b0 0f 91 f1 bc de 59 97 3d ba 52 a6 3d 7a 50 97 3c
       -0.029488115 0.07390188 0.081212476 0.018470991
0000c0 ae d4 df bb 4c 41 68 bc ec ce 3c bd 46 f4 a6 3c
       -0.0068307733 -0.014175724 -0.046095774 0.02038015
0000d0 db 19 66 bd ac bc a1 3d d1 7a aa 3d d3 34 89 bc
       -0.056177 0.078973144 0.083242066 -0.016748821
0000e0 21 0e 7e bc f6 5e de 3c 45 68 eb 3c 41 5e cb 3c
       -0.015506298 0.02714489 0.028736243 0.024825217
0000f0 05 5b a2 3d fc 0f ad bd 8c c3 c5 3d 3c a8 98 3c
       0.07927517 -0.084503144 0.09656438 0.018634908
000100 f1 22 a0 3d 42 cc 35 bd 92 d1 81 3d 46 e1 be bd
       0.078191645 -0.04438425 0.063388005 -0.09320311
000110 14 df 86 3d 97 a2 46 3d fd 02 04 bd 57 4b a2 bd
       0.065855175 0.0484949 -0.032229412 -0.07924526
000120 12 7d 9c 3d 1d 43 86 bd b6 68 92 3b 3a 03 39 bd
       0.07641043 -0.065557696 0.004468049 -0.045169093
000130 a0 3d 19 bd af ca a8 3d 72 a0 07 bd d6 7b b8 3d
       -0.037412286 0.08241784 -0.033111997 0.09007995
000140 89 62 20 bd c2 80 3b 3b 28 e3 30 bd ba c1 9d 3d
       -0.03915647 0.0028610681 -0.043185383 0.07702966
000150 5f c7 51 bc c2 ea c4 bd 1b ac d6 bc 5e 1e 82 3b
       -0.012803881 -0.09615089 -0.026205113 0.003970905
000160 ae 82 72 bd 10 d4 d7 3d d0 50 33 bc d4 15 57 3d
       -0.059206657 0.105384946 -0.01094456 0.05251105
000170 94 ea dc 3d 5d f3 b1 bd 68 8b 98 bd b0 0a 4f bd
       0.1078693 -0.08688996 -0.07448465 -0.0505473
000180 bd bc 3a bd 9b 4e c2 bc b8 2e 53 3b 7e b7 33 3d
       -0.04559015 -0.023719123 0.0032223891 0.043876164
000190 76 60 c5 bd 45 3b 26 3d b7 8c 84 3d 97 e8 56 3c
       -0.09637539 0.040583868 0.06472152 0.013116977
0001a0 be 5a a3 bd 52 6c ce 3d bb bd 85 3d fe cb c5 3d
       -0.07976292 0.10079254 0.06530329 0.09658049
0001b0 60 f4 60 bd df 4d ba 3d e8 8b 52 bc f9 3c a3 bc
       -0.054920554 0.09096884 -0.012850739 -0.019926535
0001c0 90 bb 14 3c c2 52 ad 3d a8 1e dc bd 91 37 96 3d
       0.0090779215 0.084630504 -0.10748035 0.07334817
0001d0 26 74 8d bd 0e f2 8b bd 3e f5 70 3d 44 48 08 3c
       -0.06906919 -0.06833278 0.05882763 0.008318011
0001e0 5c b1 76 bd a8 4b 99 3d e3 6a 5a bd 53 4c 91 3d
       -0.060227737 0.074851334 -0.05332459 0.07094636
0001f0 7f 35 c1 bd c0 8f 97 bc 1d 8f 4d bd 74 ad b1 bd
       -0.09434032 -0.018501163 -0.05018531 -0.08675662
000200 e0 ed d2 bd d8 b4 39 bc d1 b9 16 bc d0 a3 c7 3d
       -0.10299277 -0.01133462 -0.0091995755 0.09748042
000210 96 a1 8e 3d c5 f7 cc bd fb de 34 3d 5d 82 7e bd
       0.06964414 -0.10008196 0.044157963 -0.062136043
000220 02 cf c0 bc 09 f3 22 3c d7 c4 a6 bd ee bb 8a 3d
       -0.023536209 0.009945639 -0.08143013 0.06774126
000230 a1 7a 95 3c bf 38 5b bd 5b 5c d5 3d 8f 59 ed 3c
       0.01824695 -0.053520914 0.10418006 0.028973369
000240 b6 ee 81 bc 78 8e d3 3c 5d ee 3b bc f0 4e 9a 3d
       -0.015860897 0.02582477 -0.011470404 0.075345874
000250 c6 d8 78 bd 9f 2b f8 3c 5a 64 fe 3b 73 e9 82 b9
       -0.060753606 0.030294238 0.0077634277 -0.00024969465
000260 03 94 cc 3d 5b 87 cc 3c 7a f4 69 3d b7 4a 9a bd
       0.099891685 0.024966886 0.057117917 -0.07533782
000270 1a b7 a4 bd 18 e6 d6 3d a5 59 ba bd 56 59 a3 bb
       -0.08042736 0.10493106 -0.090991296 -0.004985015
000280 96 18 f3 bb 5b c9 d0 3a fe 50 24 3d 53 49 49 bd
       -0.0074187024 0.0015929149 0.040116303 -0.049142193
000290 d7 63 87 3d d1 8b bc 3c 92 83 29 bd a0 9b 54 3d
       0.0661084 0.023015888 -0.04138524 0.051906228
0002a0 96 00 8d bb 14 8a 07 bd b1 b7 cf 3a ca 0f b2 bc
       -0.0043030484 -0.033090666 0.0015847591 -0.021736044
0002b0 d0 a8 91 3d c8 50 32 bd bd 33 37 3d 69 c6 90 3d
       0.071122766 -0.04353407 0.044727076 0.07069094
0002c0 f3 36 25 bb 74 75 5c bd 51 32 8e 3d 78 c5 79 3b
       -0.0025209754 -0.05382295 0.06943191 0.0038112085
0002d0 3f c8 cc bd b6 57 09 3d ec 0b d2 bd ff 1e cc 3c
       -0.099991314 0.033530913 -0.1025618 0.024917124
0002e0 ce 11 b5 3d 45 fd d5 3d 0d d3 d5 bd 02 50 b8 bd
       0.088412866 0.10448698 -0.10440645 -0.08999635
0002f0 e5 d6 59 3d 90 64 f8 3c 30 81 d1 bd cc 92 6d bd
       0.053183455 0.03032139 -0.10229719 -0.058001325
000300 31 d0 08 bd f5 ed c8 bd e7 e0 db bd 55 d1 e1 3c
       -0.03340167 -0.09811012 -0.10736256 0.027565638
000310 d3 9e 77 bd a2 aa db bd 5d ff b0 bd e2 60 e1 bc
       -0.0604542 -0.10725905 -0.08642457 -0.027512018
000320 67 b1 d6 bd ae d2 d0 3d 39 c4 5f 3d 20 e6 ac 3b
       -0.104830556 0.10196434 0.054630492 0.0052764565
000330 0b 3c 4b bd 24 70 8a 3b 42 33 64 3b bb 3f 85 3d
       -0.04961781 0.004224794 0.003482059 0.06506296
000340 2e 74 a0 bd 03 1a 05 bd 49 ad 42 3d 61 ed 60 3d
       -0.078346595 -0.03249551 0.04752854 0.054913882
000350 bb 9d 15 bd 35 65 72 3d 12 2d d0 bd 55 dd 08 3c
       -0.036527377 0.05917855 -0.101648465 0.008353551
000360 c6 d8 61 bd 20 de ad bd f8 0b 34 3d 63 47 90 bc
       -0.055138372 -0.084896326 0.043956727 -0.017612165
000370 6c 63 1f bd 90 59 1b bd 67 6c ce bd 02 3c 8f bd
       -0.038913175 -0.03792721 -0.1007927 -0.069938675
000380 76 0c 3f 3c fe 4e 94 3d aa c3 ad 3c f0 4d 7a 3d
       0.011660686 0.07241629 0.021211464 0.061109483
000390 0f d8 d9 3d 5c 78 99 3d 87 15 d8 3d a1 ef bb 3d
       0.10636913 0.0749366 0.10550981 0.09176565
0003a0 a2 e6 47 3d 46 af 3f 3d a5 5b 82 bd fe 3b 03 bd
       0.048803933 0.046798013 -0.06365136 -0.032039635
0003b0 21 ed a7 bd b0 4a 83 bc 61 d5 09 3d 49 ae d0 bd
       -0.081995256 -0.016026825 0.03365076 -0.10189492
0003c0 c8 8c 9c bd 7e 31 af 3d 62 6b 51 bd 38 5f 54 3d
       -0.076440394 0.08554362 -0.0511278 0.05184862
0003d0 ee a4 00 3d 54 bf a0 bd 3a c5 8a bc 34 e6 24 bd
       0.03140729 -0.07848993 -0.016939748 -0.0402586
0003e0 e1 7d 7d bd 86 dd 51 bd 3a bf 8f bd 86 3a b0 bd
       -0.061887626 -0.05123665 -0.070188954 -0.086049125
0003f0 45 b6 ca 3c 84 8b 2c bc 32 d6 bc bd c9 27 2b 3d
       0.024745116 -0.01053131 -0.09220542 0.04178599

gcn3.gcn.bias f4 [256]
000000 00 00 00 00 00 00 00 00 00 00 00 00 00 00 00 00
       0.0 0.0 0.0 0.0
000010 00 00 00 00 00 00 00 00 00 00 00 00 00 00 00 00
       0.0 0.0 0.0 0.0
000020 00 00 00 00 00 00 00 00 00 00 00 00 00 00 00 00
       0.0 0.0 0.0 0.0
000030 00 00 00 00 00 00 00 00 00 00 00 00 00 00 00 00
       0.0 0.0 0.0 0.0
000040 00 00 00 00 00 00 00 00 00 00 00 00 00 00 00 00
       0.0 0.0 0.0 0.0
000050 00 00 00 00 00 00 00 00 00 00 00 00 00 00 00 00
       0.0 0.0 0.0 0.0
000060 00 00 00 00 00 00 00 00 00 00 00 00 00 00 00 00
       0.0 0.0 0.0 0.0
000070 00 00 00 00 00 00 00 00 00 00 00 00 00 00 00 00
       0.0 0.0 0.0 0.0
000080 00 00 00 00 00 00 00 00 00 00 00 00 00 00 00 00
       0.0 0.0 0.0 0.0
000090 00 00 00 00 00 00 00 00 00 00 00 00 00 00 00 00
       0.0 0.0 0.0 0.0
0000a0 00 00 00 00 00 00 00 00 00 00 00 00 00 00 00 00
       0.0 0.0 0.0 0.0
0000b0 00 00 00 00 00 00 00 00 00 00 00 00 00 00 00 00
       0.0 0.0 0.0 0.0
0000c0 00 00 00 00 00 00 00 00 00 00 00 00 00 00 00 00
       0.0 0.0 0.0 0.0
0000d0 00 00 00 00 00 00 00 00 00 00 00 00 00 00 00 00
       0.0 0.0 0.0 0.0
0000e0 00 00 00 00 00 00 00 00 00 00 00 00 00 00 00 00
       0.0 0.0 0.0 0.0
0000f0 00 00 00 00 00 00 00 00 00 00 00 00 00 00 00 00
       0.0 0.0 0.0 0.0
000100 00 00 00 00 00 00 00 00 00 00 00 00 00 00 00 00
       0.0 0.0 0.0 0.0
000110 00 00 00 00 00 00 00 00 00 00 00 00 00 00 00 00
       0.0 0.0 0.0 0.0
000120 00 00 00 00 00 00 00 00 00 00 00 00 00 00 00 00
       0.0 0.0 0.0 0.0
000130 00 00 00 00 00 00 00 00 00 00 00 00 00 00 00 00
       0.0 0.0 0.0 0.0
000140 00 00 00 00 00 00 00 00 00 00 00 00 00 00 00 00
       0.0 0.0 0.0 0.0
000150 00 00 00 00 00 00 00 00 00 00 00 00 00 00 00 00
       0.0 0.0 0.0 0.0
000160 00 00 00 00 00 00 00 00 00 00 00 00 00 00 00 00
       0.0 0.0 0.0 0.0
000170 00 00 00 00 00 00 00 00 00 00 00 00 00 00 00 00
       0.0 0.0 0.0 0.0
000180 00 00 00 00 00 00 00 00 00 00 00 00 00 00 00 00
       0.0 0.0 0.0 0.0
000190 00 00 00 00 00 00 00 00 00 00 00 00 00 00 00 00
       0.0 0.0 0.0 0.0
0001a0 00 00 00 00 00 00 00 00 00 00 00 00 00 00 00 00
       0.0 0.0 0.0 0.0
0001b0 00 00 00 00 00 00 00 00 00 00 00 00 00 00 00 00
       0.0 0.0 0.0 0.0
0001c0 00 00 00 00 00 00 00 00 00 00 00 00 00 00 00 00
       0.0 0.0 0.0 0.0
0001d0 00 00 00 00 00 00 00 00 00 00 00 00 00 00 00 00
       0.0 0.0 0.0 0.0
0001e0 00 00 00 00 00 00 00 00 00 00 00 00 00 00 00 00
       0.0 0.0 0.0 0.0
0001f0 00 00 00 00 00 00 00 00 00 00 00 00 00 00 00 00
       0.0 0.0 0.0 0.0
000200 00 00 00 00 00 00 00 00 00 00 00 00 00 00 00 00
       0.0 0.0 0.0 0.0
000210 00 00 00 00 00 00 00 00 00 00 00 00 00 00 00 00
       0.0 0.0 0.0 0.0
000220 00 00 00 00 00 00 00 00 00 00 00 00 00 00 00 00
       0.0 0.0 0.0 0.0
000230 00 00 00 00 00 00 00 00 00 00 00 00 00 00 00 00
       0.0 0.0 0.0 0.0
000240 00 00 00 00 00 00 00 00 00 00 00 00 00 00 00 00
       0.0 0.0 0.0 0.0
000250 00 00 00 00 00 00 00 00 00 00 00 00 00 00 00 00
       0.0 0.0 0.0 0.0
000260 00 00 00 00 00 00 00 00 00 00 00 00 00 00 00 00
       0.0 0.0 0.0 0.0
000270 00 00 00 00 00 00 00 00 00 00 00 00 00 00 00 00
       0.0 0.0 0.0 0.0
000280 00 00 00 00 00 00 00 00 00 00 00 00 00 00 00 00
       0.0 0.0 0.0 0.0
000290 00 00 00 00 00 00 00 00 00 00 00 00 00 00 00 00
       0.0 0.0 0.0 0.0
0002a0 00 00 00 00 00 00 00 00 00 00 00 00 00 00 00 00
       0.0 0.0 0.0 0.0
0002b0 00 00 00 00 00 00 00 00 00 00 00 00 00 00 00 00
       0.0 0.0 0.0 0.0
0002c0 00 00 00 00 00 00 00 00 00 00 00 00 00 00 00 00
       0.0 0.0 0.0 0.0
0002d0 00 00 00 00 00 00 00 00 00 00 00 00 00 00 00 00
       0.0 0.0 0.0 0.0
0002e0 00 00 00 00 00 00 00 00 00 00 00 00 00 00 00 00
       0.0 0.0 0.0 0.0
0002f0 00 00 00 00 00 00 00 00 00 00 00 00 00 00 00 00
       0.0 0.0 0.0 0.0
000300 00 00 00 00 00 00 00 00 00 00 00 00 00 00 00 00
       0.0 0.0 0.0 0.0
000310 00 00 00 00 00 00 00 00 00 00 00 00 00 00 00 00
       0.0 0.0 0.0 0.0
000320 00 00 00 00 00 00 00 00 00 00 00 00 00 00 00 00
       0.0 0.0 0.0 0.0
000330 00 00 00 00 00 00 00 00 00 00 00 00 00 00 00 00
       0.0 0.0 0.0 0.0
000340 00 00 00 00 00 00 00 00 00 00 00 00 00 00 00 00
       0.0 0.0 0.0 0.0
000350 00 00 00 00 00 00 00 00 00 00 00 00 00 00 00 00
       0.0 0.0 0.0 0.0
000360 00 00 00 00 00 00 00 00 00 00 00 00 00 00 00 00
       0.0 0.0 0.0 0.0
000370 00 00 00 00 00 00 00 00 00 00 00 00 00 00 00 00
       0.0 0.0 0.0 0.0
000380 00 00 00 00 00 00 00 00 00 00 00 00 00 00 00 00
       0.0 0.0 0.0 0.0
000390 00 00 00 00 00 00 00 00 00 00 00 00 00 00 00 00
       0.0 0.0 0.0 0.0
0003a0 00 00 00 00 00 00 00 00 00 00 00 00 00 00 00 00
       0.0 0.0 0.0 0.0
0003b0 00 00 00 00 00 00 00 00 00 00 00 00 00 00 00 00
       0.0 0.0 0.0 0.0
0003c0 00 00 00 00 00 00 00 00 00 00 00 00 00 00 00 00
       0.0 0.0 0.0 0.0
0003d0 00 00 00 00 00 00 00 00 00 00 00 00 00 00 00 00
       0.0 0.0 0.0 0.0
0003e0 00 00 00 00 00 00 00 00 00 00 00 00 00 00 00 00
       0.0 0.0 0.0 0.0
0003f0 00 00 00 00 00 00 00 00 00 00 00 00 00 00 00 00
       0.0 0.0 0.0 0.0

gcn3.gcn.lin.weight f4 [256, 256]
000000 27 7e cc bc 83 08 df 3c 59 54 ad 3d 4e 26 e6 3b
       -0.024962498 0.027225738 0.08463354 0.0070236092
000010 a9 b0 ef bc 1d d9 8d 3d 91 b8 3f 3d bb ed 0d bd
       -0.029259043 0.06926177 0.046806876 -0.034650546
000020 c1 e3 3e bc 5e 1a 1a bd 6f 06 95 bd d2 81 d5 3d
       -0.01165098 -0.037622802 -0.07276618 0.10425152
000030 fa 96 fc bc 87 ce 2a 3d bb c6 f7 bc 6a 5b b2 bd
       -0.03083371 0.041700866 -0.03024613 -0.08708842
000040 93 de b4 bd b7 f5 0d bd 50 52 cf bc 06 f0 54 3c
       -0.08831515 -0.03465816 -0.025307804 0.012996679
000050 5e 4b 83 bd 20 76 0b bd 85 79 6f bd b3 0c cf bd
       -0.064108595 -0.0340482 -0.0584655 -0.10109844
000060 86 f7 81 bd 3f 46 8e 3d f9 f3 89 bd 53 7a 89 bd
       -0.063460395 0.06946992 -0.06735987 -0.067127846
000070 03 90 60 bd d6 2f da 3d 08 23 76 bc 70 de f7 bc
       -0.05482484 0.10653655 -0.015023001 -0.030257434
000080 b6 12 32 bd a6 c9 9a 3d 00 de 26 3d a6 94 c8 3c
       -0.043474875 0.07557993 0.04073906 0.024484944
000090 d7 bc c6 3d f3 86 ad 3d 1f d9 d7 3d 01 73 84 bd
       0.09703987 0.08473005 0.105394594 -0.06467248
0000a0 0f 88 76 3d 67 bc 04 bc 5b da 49 3d 02 09 d2 bd
       0.06018835 -0.008101559 0.049280506 -0.10255624
0000b0 26 42 05 3d 15 65 a6 3b 5b 78 9b 3d 94 1a 8b 3d
       0.032533787 0.005077968 0.07591315 0.06792179
0000c0 1a 3d d8 bb b1 8c ec 3c ea 84 0d bd e1 bb a4 3d
       -0.0065990807 0.02887568 -0.034550585 0.080436476
0000d0 22 15 1b bd 0c 2f 09 bd e0 37 d4 bd cc 66 54 bd
       -0.03786195 -0.033492133 -0.1036222 -0.051855847
0000e0 3c df c7 3d 31 ed c0 3d 20 54 59 3d 43 77 10 3d
       0.097593755 0.09420241 0.053058743 0.035269987
0000f0 2f 83 2f 3c 07 f3 4a 3b 28 0a a1 bd d1 12 8c bd
       0.010712429 0.003096761 -0.07863265 -0.068395264
000100 89 6b 69 3b bc 6a 86 3c 86 f7 55 bd 5a c0 45 3d
       0.0035617074 0.016408317 -0.05223801 0.048279144
000110 ff 7f dc 3c b9 05 81 3d c1 91 93 bd 3e e5 99 bd
       0.026916502 0.0629992 -0.07205535 -0.075144276
000120 8f 39 7d bd fb 57 ba 3c 28 63 35 3d b2 e8 53 3b
       -0.06182247 0.02274703 0.044284016 0.0032334742
000130 86 0a a9 3d ac 52 03 3c cc cd 84 3d ca 48 7c 3d
       0.0825396 0.008015316 0.06484565 0.061592855
000140 81 c2 3d bc 65 3e b3 3d 5a 02 20 3b 28 b5 bd bd
       -0.011582018 0.08752135 0.0024415464 -0.092630684
000150 b0 53 18 3d 58 d1 06 bd 63 18 98 3d 19 eb 9b 3d
       0.037189186 -0.03291449 0.074265264 0.07613201
000160 74 ac ce 3d 1b 16 c1 3c b2 51 9f bd 51 4a 30 3b
       0.100914866 0.023570111 -0.07779254 0.0026899765
000170 c7 97 60 bd 5f f6 79 3d ac 16 80 3c 24 8f da 3c
       -0.054832246 0.061025973 0.01563581 0.026679583
000180 c8 58 38 bd d1 96 c5 bd 03 1e b4 3d 21 13 cc bd
       -0.045006543 -0.096479066 0.08794787 -0.09964586
000190 4a af 8c bb 97 94 a7 bd 2a 94 7f 3d 22 5b 78 3d
       -0.004293357 -0.08182638 0.06239716 0.060633786
0001a0 3a 5c cc bd 41 71 10 bd db c2 99 3d 51 94 99 3d
       -0.09978528 -0.035264257 0.07507869 0.07498992
0001b0 0a 68 c1 3d e7 09 f8 3c 12 06 3c bc 16 ea 8a bd
       0.09443672 0.03027816 -0.011476057 -0.067829296
0001c0 15 b2 ab bd fd f7 d3 3d fc 43 f4 3c 3a a0 3f bd
       -0.08383576 0.103500344 0.029817574 -0.046783663
0001d0 e7 90 bd bd d0 f5 d5 3d ea 8e 77 bd 81 83 12 bc
       -0.092561536 0.10447276 -0.060439028 -0.008942486
0001e0 41 2b b3 3d 65 e3 41 3d 68 28 40 3b ad f8 34 3b
       0.087484844 0.047336 0.002932096 0.0027614043
0001f0 a3 3d f6 3c 85 b8 9c bd fe a0 b3 bd 42 e4 92 bd
       0.030058688 -0.07652382 -0.08770941 -0.07172443
000200 3e 97 ba 3d d4 20 a2 3d 2a 03 bd 3c 9f ec 9d 3d
       0.091108784 0.07916418 0.023072798 0.077111475
000210 da 6f d7 3c 37 1a 00 bc 6b f6 b9 bd bc 79 2e bd
       0.026298452 -0.00781875 -0.090802036 -0.042596564
000220 6a 16 92 3d 1f b3 6a 3d 17 db 9e bd 2f 9d fe bb
       0.071331814 0.05729973 -0.07756632 -0.0077702026
000230 78 03 27 3d dd bf 66 bd c9 55 a5 3d 17 84 aa bc
       0.040774792 -0.05633532 0.08073003 -0.020814938
000240 52 a9 d0 3d 31 78 5d 3c 8c 1a ac 3d b8 34 dc 3d
       0.10188545 0.013517425 0.08403501 0.10752243
000250 59 f9 ab 3d c5 ef bf 3d d1 1d db bc b0 13 e6 ba
       0.08397169 0.09371904 -0.026747616 -0.0017553475
000260 5a 26 a9 3b 41 14 9c bd 0a e3 d0 bc 8d 56 93 3d
       0.0051620426 -0.076210506 -0.025498886 0.071942426
000270 6a 3d c9 3d c6 00 90 3d 91 7f 9c 3d bc 2e 03 3d
       0.09826167 0.070313975 0.07641519 0.03202699
000280 72 37 68 3b 37 57 14 3b ca b8 e7 3c c2 94 00 bb
       0.0035433439 0.0022634992 0.028286356 -0.0019619917
000290 c5 3e 06 bd 43 20 c0 3c b3 9d b4 3d 70 5d 99 3d
       -0.032774705 0.023452884 0.08819141 0.07488525
0002a0 79 65 c2 bd 1d 68 94 3d 56 9e d2 3c 10 28 3f 3b
       -0.094920106 0.072464205 0.025710266 0.0029168166
0002b0 8e d6 78 bd 6f 7c a0 bc e1 43 36 bc a6 6f d8 bd
       -0.06075149 -0.019590585 -0.011124582 -0.1056817
0002c0 83 2f a1 3a 73 bd 53 bd 06 96 9e 3c 4b d3 98 3c
       0.0012297485 -0.051694345 0.019358646 0.01865544
0002d0 b9 22 8d bd 56 56 d5 3d ba 68 9e 3d 6e 30 94 3d
       -0.068913884 0.10416858 0.07734819 0.072358
0002e0 b5 9a 45 bb b5 e7 81 3d f8 1e 15 3d 7e 52 86 bd
       -0.0030152027 0.06343023 0.036406487 -0.06558703
0002f0 e4 39 ba bd b6 08 d5 3d 43 ef 4e 3c 75 17 3c bd
       -0.09093073 0.10402052 0.012630287 -0.045920808
000300 84 b5 6c bd 72 00 11 bc 24 d8 d7 3d 27 22 47 3b
       -0.057790294 -0.008850204 0.105392724 0.0030385347
000310 45 c2 0e ba 6f 10 0d 3d 14 ae 94 bd 93 c0 81 3d
       -0.00054458185 0.0344395 -0.07259765 0.06335559
000320 3b 18 49 3d b2 c5 ee 3b ec 8a 8d bd 69 69 ca 3d
       0.049095374 0.0072867507 -0.06911263 0.09883387
000330 f9 75 39 3d 3e 02 d4 3c 55 13 98 3d a8 ec 91 bb
       0.045278523 0.025879975 0.07425562 -0.0044532605
000340 f2 4d a8 bd 88 fe bc bd d4 0f 01 bd 55 7a 08 3d
       -0.08217992 -0.092282355 -0.031509236 0.03331979
000350 2d 96 e4 bc 48 94 a6 bc 8c ce 76 3d 54 8e 8f 3b
       -0.02790364 -0.020334378 0.060255572 0.0043809805
000360 f1 d8 bc 3d 2f 80 dc 3d 8d 02 d3 3d c2 1e d3 bd
       0.09221066 0.107666366 0.10303221 -0.10308601
000370 b4 2f 36 3d b4 57 12 bd 5e e0 9b 3d 52 f9 04 3d
       0.044479087 -0.03572817 0.07611154 0.032464333
000380 0a 93 89 bd bb 17 d6 bd 58 06 6b 3d ce 49 f4 bc
       -0.067174986 -0.10453745 0.057379097 -0.029820349
000390 9e 2c 79 bd 6f 69 bb 3d ad 35 86 3d af 25 84 bd
       -0.060833566 0.09150969 0.065532066 -0.064525
0003a0 46 d2 e5 bc 7f 3c c4 3d 18 58 a6 3d ef bc 91 bd
       -0.028054368 0.09581851 0.08122271 -0.07116114
0003b0 43 88 1e 3d 6c 4e 7a bd b3 0d 92 3d c4 1d 78 3b
       0.038704168 -0.061109945 0.07131519 0.0037859539
0003c0 09 1f ce bc ab fa 88 bb be 79 b2 3c 33 46 8a 3d
       -0.025161283 -0.0041802726 0.021786567 0.06751671
0003d0 6b 47 a7 bd db 30 d3 bc 46 46 31 3d 3d b8 dc 3d
       -0.08167919 -0.025780132 0.04327991 0.10777328
0003e0 19 7b 09 bd 66 03 8a bc 8d bf 2d bd f9 26 99 3c
       -0.03356466 -0.016847324 -0.042419005 0.018695341
0003f0 50 ae 91 3d ed 16 0f bc cf a7 b7 3d 52 be b1 3d
       0.071133256 -0.008733493 0.08967554 0.08678879

fc1.weight f4 [128, 256]
000000 50 33 94 3b 48 b8 56 bd 82 fa 34 bd d8 6d 2d bc
       0.0045227185 -0.052421838 -0.044184215 -0.010585271
000010 3e 37 1f 3d e0 01 8a bc 8c 59 f3 bc 04 78 07 bd
       0.038871042 -0.016846597 -0.029705785 -0.03307344
000020 d0 7e c0 bb 10 d9 eb bc 50 a5 03 3d 30 ea 30 bd
       -0.005874492 -0.028790027 0.032140076 -0.04319209
000030 58 54 a5 3c 88 cb 77 3c 4c fc 5d 3d aa 00 67 bd
       0.02018182 0.015124209 0.054195687 -0.056397118
000040 4e 3c 20 bd dc 7b c2 bc 28 8f 42 bd 70 3b a8 bb
       -0.03912001 -0.023740701 -0.047499806 -0.0051340386
000050 1c f9 91 3c 18 5f f2 3c 40 34 ab 3c 70 e1 5b bc
       0.01781898 0.02958636 0.020898938 -0.013420448
000060 a0 fa a4 3c 54 19 c6 3c 78 63 45 3d 7c 09 fb 3c
       0.020139039 0.024182 0.048190564 0.030644171
000070 c8 9e 7b bd b4 71 e8 3c c0 60 df 3a 60 b9 25 3b
       -0.061430722 0.02837453 0.0017042384 0.0025287494
000080 00 6d 8d 39 58 4f 50 bd 92 00 2d 3d 58 32 23 bd
       0.00026974827 -0.050856918 0.042236872 -0.039842933
000090 90 51 14 bc 24 00 eb 3c 16 67 20 3d 16 69 1e 3d
       -0.009052649 0.02868659 0.03916081 0.038674437
0000a0 80 fc ed 3b d2 d8 1f bd 00 89 64 bd 9c a7 e2 bc
       0.0072627664 -0.039025135 -0.055794716 -0.027667813
0000b0 5c 49 ff bc b0 22 c2 bc 84 9b 4a 3d 1c 0b bf 3c
       -0.03116291 -0.02369818 0.049464718 0.023320727
0000c0 98 c0 00 bc 20 25 60 3c fe 61 08 bd 4a 71 2f bd
       -0.007858418 0.013680726 -0.033296578 -0.04283265
0000d0 68 3c 51 bc 44 62 9d bc e0 de ab bc c0 2a ad ba
       -0.01277075 -0.019211896 -0.020980299 -0.0013211593
0000e0 90 2f 07 bd 68 d2 67 3c 76 92 5b bd 8c 1d 91 3c
       -0.033004344 0.014149286 -0.053606473 0.017714284
0000f0 b8 59 f3 3c e6 ba 4f 3d 58 5d 5a 3d ea 8d 57 bd
       0.029705867 0.05071535 0.053311676 -0.052625574
000100 48 b0 57 bd 56 10 58 3d 4c d1 70 bd 8e e6 48 3d
       -0.05265835 0.052749954 -0.05879335 0.049048
000110 c4 62 3b bd 18 df d1 bc 2a 11 2d 3d e4 f9 b3 3c
       -0.045748487 -0.025619075 0.042252697 0.021969743
000120 f8 7d 48 3d de fb 16 3d ec 15 08 bd b8 66 74 bd
       0.04894826 0.036861293 -0.03322403 -0.059668273
000130 90 d0 a9 3c dc 00 8c 3c f8 24 fd bc e0 dd 01 3c
       0.020729333 0.017090254 -0.030901417 0.007926434
000140 d0 d9 fd bb de 90 4f 3d f2 d2 4d 3d b0 75 17 3d
       -0.0077469125 0.050675265 0.05025 0.03697747
000150 96 7e 62 3d 64 99 92 bc 30 5d 39 bc 70 c0 30 bc
       0.055296503 -0.017895408 -0.011313722 -0.010788068
000160 c6 70 5f bd 40 8b 74 bb 00 4c 9b 38 7c 2e 8b 3c
       -0.05455091 -0.0037314445 7.405132e-05 0.016989939
000170 9a 83 0c bd e8 ac 2f 3d e8 3b 29 bc 60 7a 3e 3b
       -0.034305193 0.042889506 -0.010329224 0.002906464
000180 5c 59 f0 3c 44 47 2f bd 68 f8 73 bd f2 c7 6f 3d
       0.029339485 -0.042792574 -0.05956307 0.058540292
000190 64 c1 e3 3c 70 58 3a bd 4c d2 b6 bc a8 3d 5e 3c
       0.027802177 -0.045494497 -0.022317074 0.013564505
0001a0 10 3f e5 3b 30 1d 44 3d e0 76 c2 bb 08 0b 6c 3c
       0.006996043 0.047879398 -0.005934581 0.014406927
0001b0 88 2d 05 bd a0 ec f8 3c 74 3f 32 bd 74 b5 59 bd
       -0.032514125 0.03038627 -0.043517545 -0.053151563
0001c0 a8 0f 3d 3c 4a d8 21 bd 08 7f 4a 3c 86 a5 47 3d
       0.011539377 -0.03951291 0.012359388 0.04874184
0001d0 22 3e 47 3d 00 fc 4a 3b e0 f1 bb 3b a0 53 ff 3c
       0.04864324 0.0030972958 0.005735621 0.031167805
0001e0 72 26 06 3d 1a 54 69 3d 00 e0 a6 b7 48 45 42 3d
       0.032751508 0.05696497 -1.989305e-05 0.047429353
0001f0 c0 aa 72 bd 60 d0 17 3d 88 81 83 bc 8e 47 33 bd
       -0.05924487 0.037063956 -0.016052976 -0.04376941
000200 d0 07 b6 bb 3c 44 fa bc 40 da ac ba e2 55 53 3d
       -0.0055551305 -0.030550115 -0.0013187602 0.051595576
000210 ac 1a 81 bc c2 98 43 3d 7e f2 57 bd e4 c3 16 3d
       -0.015759788 0.047753103 -0.052721493 0.03680791
000220 64 8a 16 bd f8 2d 88 bc 58 0c 27 3d 5e f0 45 3d
       -0.036753073 -0.016623482 0.040783256 0.048324935
000230 6e bb 4e bd 3e 3a 14 bd ea 5b 0e bd 10 33 82 bb
       -0.050471716 -0.036188357 -0.034755625 -0.0039733723
000240 1a 75 0a bd 90 3e 3e bc b6 f4 1a 3d 4c d0 af 3c
       -0.033803083 -0.011611596 0.03783103 0.021461628
000250 24 5d ab bc f8 57 75 bc c0 ab ce 3b 70 f0 2d bd
       -0.020918436 -0.014974587 0.0063070953 -0.042465627
000260 ce 2f 68 bd 28 f8 19 3d 38 0c d9 bc 5c d3 c2 3c
       -0.056686215 0.037590176 -0.026495084 0.023782425
000270 5c b2 59 bd 10 cc 96 3c e0 61 85 3c 42 1f 30 bd
       -0.053148612 0.018407851 0.016282022 -0.04299856
000280 48 0d e4 bc 40 97 77 bd f4 4e 2a 3d d4 c3 1f 3d
       -0.027838364 -0.060446978 0.0415792 0.039005116
000290 98 8e a5 3c c0 9d 28 bc f2 0b 11 3d e0 1e 25 3b
       0.020209596 -0.010291517 0.035411783 0.0025195405
0002a0 82 a1 28 3d 76 61 43 3d 8c 5d 3a bd 26 c8 7c 3d
       0.04116965 0.047700368 -0.04549937 0.061714314
0002b0 00 da 1e b9 92 9b 04 bd d0 e2 6a bc c2 7c 73 bd
       -0.00015149266 -0.032374926 -0.014336303 -0.05944515
0002c0 68 b9 96 3c 8c e4 90 3c 96 ab 21 bd aa 60 27 3d
       0.018398955 0.017687105 -0.039470278 0.04086367
0002d0 b6 23 17 3d 24 34 a0 bc ba 44 01 3d ce 94 65 bd
       0.03689929 -0.019556113 0.031559683 -0.056050114
0002e0 94 bd 99 3c 40 94 6c 3c ce 45 20 3d 78 7f 14 3d
       0.018767156 0.014439642 0.03912907 0.036254376
0002f0 dc 71 d2 bc 54 3d af 3c 84 6c 8e bc a0 d1 18 bc
       -0.025689058 0.021391548 -0.017385729 -0.009327322
000300 58 5a 65 bc 14 13 64 3d 30 7a b4 bb 94 fc 7b bd
       -0.01399859 0.055682257 -0.00550773 -0.061520174
000310 c4 f3 01 3d 1c a5 a3 bc 14 b3 d8 3c b0 74 d2 3b
       0.031726614 -0.019976191 0.026452579 0.0064226016
000320 12 f0 42 bd 14 1e 1f 3d 50 7f f9 bc e8 d3 43 bd
       -0.04759223 0.038847044 -0.030456215 -0.04780951
000330 c0 27 a2 3a b6 89 16 bd 18 26 2b 3c cc ce 01 bd
       0.0012371466 -0.036752425 0.010446094 -0.031691357
000340 88 eb 76 3d 70 df 14 bc 00 1f c5 b9 68 85 38 bc
       0.060283214 -0.009086475 -0.00037597865 -0.011262275
000350 54 79 7e bd b4 ae b8 3c 18 a5 f1 3c e6 b6 25 3d
       -0.062127426 0.022544242 0.029497668 0.04045763
000360 d0 d3 2a bd 50 51 09 bd d4 cf 9e 3c 00 08 18 3d
       -0.041705906 -0.03352481 0.01938621 0.037117004
000370 26 22 0e 3d 20 3a 1b bd 78 37 4a 3c 82 c8 64 3d
       0.034700535 -0.03789723 0.012342326 0.05585528
000380 cc d0 a8 3c b0 10 c3 3c 1c bf 04 3d d8 2a c0 bc
       0.020607375 0.023811668 0.03240882 -0.02345793
000390 fc 21 ce 3c b0 01 43 bc a6 d9 60 bd c6 bf 14 3d
       0.02516269 -0.011902258 -0.054895066 0.036315702
0003a0 80 01 e8 3c 18 f0 ee bc 80 eb 5d 3b 18 0a c4 3c
       0.028321028 -0.02916722 0.0033862293 0.023930594
0003b0 1e db 6c bd cc d0 6d 3d 76 6b 4a bd b2 76 61 3d
       -0.057826154 0.058060452 -0.04941889 0.055044837
0003c0 80 d9 06 bd 98 f8 ea bc c0 97 60 3d 00 07 0a bb
       -0.032922268 -0.028682992 0.05483222 -0.0021061301
0003d0 80 f0 82 3c a0 ac 7d 3d 34 42 a4 3c fe 9b 24 3d
       0.01598382 0.061932206 0.0200511 0.04018783
0003e0 da df 02 3d a0 c6 b3 bb 42 9f 30 bd a0 cf 1f bb
       0.031951763 -0.0054863244 -0.04312063 -0.0024385229
0003f0 7c b6 b9 bc 00 64 ba b8 18 ae 2a 3d b2 d7 08 3d
       -0.022670023 -8.8877976e-05 0.041669935 0.033408828

fc1.bias f4 [128]
000000 5c bd c5 3c 88 ba 61 bc ec 47 57 3d c0 51 2e 3d
       0.024138145 -0.013777383 0.052558824 0.04255843
000010 50 07 1f bc f4 4c 8a bc c8 2b 20 3c 30 88 b1 bc
       -0.009706333 -0.016882397 0.009776063 -0.021671385
000020 c0 70 83 3a 78 3d 1f bc f8 42 04 3c 60 f8 de bb
       0.0010028109 -0.009719245 0.008072607 -0.006804511
000030 38 03 50 bc c8 d3 60 3c c0 01 df 3a 36 28 4e bd
       -0.01269608 0.013722368 0.0017014071 -0.050331317
000040 04 8c d8 bc a4 aa e3 3c e2 73 26 3d 5c e8 e0 3c
       -0.026433952 0.027791329 0.04063786 0.027454548
000050 e8 e7 41 3d 40 b1 36 3c 0a 60 59 3d dc 0c ca bc
       0.047340304 0.011150658 0.053070106 -0.024664335
000060 be df 66 3d 38 aa 79 3c 6c 2c 3d 3d 80 c6 f0 bb
       0.05636572 0.015238337 0.046184942 -0.007347882
000070 56 85 04 bd 68 10 73 3c 36 9d 61 bd f0 d0 5d 3c
       -0.03235372 0.0148354545 -0.05508157 0.013538584
000080 10 8c 47 bd 74 a9 9f bc ce 30 28 3d 00 9d 91 ba
       -0.04871756 -0.019489981 0.04106217 -0.0011109412
000090 a6 79 5e bd bc bd cc bc 00 83 c7 b9 f0 73 0b bd
       -0.05431523 -0.024992816 -0.0003805384 -0.034046113
0000a0 a4 bb 86 3c ae 3b 25 bd a4 fc ad bc 04 83 bb 3c
       0.016446896 -0.040340118 -0.021238633 0.022889622
0000b0 64 c2 1b 3d 98 b4 42 bc e0 80 2a bd 0e f6 4d bd
       0.038027182 -0.011883877 -0.04162681 -0.050283484
0000c0 94 7c 82 bc f4 63 a8 bc ac 07 c5 bc 48 cb 0e bd
       -0.015928544 -0.020555474 -0.02405151 -0.034861833
0000d0 6a 51 34 3d 7c d1 81 bc 10 19 1c bd 00 23 62 bd
       0.044022955 -0.01584696 -0.03810984 -0.05520916
0000e0 74 da 9f bc a8 7b 66 3c 76 c9 4f bd a0 0a 35 3d
       -0.019513346 0.014067568 -0.050729237 0.044199586
0000f0 98 9b 4a 3c b4 ca ec bc 8e 9e 70 bd de 27 07 bd
       0.012366198 -0.02890525 -0.05874496 -0.032997005
000100 e8 3f 22 3d be 9d 6e 3d 76 02 24 3d ea 35 03 bd
       0.039611727 0.058255903 0.04004141 -0.03203384
000110 36 04 29 3d 74 ec c7 bc 60 f4 b3 bb d8 23 0a 3d
       0.04126378 -0.024404742 -0.0054917783 0.03372559
000120 18 0f 92 3c 10 b1 90 bc 90 a1 72 3c cc 73 0b 3d
       0.017829463 -0.017662555 0.014809027 0.03404598
000130 bc db a2 bc ae 95 15 3d 24 a4 4d bd de 0c 47 bd
       -0.019880168 0.0365197 -0.050205365 -0.048596255
000140 30 f6 60 3d 84 bc 73 bd f2 42 70 3d 94 8d da 3c
       0.054922283 -0.059505954 0.058657594 0.026678838
000150 c2 5f 65 3d 20 c3 29 bc 4a 5d 65 bd e0 eb d6 3b
       0.055999525 -0.010361463 -0.05599717 0.00655888
000160 60 bb e5 bc e8 df 4e bc d8 d5 42 bd ec a7 ea 3c
       -0.028043449 -0.012626626 -0.04756722 0.028644525
000170 4c bf 1b 3d 08 a7 7a 3c 9a b8 3f 3d c0 31 44 bc
       0.03802423 0.015298612 0.04680691 -0.011974752
000180 98 94 0d 3d 0c b8 74 bd 22 17 59 3d 68 63 64 bc
       0.03456554 -0.059745833 0.053000577 -0.013939716
000190 18 74 a0 3c 7a b2 4f 3d 74 6f 92 3c c8 25 23 bd
       0.019586608 0.050707318 0.01787541 -0.039830953
0001a0 da 0a 7e bd 80 1c 34 bc 58 75 13 bc b6 2a 60 3d
       -0.062022068 -0.010993123 -0.009000145 0.054728232
0001b0 e8 c4 2d bd 2a c4 50 bd 00 c7 a1 3b b0 a0 86 3b
       -0.042424113 -0.050968327 0.0049370527 0.004108511
0001c0 4c c5 c1 bc 94 41 ea bc 14 6c 14 3d 58 47 4b bd
       -0.023653649 -0.028595723 0.036235884 -0.049628586
0001d0 d0 3d 2f 3c 6a aa 4a 3d c0 3a 96 bb e8 13 16 3d
       0.01069589 0.049478926 -0.0045846403 0.036640078
0001e0 44 66 23 3d 3a b6 6a 3d 30 e9 c1 bc 24 4b 26 bd
       0.03989245 0.05730269 -0.023670763 -0.040599003
0001f0 7e 54 3e bd 26 8d 51 bd 14 e1 2f bd 98 62 3c bd
       -0.046467297 -0.05116 -0.04293926 -0.045992464
