ImitationLearning/Models/Accepted/pairwiserank_14.pth (torch, 722821 bytes, 26 tensors)

gcn1.gcn.bias f4 [256]
0.0 0.0 0.0 0.0 0.0 0.0 0.0 0.0
0.0 0.0 0.0 0.0 0.0 0.0 0.0 0.0
0.0 0.0 0.0 0.0 0.0 0.0 0.0 0.0
0.0 0.0 0.0 0.0 0.0 0.0 0.0 0.0
0.0 0.0 0.0 0.0 0.0 0.0 0.0 0.0
0.0 0.0 0.0 0.0 0.0 0.0 0.0 0.0
0.0 0.0 0.0 0.0 0.0 0.0 0.0 0.0
0.0 0.0 0.0 0.0 0.0 0.0 0.0 0.0
0.0 0.0 0.0 0.0 0.0 0.0 0.0 0.0
0.0 0.0 0.0 0.0 0.0 0.0 0.0 0.0
0.0 0.0 0.0 0.0 0.0 0.0 0.0 0.0
0.0 0.0 0.0 0.0 0.0 0.0 0.0 0.0
0.0 0.0 0.0 0.0 0.0 0.0 0.0 0.0
0.0 0.0 0.0 0.0 0.0 0.0 0.0 0.0
0.0 0.0 0.0 0.0 0.0 0.0 0.0 0.0
0.0 0.0 0.0 0.0 0.0 0.0 0.0 0.0
0.0 0.0 0.0 0.0 0.0 0.0 0.0 0.0
0.0 0.0 0.0 0.0 0.0 0.0 0.0 0.0
0.0 0.0 0.0 0.0 0.0 0.0 0.0 0.0
0.0 0.0 0.0 0.0 0.0 0.0 0.0 0.0
0.0 0.0 0.0 0.0 0.0 0.0 0.0 0.0
0.0 0.0 0.0 0.0 0.0 0.0 0.0 0.0
0.0 0.0 0.0 0.0 0.0 0.0 0.0 0.0
0.0 0.0 0.0 0.0 0.0 0.0 0.0 0.0
0.0 0.0 0.0 0.0 0.0 0.0 0.0 0.0
0.0 0.0 0.0 0.0 0.0 0.0 0.0 0.0
0.0 0.0 0.0 0.0 0.0 0.0 0.0 0.0
0.0 0.0 0.0 0.0 0.0 0.0 0.0 0.0
0.0 0.0 0.0 0.0 0.0 0.0 0.0 0.0
0.0 0.0 0.0 0.0 0.0 0.0 0.0 0.0
0.0 0.0 0.0 0.0 0.0 0.0 0.0 0.0
0.0 0.0 0.0 0.0 0.0 0.0 0.0 0.0
00000000: 0000 0000 0000 0000 0000 0000 0000 0000
00000010: 0000 0000 0000 0000 0000 0000 0000 0000
00000020: 0000 0000 0000 0000 0000 0000 0000 0000
00000030: 0000 0000 0000 0000 0000 0000 0000 0000
00000040: 0000 0000 0000 0000 0000 0000 0000 0000
00000050: 0000 0000 0000 0000 0000 0000 0000 0000
00000060: 0000 0000 0000 0000 0000 0000 0000 0000
00000070: 0000 0000 0000 0000 0000 0000 0000 0000
00000080: 0000 0000 0000 0000 0000 0000 0000 0000
00000090: 0000 0000 0000 0000 0000 0000 0000 0000
000000a0: 0000 0000 0000 0000 0000 0000 0000 0000
000000b0: 0000 0000 0000 0000 0000 0000 0000 0000
000000c0: 0000 0000 0000 0000 0000 0000 0000 0000
000000d0: 0000 0000 0000 0000 0000 0000 0000 0000
000000e0: 0000 0000 0000 0000 0000 0000 0000 0000
000000f0: 0000 0000 0000 0000 0000 0000 0000 0000
00000100: 0000 0000 0000 0000 0000 0000 0000 0000
00000110: 0000 0000 0000 0000 0000 0000 0000 0000
00000120: 0000 0000 0000 0000 0000 0000 0000 0000
00000130: 0000 0000 0000 0000 0000 0000 0000 0000
00000140: 0000 0000 0000 0000 0000 0000 0000 0000
00000150: 0000 0000 0000 0000 0000 0000 0000 0000
00000160: 0000 0000 0000 0000 0000 0000 0000 0000
00000170: 0000 0000 0000 0000 0000 0000 0000 0000
00000180: 0000 0000 0000 0000 0000 0000 0000 0000
00000190: 0000 0000 0000 0000 0000 0000 0000 0000
000001a0: 0000 0000 0000 0000 0000 0000 0000 0000
000001b0: 0000 0000 0000 0000 0000 0000 0000 0000
000001c0: 0000 0000 0000 0000 0000 0000 0000 0000
000001d0: 0000 0000 0000 0000 0000 0000 0000 0000
000001e0: 0000 0000 0000 0000 0000 0000 0000 0000
000001f0: 0000 0000 0000 0000 0000 0000 0000 0000
00000200: 0000 0000 0000 0000 0000 0000 0000 0000
00000210: 0000 0000 0000 0000 0000 0000 0000 0000
00000220: 0000 0000 0000 0000 0000 0000 0000 0000
00000230: 0000 0000 0000 0000 0000 0000 0000 0000
00000240: 0000 0000 0000 0000 0000 0000 0000 0000
00000250: 0000 0000 0000 0000 0000 0000 0000 0000
00000260: 0000 0000 0000 0000 0000 0000 0000 0000
00000270: 0000 0000 0000 0000 0000 0000 0000 0000
00000280: 0000 0000 0000 0000 0000 0000 0000 0000
00000290: 0000 0000 0000 0000 0000 0000 0000 0000
000002a0: 0000 0000 0000 0000 0000 0000 0000 0000
000002b0: 0000 0000 0000 0000 0000 0000 0000 0000
000002c0: 0000 0000 0000 0000 0000 0000 0000 0000
000002d0: 0000 0000 0000 0000 0000 0000 0000 0000
000002e0: 0000 0000 0000 0000 0000 0000 0000 0000
000002f0: 0000 0000 0000 0000 0000 0000 0000 0000
00000300: 0000 0000 0000 0000 0000 0000 0000 0000
00000310: 0000 0000 0000 0000 0000 0000 0000 0000
00000320: 0000 0000 0000 0000 0000 0000 0000 0000
00000330: 0000 0000 0000 0000 0000 0000 0000 0000
00000340: 0000 0000 0000 0000 0000 0000 0000 0000
00000350: 0000 0000 0000 0000 0000 0000 0000 0000
00000360: 0000 0000 0000 0000 0000 0000 0000 0000
00000370: 0000 0000 0000 0000 0000 0000 0000 0000
00000380: 0000 0000 0000 0000 0000 0000 0000 0000
00000390: 0000 0000 0000 0000 0000 0000 0000 0000
000003a0: 0000 0000 0000 0000 0000 0000 0000 0000
000003b0: 0000 0000 0000 0000 0000 0000 0000 0000
000003c0: 0000 0000 0000 0000 0000 0000 0000 0000
000003d0: 0000 0000 0000 0000 0000 0000 0000 0000
000003e0: 0000 0000 0000 0000 0000 0000 0000 0000
000003f0: 0000 0000 0000 0000 0000 0000 0000 0000

gcn1.gcn.lin.weight f4 [256, 9]
0.067252055 0.09881792 -0.08607798 0.099066876 -0.08460716 0.11460954 -0.11851246 -0.017327193
-0.14694734 -0.07600308 -0.10679668 -0.09238649 0.06470175 -0.051984 0.14758427 -0.065513425
0.046747837 -0.14550416 -0.123861015 -0.14861776 0.14764738 -0.051533822 -0.13054058 -0.11594904
-0.08256237 0.07777041 -0.1231289 -0.12467791 -0.14606133 0.033722334 -0.017781533 -0.1203077
0.02553923 0.11704027 0.09264094 0.041567925 -0.10226833 0.14307518 -0.13788675 0.12409526
-0.14741045 -0.031610925 0.08108868 0.07640147 0.03820846 -0.048303023 0.03711366 -0.04685765
0.12020115 0.13843274 0.06423591 -0.07953161 -0.14528963 0.1429066 0.037833814 -0.14144973
0.13000269 0.1473527 -0.099979304 -0.11690312 0.054443955 0.14722358 -0.044179775 0.028325433
-0.12650298 0.0015942702 -0.055248097 0.10582818 -0.028641276 -0.10623886 -0.05684371 0.13953683
-0.0767345 -0.12679094 0.14018664 -0.06645807 0.12349631 -0.13824831 0.041524157 -0.10601166
-0.05779494 -0.025603447 -6.1705123e-06 -0.07128142 0.08781764 0.14645927 -0.12697199 -0.09811181
0.11445009 -0.07297623 0.005784084 0.05375144 0.016943868 -0.054386035 0.14115147 0.05287937
-0.020529313 0.035517324 0.020263962 -0.12012319 0.122684136 0.07921431 -0.14404087 -0.029474923
1.3166152e-05 -0.056924984 0.054354697 -0.1370477 -0.0545389 0.055958904 0.01191386 -0.118748315
0.14253874 -0.1086085 0.07317797 0.035423044 0.124052845 -0.051892664 0.14343184 -0.013803346
0.02531042 0.036698405 -0.03291796 0.1344995 0.007851725 -0.0923006 -0.06923591 0.07146668
0.016537081 -0.14751558 0.11569336 0.06585673 0.07722511 -0.11807679 0.10156744 0.00774767
0.010216216 -0.12755446 0.012474193 0.067335755 0.022956189 -0.13676469 -0.11527805 -0.12814046
0.02782006 -0.105662726 0.094114125 0.086226076 0.05604829 0.011079335 -0.090129785 0.12324022
-0.054612946 -0.061015803 0.14240812 -0.09045148 0.10999835 -0.09218428 0.11575648 0.045057062
-0.09702521 -0.14204945 0.1193856 -0.110494934 0.066422105 -0.047606237 0.02613777 -0.042708483
0.054905273 -0.02238086 0.10389727 -0.050231416 0.004206065 -0.072692454 -0.062412705 -0.05580486
0.1280595 -0.10916589 -0.10947212 -0.019220304 -0.107284725 -0.14400673 -0.08008751 -0.0009831025
0.045549806 0.035945494 0.017014183 0.12848711 0.13479567 0.117092036 0.12069719 -0.07841132
-0.00615679 -0.06617887 0.1417998 -0.14908132 -0.12623237 0.013450264 -0.08086631 0.1489286
0.111731604 -0.05209611 0.12776394 -0.0866558 0.1330974 -0.036321484 -0.10911089 0.033995647
0.1360728 -0.09253835 0.124213666 -0.12679255 0.14915034 0.06459656 -0.102225296 0.13441335
-0.04400813 0.06793987 0.048529018 -0.055369943 0.121685736 -0.10706303 -0.08862608 -0.06604045
0.06368857 0.11132497 0.023717154 -0.036437593 0.118406214 0.040335026 -0.07063956 -0.1477812
-0.12309091 0.09910289 -0.0364257 0.06732449 0.13964169 0.1018026 0.056023642 0.09985857
0.05263587 0.06745575 -0.102245174 0.08665561 -0.055551544 0.055730112 0.12237497 -0.059522144
0.09092099 -0.1324625 0.034588233 -0.022619592 -0.053661752 -0.011272001 -0.1149156 -0.025429793
00000000: 72bb 893d 0d61 ca3d a749 b0bd 93e3 ca3d
00000010: 8546 adbd 68b8 ea3d a9b6 f2bd c2f1 8dbc
00000020: 5d79 16be 81a7 9bbd 38b8 dabd 2135 bdbd
00000030: 5a82 843d 2ded 54bd 5520 173e e72b 86bd
00000040: a97a 3f3d 0bff 14be d8aa fdbd 412f 18be
00000050: e030 173e 2115 53bd 6eac 05be b176 edbd
00000060: 7616 a9bd 1846 9f3d 012b fcbd 2257 ffbd
00000070: 1a91 15be 6e20 0a3d 94aa 91bc e263 f6bd
00000080: a637 d13c cfb2 ef3d 88ba bd3d 2143 2a3d
00000090: 0f72 d1bd 4d82 123e 2f32 0dbe a825 fe3d
000000a0: c4f2 16be 757a 01bd d211 a63d 6078 9c3d
000000b0: 7980 1c3d 64d9 45bd 7e04 183d cfed 3fbd
000000c0: 052c f63d 50c1 0d3e 1e8e 833d 78e1 a2bd
000000d0: cec6 14be 1c56 123e a1f7 1a3d 33d8 10be
000000e0: 6d1f 053e a0e3 163e f3c1 ccbd e76a efbd
000000f0: a000 5f3d c7c1 163e daf5 34bd bd0a e83c
00000100: ff89 01be d5f6 d03a d44b 62bd 72bc d83d
00000110: 1ca1 eabc c293 d9bd f3d4 68bd bee2 0e3e
00000120: fa26 9dbd 7cd5 01be 168d 0f3e 2b1b 88bd
00000130: a2eb fc3d f790 0dbe 3c15 2a3d a41c d9bd
00000140: 63ba 6cbd 52be d1bc 4c0c cfb6 fefb 91bd
00000150: bcd9 b33d 6bf9 153e f204 02be d8ee c8bd
00000160: cf64 ea3d 9074 95bd 6a88 bd3b 782a 5c3d
00000170: decd 8a3c e4c3 5ebd 038a 103e 0a98 583d
00000180: 172d a8bc 9d7a 113d 9c00 a63c 2603 f6bd
00000190: d241 fb3d 1d3b a23d 737f 13be 6575 f1bc
000001a0: 31e4 5c37 2c2a 69bd 08a3 5e3d 3b56 0cbe
000001b0: 2e64 5fbd 2a35 653d 5a32 433c 5132 f3bd
000001c0: adf5 113e 226e debd 55de 953d c117 113d
000001d0: 6b0f fe3d 678d 54bd ccdf 123e 6e27 62bc
000001e0: cc57 cf3c 1151 163d fcd4 06bd 3dba 093e
000001f0: 86a4 003c 1908 bdbd 8fcb 8dbd 1f5d 923d
00000200: c678 873c 530e 17be a4f0 ec3d e5df 863d
00000210: 3328 9e3d 3ed2 f1bd 9702 d03d 2be0 fd3b
00000220: ea61 273c a39d 02be 8f60 4c3c 54e7 893d
00000230: 9e0e bc3c 0b0c 0cbe e616 ecbd 4137 03be
00000240: e5e6 e33c b365 d8bd e8be c03d 4c97 b03d
00000250: e492 653d 1986 353c f795 b8bd 5e65 fc3d
00000260: d3b1 5fbd b5eb 79bd 6fd3 113e a03e b9bd
00000270: d146 e13d 1dcb bcbd bc11 ed3d c18d 383d
00000280: 27b5 c6bd 6975 11be 7080 f43d 2b4b e2bd
00000290: 5008 883d c2fe 42bd e01e d63c 17ef 2ebd
000002a0: 5ae4 603d 1158 b7bc 18c8 d43d 75bf 4dbd
000002b0: 08d3 893b c8df 94bd 77a4 7fbd a393 64bd
000002c0: 0822 033e 5e92 dfbd eb32 e0bd e673 9dbc
000002d0: 18b8 dbbd 8076 13be ec04 a4bd 72db 80ba
000002e0: 6f92 3a3d 953b 133d 5461 8b3c 2092 033e
000002f0: e007 0a3e f3cd ef3d 1730 f73d 1d96 a0bd
00000300: e6be c9bb ca88 87bd f733 113e c6a8 18be
00000310: 0f43 01be 7f5e 5c3c 3c9d a5bd bd80 183e
00000320: 8ad3 e43d bb62 55bd 8dd4 023e 9978 b1bd
00000330: af4a 083e d6c5 14bd 8875 dfbd 053f 0b3d
00000340: ab56 0b3e bf84 bdbd bc63 fe3d e8d5 01be
00000350: deba 183e 344b 843d 7f5b d1bd a7a3 093e
00000360: de41 34bd 0f24 8b3d 5dc6 463d 98cb 62bd
00000370: 5f36 f93d dd43 dbbd 9781 b5bd 3740 87bd
00000380: 276f 823d 59fe e33d 7a4a c23c 963f 15bd
00000390: f57e f23d 5736 253d 79ab 90bd f453 17be
000003a0: 1617 fcbd 75f6 ca3d 1d33 15bd 6ce1 893d
000003b0: 3bfe 0e3e e27d d03d 0c79 653d a682 cc3d
000003c0: b698 573d 3e26 8a3d eb65 d1bd 7f78 b13d
000003d0: 048a 63bd 4245 643d ba9f fa3d 7ecd 73bd
000003e0: c934 ba3d 40a4 07be 64ac 0d3d b94c b9bc
000003f0: 6dcc 5bbd 33ae 38bc df58 ebbd 2452 d0bc

gcn2.gcn.bias f4 [256]
0.0 0.0 0.0 0.0 0.0 0.0 0.0 0.0
0.0 0.0 0.0 0.0 0.0 0.0 0.0 0.0
0.0 0.0 0.0 0.0 0.0 0.0 0.0 0.0
0.0 0.0 0.0 0.0 0.0 0.0 0.0 0.0
0.0 0.0 0.0 0.0 0.0 0.0 0.0 0.0
0.0 0.0 0.0 0.0 0.0 0.0 0.0 0.0
0.0 0.0 0.0 0.0 0.0 0.0 0.0 0.0
0.0 0.0 0.0 0.0 0.0 0.0 0.0 0.0
0.0 0.0 0.0 0.0 0.0 0.0 0.0 0.0
0.0 0.0 0.0 0.0 0.0 0.0 0.0 0.0
0.0 0.0 0.0 0.0 0.0 0.0 0.0 0.0
0.0 0.0 0.0 0.0 0.0 0.0 0.0 0.0
0.0 0.0 0.0 0.0 0.0 0.0 0.0 0.0
0.0 0.0 0.0 0.0 0.0 0.0 0.0 0.0
0.0 0.0 0.0 0.0 0.0 0.0 0.0 0.0
0.0 0.0 0.0 0.0 0.0 0.0 0.0 0.0
0.0 0.0 0.0 0.0 0.0 0.0 0.0 0.0
0.0 0.0 0.0 0.0 0.0 0.0 0.0 0.0
0.0 0.0 0.0 0.0 0.0 0.0 0.0 0.0
0.0 0.0 0.0 0.0 0.0 0.0 0.0 0.0
0.0 0.0 0.0 0.0 0.0 0.0 0.0 0.0
0.0 0.0 0.0 0.0 0.0 0.0 0.0 0.0
0.0 0.0 0.0 0.0 0.0 0.0 0.0 0.0
0.0 0.0 0.0 0.0 0.0 0.0 0.0 0.0
0.0 0.0 0.0 0.0 0.0 0.0 0.0 0.0
0.0 0.0 0.0 0.0 0.0 0.0 0.0 0.0
0.0 0.0 0.0 0.0 0.0 0.0 0.0 0.0
0.0 0.0 0.0 0.0 0.0 0.0 0.0 0.0
0.0 0.0 0.0 0.0 0.0 0.0 0.0 0.0
0.0 0.0 0.0 0.0 0.0 0.0 0.0 0.0
0.0 0.0 0.0 0.0 0.0 0.0 0.0 0.0
0.0 0.0 0.0 0.0 0.0 0.0 0.0 0.0
00000000: 0000 0000 0000 0000 0000 0000 0000 0000
00000010: 0000 0000 0000 0000 0000 0000 0000 0000
00000020: 0000 0000 0000 0000 0000 0000 0000 0000
00000030: 0000 0000 0000 0000 0000 0000 0000 0000
00000040: 0000 0000 0000 0000 0000 0000 0000 0000
00000050: 0000 0000 0000 0000 0000 0000 0000 0000
00000060: 0000 0000 0000 0000 0000 0000 0000 0000
00000070: 0000 0000 0000 0000 0000 0000 0000 0000
00000080: 0000 0000 0000 0000 0000 0000 0000 0000
00000090: 0000 0000 0000 0000 0000 0000 0000 0000
000000a0: 0000 0000 0000 0000 0000 0000 0000 0000
000000b0: 0000 0000 0000 0000 0000 0000 0000 0000
000000c0: 0000 0000 0000 0000 0000 0000 0000 0000
000000d0: 0000 0000 0000 0000 0000 0000 0000 0000
000000e0: 0000 0000 0000 0000 0000 0000 0000 0000
000000f0: 0000 0000 0000 0000 0000 0000 0000 0000
00000100: 0000 0000 0000 0000 0000 0000 0000 0000
00000110: 0000 0000 0000 0000 0000 0000 0000 0000
00000120: 0000 0000 0000 0000 0000 0000 0000 0000
00000130: 0000 0000 0000 0000 0000 0000 0000 0000
00000140: 0000 0000 0000 0000 0000 0000 0000 0000
00000150: 0000 0000 0000 0000 0000 0000 0000 0000
00000160: 0000 0000 0000 0000 0000 0000 0000 0000
00000170: 0000 0000 0000 0000 0000 0000 0000 0000
00000180: 0000 0000 0000 0000 0000 0000 0000 0000
00000190: 0000 0000 0000 0000 0000 0000 0000 0000
000001a0: 0000 0000 0000 0000 0000 0000 0000 0000
000001b0: 0000 0000 0000 0000 0000 0000 0000 0000
000001c0: 0000 0000 0000 0000 0000 0000 0000 0000
000001d0: 0000 0000 0000 0000 0000 0000 0000 0000
000001e0: 0000 0000 0000 0000 0000 0000 0000 0000
000001f0: 0000 0000 0000 0000 0000 0000 0000 0000
00000200: 0000 0000 0000 0000 0000 0000 0000 0000
00000210: 0000 0000 0000 0000 0000 0000 0000 0000
00000220: 0000 0000 0000 0000 0000 0000 0000 0000
00000230: 0000 0000 0000 0000 0000 0000 0000 0000
00000240: 0000 0000 0000 0000 0000 0000 0000 0000
00000250: 0000 0000 0000 0000 0000 0000 0000 0000
00000260: 0000 0000 0000 0000 0000 0000 0000 0000
00000270: 0000 0000 0000 0000 0000 0000 0000 0000
00000280: 0000 0000 0000 0000 0000 0000 0000 0000
00000290: 0000 0000 0000 0000 0000 0000 0000 0000
000002a0: 0000 0000 0000 0000 0000 0000 0000 0000
000002b0: 0000 0000 0000 0000 0000 0000 0000 0000
000002c0: 0000 0000 0000 0000 0000 0000 0000 0000
000002d0: 0000 0000 0000 0000 0000 0000 0000 0000
000002e0: 0000 0000 0000 0000 0000 0000 0000 0000
000002f0: 0000 0000 0000 0000 0000 0000 0000 0000
00000300: 0000 0000 0000 0000 0000 0000 0000 0000
00000310: 0000 0000 0000 0000 0000 0000 0000 0000
00000320: 0000 0000 0000 0000 0000 0000 0000 0000
00000330: 0000 0000 0000 0000 0000 0000 0000 0000
00000340: 0000 0000 0000 0000 0000 0000 0000 0000
00000350: 0000 0000 0000 0000 0000 0000 0000 0000
00000360: 0000 0000 0000 0000 0000 0000 0000 0000
00000370: 0000 0000 0000 0000 0000 0000 0000 0000
00000380: 0000 0000 0000 0000 0000 0000 0000 0000
00000390: 0000 0000 0000 0000 0000 0000 0000 0000
000003a0: 0000 0000 0000 0000 0000 0000 0000 0000
000003b0: 0000 0000 0000 0000 0000 0000 0000 0000
000003c0: 0000 0000 0000 0000 0000 0000 0000 0000
000003d0: 0000 0000 0000 0000 0000 0000 0000 0000
000003e0: 0000 0000 0000 0000 0000 0000 0000 0000
000003f0: 0000 0000 0000 0000 0000 0000 0000 0000

gcn2.gcn.lin.weight f4 [256, 256]
-0.025179904 -0.044176523 0.050915387 -0.017969253 -0.019291956 0.019861778 0.06716712 0.09813052
-0.04125903 0.10299976 -0.0354082 0.07081739 -0.035978526 0.05626896 0.005744823 -0.008728421
0.105210096 -0.03163547 0.020239618 0.05567294 -0.09118919 -0.08769434 -0.05219491 -0.045371544
0.108195566 -0.0457619 0.036553755 -0.09000671 0.054808076 -0.06452406 -0.012580487 -0.06441064
-0.06052412 0.10457704 0.05573162 -0.05585592 -0.08823699 -0.07881122 0.046642885 -0.037556585
-0.025588948 0.0008363461 0.08734701 -0.02025669 -0.10786444 -0.100074045 -0.063545205 0.0118166655
-0.070757486 -0.031890523 -0.06346716 0.03970478 0.07297784 -6.66274e-05 0.092809245 0.09146296
-0.059957083 -0.017177029 0.014603299 0.061915655 -0.07879751 0.03853327 -0.011012427 -0.04011047
0.098458596 0.023582073 0.05493925 -0.04494927 0.054842506 -0.059917893 -0.027971106 -0.035308186
-0.06692489 -0.0029794306 0.0033654515 -0.05165945 -0.02225932 -0.0592646 -0.08892292 -0.06539319
0.033780865 0.0960406 0.01839093 -0.07411416 0.05570972 0.077365756 -0.034458768 -0.077043846
0.01671252 0.066861376 0.012433269 -0.058154196 0.055866282 -0.004923562 0.094765045 -0.0879274
-0.01984024 0.1018756 0.05090416 0.01852199 -0.0012554548 -0.013891523 0.00070180086 -0.021427102
0.046961762 -0.01745985 -0.05164102 0.020050343 -0.0626343 0.10179358 0.015175522 0.07680491
0.03172814 0.01040523 -0.040200222 -0.08087576 0.046616223 0.02356411 -0.041656177 -0.025845313
-0.064382404 -0.09864436 0.022624694 -0.02712561 -0.07085659 0.039905697 0.021530768 0.083059914
0.024760034 -0.03689044 -0.026968727 0.06042171 -0.10421685 0.08119777 0.02096213 0.10702402
0.031373143 -0.040977683 0.0048078964 0.025444621 0.04638488 -0.09485143 -0.06296261 0.002284121
0.037493393 0.094560936 0.083160676 0.10545619 0.04394644 -0.034159698 0.010571199 0.01681825
0.0181899 -0.058784038 0.104441576 0.0027290909 -0.01302676 -0.016097814 0.10266819 0.077214085
0.017405044 -0.040873826 0.08518206 -0.03420013 0.026268901 -0.07384744 0.09371162 0.0577841
0.08140448 0.06563701 -0.0289863 -0.061903294 -0.0007404894 0.10289263 0.10680591 -0.065276176
-0.08270702 -0.0024698982 0.027037354 -0.010457921 0.10437097 0.050633248 -0.10688238 -0.09654473
0.03535477 0.09195392 0.010540821 0.06238943 0.045931973 -0.0060040024 -0.09374779 -0.027903743
0.0024916558 -0.028735263 -0.047282226 -0.0493381 0.07899266 0.08560808 -0.07891513 -0.06470923
0.09767833 0.026997002 0.08887088 0.0022870374 -0.07056532 0.062207602 -0.10143594 -0.10667174
-0.029742159 -0.07753495 -0.10482209 -0.0051590744 -0.0153719075 -0.01228045 0.058234412 0.09424052
0.033814713 -0.06504539 0.031018881 -0.01478536 -0.09016908 0.0077696736 0.06488693 -0.08299325
0.016096072 -0.055273447 -0.07779093 -0.079622865 0.082930416 -0.0673427 0.07903491 0.056196064
-0.013990915 -0.051910732 -0.07646123 -0.08805335 0.0567086 -0.09830725 -0.09962874 0.06687308
0.015024459 0.055765815 0.09253433 -0.020906394 0.059787877 0.0020117783 -0.10307882 0.012977077
0.0146082025 0.06579765 -0.06928808 -0.04436648 0.02262406 0.07575774 0.10534072 -0.08201661
00000000: 1646 cebc 71f2 34bd a78c 503d 4134 93bc
00000010: 2a0a 9ebc 2bb5 a23c ea8e 893d a7f8 c83d
00000020: 3bff 28bd 8af1 d23d 3008 11bd b508 913d
00000030: 385e 13bd 487a 663d 113f bc3b a701 0fbc
00000040: 6478 d73d 3294 01bd 8ecd a53c 4f09 643d
00000050: 66c1 babd 1799 b3bd 54ca 55bd 83d7 39bd
00000060: a395 dd3d d470 3bbd 64b9 153d 7055 b8bd
00000070: 6f7e 603d 3125 84bd 631e 4ebc bae9 83bd
00000080: 24e8 77bd 7d2c d63d d746 643d 2dc9 64bd
00000090: 98b5 b4bd c767 a1bd 9c0c 3f3d efd4 19bd
000000a0: ea9f d1bc 3d3e 5b3a fde2 b23d 5cf1 a5bc
000000b0: 08e8 dcbd 9ff3 ccbd fd23 82bd b09a 413c
000000c0: 4de9 90bd a39f 02bd 12fb 81bd 7ba1 223d
000000d0: 6875 953d 50ba 8bb8 c612 be3d ef50 bb3d
000000e0: 8f95 75bd d7b6 8cbc ad42 6f3c 459b 7d3d
000000f0: 9760 a1bd 10d5 1d3d 776d 34bc e04a 24bd
00000100: a9a4 c93d 312f c13c fb07 613d ba1c 38bd
00000110: 89a2 603d 776c 75bd a923 e5bc 519f 10bd
00000120: eb0f 89bd 8d42 43bb e88e 5c3b dc98 53bd
00000130: 2d59 b6bc 70bf 72bd 381d b6bd ddec 85bd
00000140: ce5d 0a3d efb0 c43d 93a8 963c 2ac9 97bd
00000150: e02f 643d f071 9e3d a324 0dbd 2ac9 9dbd
00000160: b2e8 883c 9eee 883d e9b4 4b3c 1833 6ebd
00000170: 0bd4 643d d555 a1bb 2d14 c23d 4813 b4bd
00000180: 0088 a2bc 28a4 d03d e180 503d 6ebb 973c
00000190: 138e a4ba 4599 63bc 0ff9 373a e487 afbc
000001a0: fa5a 403d f607 8fbc 8985 53bd 9e40 a43c
000001b0: 6946 80bd 2779 d03d c1a2 783c e54b 9d3d
000001c0: 5ef5 013d b37a 2a3c fda8 24bd 31a2 a5bd
000001d0: a7f0 3e3d 8509 c13c ab9f 2abd 8db9 d3bc
000001e0: ecda 83bd 0e06 cabd 6c57 b93c 8736 debc
000001f0: 431d 91bd 2874 233d 4b61 b03c 511b aa3d
00000200: 8ed5 ca3c 6e1a 17bd 85ed dcbc c17c 773d
00000210: a56f d5bd 044b a63d c6b8 ab3c 692f db3d
00000220: 2081 003d 37d8 27bd 8f8b 9d3b 3d71 d03c
00000230: 12fe 3d3d 7741 c2bd 8af2 80bd 31b1 153b
00000240: ac92 193d 2aa9 c13d 2550 aa3d 6af9 d73d
00000250: 2f01 343d 0aeb 0bbd d232 2d3c 6dc6 893c
00000260: fc02 953c 88c7 70bd 77e5 d53d 8cda 323b
00000270: 316e 55bc 90df 83bc b343 d23d 6b22 9e3d
00000280: 0695 8e3c 506b 27bd ef73 ae3d 6f15 0cbd
00000290: e131 d73c 543d 97bd e1eb bf3d 05af 6c3d
000002a0: 64b7 a63d b26c 863d ad74 edbc 4f8e 7dbd
000002b0: 671d 42ba 5fb9 d23d 0fbd da3d 84af 85bd
000002c0: 4c62 a9bd 04de 21bb 717d dd3c b357 2bbc
000002d0: 72c0 d53d cf64 4f3d 26e5 dabd 3eb9 c5bd
000002e0: 2ad0 103d 5652 bc3d 68b3 2c3c 0f8c 7f3d
000002f0: 2a23 3c3d 39bd c4bb d7fe bfbd 6496 e4bc
00000300: 0c4b 233b 3766 ebbc 02ab 41bd bf16 4abd
00000310: e7c6 a13d 4a53 af3d 419e a1bd 4686 84bd
00000320: 940b c83d d128 dd3c f001 b63d 1fe2 153b
00000330: 8d84 90bd 66cd 7e3d a5bd cfbd b776 dabd
00000340: d4a5 f3bc a5ca 9ebd f7ac d6bd 740d a9bb
00000350: 74da 7bbc f133 49bc 3587 6e3d 2c01 c13d
00000360: 4c81 0a3d 8436 85bd 4f1b fe3c 4b3e 72bc
00000370: 91aa b8bd bf98 fe3b 70e3 843d 5df8 a9bd
00000380: e9db 833c 6966 62bd da50 9fbd 5011 a3bd
00000390: 6cd7 a93d f8ea 89bd 0edd a13d d82d 663d
000003a0: 273a 65bc 59a0 54bd b597 9cbd 5155 b4bd
000003b0: 4747 683d 5055 c9bd 270a ccbd c1f4 883d
000003c0: 2629 763c b26a 643d a482 bd3d e343 abbc
000003d0: 22e4 743d 0ad8 033b fd1a d3bd ce9d 543c
000003e0: 3e57 6f3c ebc0 863d e9e6 8dbd a0b9 35bd
000003f0: 1856 b93c e026 9b3d e0bc d73d 53f8 a7bd

gcn3.gcn.bias f4 [256]
0.0 0.0 0.0 0.0 0.0 0.0 0.0 0.0
0.0 0.0 0.0 0.0 0.0 0.0 0.0 0.0
0.0 0.0 0.0 0.0 0.0 0.0 0.0 0.0
0.0 0.0 0.0 0.0 0.0 0.0 0.0 0.0
0.0 0.0 0.0 0.0 0.0 0.0 0.0 0.0
0.0 0.0 0.0 0.0 0.0 0.0 0.0 0.0
0.0 0.0 0.0 0.0 0.0 0.0 0.0 0.0
0.0 0.0 0.0 0.0 0.0 0.0 0.0 0.0
0.0 0.0 0.0 0.0 0.0 0.0 0.0 0.0
0.0 0.0 0.0 0.0 0.0 0.0 0.0 0.0
0.0 0.0 0.0 0.0 0.0 0.0 0.0 0.0
0.0 0.0 0.0 0.0 0.0 0.0 0.0 0.0
0.0 0.0 0.0 0.0 0.0 0.0 0.0 0.0
0.0 0.0 0.0 0.0 0.0 0.0 0.0 0.0
0.0 0.0 0.0 0.0 0.0 0.0 0.0 0.0
0.0 0.0 0.0 0.0 0.0 0.0 0.0 0.0
0.0 0.0 0.0 0.0 0.0 0.0 0.0 0.0
0.0 0.0 0.0 0.0 0.0 0.0 0.0 0.0
0.0 0.0 0.0 0.0 0.0 0.0 0.0 0.0
0.0 0.0 0.0 0.0 0.0 0.0 0.0 0.0
0.0 0.0 0.0 0.0 0.0 0.0 0.0 0.0
0.0 0.0 0.0 0.0 0.0 0.0 0.0 0.0
0.0 0.0 0.0 0.0 0.0 0.0 0.0 0.0
0.0 0.0 0.0 0.0 0.0 0.0 0.0 0.0
0.0 0.0 0.0 0.0 0.0 0.0 0.0 0.0
0.0 0.0 0.0 0.0 0.0 0.0 0.0 0.0
0.0 0.0 0.0 0.0 0.0 0.0 0.0 0.0
0.0 0.0 0.0 0.0 0.0 0.0 0.0 0.0
0.0 0.0 0.0 0.0 0.0 0.0 0.0 0.0
0.0 0.0 0.0 0.0 0.0 0.0 0.0 0.0
0.0 0.0 0.0 0.0 0.0 0.0 0.0 0.0
0.0 0.0 0.0 0.0 0.0 0.0 0.0 0.0
00000000: 0000 0000 0000 0000 0000 0000 0000 0000
00000010: 0000 0000 0000 0000 0000 0000 0000 0000
00000020: 0000 0000 0000 0000 0000 0000 0000 0000
00000030: 0000 0000 0000 0000 0000 0000 0000 0000
00000040: 0000 0000 0000 0000 0000 0000 0000 0000
00000050: 0000 0000 0000 0000 0000 0000 0000 0000
00000060: 0000 0000 0000 0000 0000 0000 0000 0000
00000070: 0000 0000 0000 0000 0000 0000 0000 0000
00000080: 0000 0000 0000 0000 0000 0000 0000 0000
00000090: 0000 0000 0000 0000 0000 0000 0000 0000
000000a0: 0000 0000 0000 0000 0000 0000 0000 0000
000000b0: 0000 0000 0000 0000 0000 0000 0000 0000
000000c0: 0000 0000 0000 0000 0000 0000 0000 0000
000000d0: 0000 0000 0000 0000 0000 0000 0000 0000
000000e0: 0000 0000 0000 0000 0000 0000 0000 0000
000000f0: 0000 0000 0000 0000 0000 0000 0000 0000
00000100: 0000 0000 0000 0000 0000 0000 0000 0000
00000110: 0000 0000 0000 0000 0000 0000 0000 0000
00000120: 0000 0000 0000 0000 0000 0000 0000 0000
00000130: 0000 0000 0000 0000 0000 0000 0000 0000
00000140: 0000 0000 0000 0000 0000 0000 0000 0000
00000150: 0000 0000 0000 0000 0000 0000 0000 0000
00000160: 0000 0000 0000 0000 0000 0000 0000 0000
00000170: 0000 0000 0000 0000 0000 0000 0000 0000
00000180: 0000 0000 0000 0000 0000 0000 0000 0000
00000190: 0000 0000 0000 0000 0000 0000 0000 0000
000001a0: 0000 0000 0000 0000 0000 0000 0000 0000
000001b0: 0000 0000 0000 0000 0000 0000 0000 0000
000001c0: 0000 0000 0000 0000 0000 0000 0000 0000
000001d0: 0000 0000 0000 0000 0000 0000 0000 0000
000001e0: 0000 0000 0000 0000 0000 0000 0000 0000
000001f0: 0000 0000 0000 0000 0000 0000 0000 0000
00000200: 0000 0000 0000 0000 0000 0000 0000 0000
00000210: 0000 0000 0000 0000 0000 0000 0000 0000
00000220: 0000 0000 0000 0000 0000 0000 0000 0000
00000230: 0000 0000 0000 0000 0000 0000 0000 0000
00000240: 0000 0000 0000 0000 0000 0000 0000 0000
00000250: 0000 0000 0000 0000 0000 0000 0000 0000
00000260: 0000 0000 0000 0000 0000 0000 0000 0000
00000270: 0000 0000 0000 0000 0000 0000 0000 0000
00000280: 0000 0000 0000 0000 0000 0000 0000 0000
00000290: 0000 0000 0000 0000 0000 0000 0000 0000
000002a0: 0000 0000 0000 0000 0000 0000 0000 0000
000002b0: 0000 0000 0000 0000 0000 0000 0000 0000
000002c0: 0000 0000 0000 0000 0000 0000 0000 0000
000002d0: 0000 0000 0000 0000 0000 0000 0000 0000
000002e0: 0000 0000 0000 0000 0000 0000 0000 0000
000002f0: 0000 0000 0000 0000 0000 0000 0000 0000
00000300: 0000 0000 0000 0000 0000 0000 0000 0000
00000310: 0000 0000 0000 0000 0000 0000 0000 0000
00000320: 0000 0000 0000 0000 0000 0000 0000 0000
00000330: 0000 0000 0000 0000 0000 0000 0000 0000
00000340: 0000 0000 0000 0000 0000 0000 0000 0000
00000350: 0000 0000 0000 0000 0000 0000 0000 0000
00000360: 0000 0000 0000 0000 0000 0000 0000 0000
00000370: 0000 0000 0000 0000 0000 0000 0000 0000
00000380: 0000 0000 0000 0000 0000 0000 0000 0000
00000390: 0000 0000 0000 0000 0000 0000 0000 0000
000003a0: 0000 0000 0000 0000 0000 0000 0000 0000
000003b0: 0000 0000 0000 0000 0000 0000 0000 0000
000003c0: 0000 0000 0000 0000 0000 0000 0000 0000
000003d0: 0000 0000 0000 0000 0000 0000 0000 0000
000003e0: 0000 0000 0000 0000 0000 0000 0000 0000
000003f0: 0000 0000 0000 0000 0000 0000 0000 0000

gcn3.gcn.lin.weight f4 [256, 256]
-0.09083284 0.06466341 -0.018350163 0.016533416 0.027408987 -0.04324154 -0.008213275 0.04507605
-0.02709193 0.076799944 0.012660574 -0.055366065 0.07407075 0.049095877 0.09709074 0.011969664
0.028165735 0.053957805 0.027328577 -0.043723613 -0.011485606 -0.03449623 0.047437984 -0.07460204
-0.095196344 -0.03382029 -0.049061883 -0.01097446 -0.05750648 -0.10053526 0.003275918 -0.08687054
0.04930305 -0.015589482 -0.047180496 0.06876704 -0.04439233 -0.059293896 -0.078010745 -0.10700282
-0.046970677 -0.087462015 0.049078573 0.0622068 0.07327228 -0.018399099 -0.042486884 -0.0058948407
0.06101307 0.064337224 0.077208936 -0.008850682 -0.046595175 -0.06776577 -0.008388045 0.088880785
-0.016200034 -0.04124894 -0.046092235 -0.09182446 0.0961987 -0.060326185 0.0028715597 -0.07955638
0.059883825 0.050303325 0.066577666 0.055484764 0.076551884 0.06289341 -0.033498354 0.0837697
0.0303827 -0.035872873 0.072652295 0.01175 -0.08718675 -0.06321318 0.019175993 -0.051162295
0.05017305 0.08843899 -0.046669558 0.046082415 -0.018519605 0.107937165 0.03972663 3.8985352e-05
-0.014711712 -0.034612462 0.019714858 -0.00786975 0.06343219 0.047888026 -0.02568816 0.002440501
-0.048281867 0.077697985 0.015444291 0.07570461 -0.051010106 0.0071524763 0.094330914 0.012618311
-0.07443012 0.025541535 -0.08211081 -0.024896696 -0.043602683 0.011819634 0.0013669134 -0.050338205
0.039045297 0.061265837 -0.04497352 0.009913068 0.061985176 -0.065522 0.04098189 -0.074123934
-0.06881373 -0.03684024 -0.044094034 -0.10512352 -0.07579815 0.079482526 0.08931904 -0.023645822
0.07458427 -0.06815063 0.003095251 0.07410487 0.025712665 0.0062685115 0.010905536 0.019421674
0.06848263 0.00016977533 0.07283071 -0.07212095 0.052652575 0.018431 -0.0585385 -0.077503964
0.04440714 -0.015466668 -0.032003414 -0.05607619 -0.0014799464 -0.083467275 -0.013461922 0.067987174
-0.08993854 0.018601071 -0.10356333 -0.052978706 -0.10367724 -0.07388721 0.07344079 0.104923174
-0.018639812 0.06513615 0.07935181 0.09896632 -0.04125004 -0.042898845 -0.06284044 0.0934614
-0.08227659 -0.022031358 0.08988101 0.10244489 0.06161753 0.023423087 -0.10563539 0.06691978
0.06691925 0.05049473 -0.06267451 -0.0046240552 -0.07885988 -0.005186484 0.055251215 0.08821736
0.037192013 -0.0060350513 0.07245618 -0.012579119 0.0031803066 0.06689209 -0.06509822 0.04544302
0.018029997 -0.047267538 -0.08579254 -0.014247759 0.040427163 -0.023885954 -0.08247064 0.019062856
0.07304158 -0.09957607 0.033594392 0.053490356 -0.054668497 0.04389477 -0.093188815 -0.102500506
0.057472747 0.069291905 -0.10662681 -0.047337614 -0.0031992637 -0.035816066 -0.048050098 0.084269635
-0.09222498 0.07426987 -0.10406831 -0.038813524 -0.10467251 0.0037136483 -0.014897721 0.03557552
-0.05758298 0.10451898 0.061252184 -0.026043763 -0.104246885 -0.037622064 -0.06810182 -0.016395709
0.10762927 0.096345454 0.01837036 -0.10268474 0.038775843 0.026538521 -0.070706256 -0.06518902
0.07776189 -0.106748305 0.06535386 -0.10133829 0.0076205716 0.015745526 0.064613864 0.0548527
-0.046059392 0.066465124 -0.041965313 -0.044063732 0.009251672 -0.026265584 0.071026884 -0.08036135
00000000: 9106 babd 406e 843d 1553 96bc 1671 873c
00000010: d088 e03c 0b1e 31bd f990 06bc aaa1 383d
00000020: e5ef ddbc 4a49 9d3d 4c6e 4f3c 87c7 62bd
00000030: 68b2 973d c218 493d 83d7 c63d 691c 443c
00000040: d4bb e63c dc02 5d3d 2ee0 df3c 8817 33bd
00000050: 202e 3cbc eb4b 0dbd 554e 423d f4c8 98bd
00000060: 4df6 c2bd 2587 0abd 1df5 48bd 39ce 33bc
00000070: ea8b 6bbd 6ee5 cdbd c9b0 563b 2fe9 b1bd
00000080: fff1 493d 076b 7fbc 5640 41bd bcd5 8c3d
00000090: bbd4 35bd 28de 72bd 19c4 9fbd 4b24 dbbd
000000a0: 5364 40bd 491f b3bd 9d06 493d 8fcc 7e3d
000000b0: c70f 963d b5b9 96bc ba06 2ebd 8229 c1bb
000000c0: d7e8 793d 3cc3 833d b81f 9e3d 7302 11bc
000000d0: 95da 3ebd c8c8 8abd 036e 09bc 2107 b63d
000000e0: efb5 84bc a6f4 28bd 36cb 3cbd 760e bcbd
000000f0: d303 c53d 9718 77bd c730 3c3b 75ee a2bd
00000100: be48 753d dc0a 4e3d df59 883d fe43 633d
00000110: 3cc7 9c3d 43ce 803d 9235 09bd 738f ab3d
00000120: 24e5 f83c 6fef 12bd baca 943d 1283 403c
00000130: f78e b2bd e975 81bd f916 9d3c 8e8f 51bd
00000140: 4282 4d3d 801f b53d 9428 3fbd eac0 3c3d
00000150: 6db6 97bc 290e dd3d 64b8 223d 3484 2338
00000160: 6409 71bc ccc5 0dbd 0e81 a13c 20f0 00bc
00000170: bce8 813d 3c26 443d fa6f d2bc d0f0 1f3b
00000180: 35c3 45bd 1f20 9f3d 0d0a 7d3c 050b 9b3d
00000190: f9ef 50bd 525f ea3b 9130 c13d 08bd 4e3c
000001a0: d26e 98bd 7b3c d13c b629 a8bd 28f4 cbbc
000001b0: ba98 32bd 23a7 413c 012a b33a 6f2f 4ebd
000001c0: f6ed 1f3d e3f1 7a3d 2736 38bd 6c6a 223c
000001d0: 2be4 7d3d 6630 86bd a0dc 273d 4ace 97bd
000001e0: 36ee 8cbd cbe5 16bd f29b 34bd 004b d7bd
000001f0: 0f3c 9bbd bcc7 a23d e7ec b63d e2b4 c1bc
00000200: a3bf 983d 8f92 8bbd b2d9 4a3b 4bc4 973d
00000210: 5ea3 d23c 1668 cd3b 22ad 323c 341a 9f3c
00000220: 9f40 8c3d b805 3239 4428 953d 26b4 93bd
00000230: 3aaa 573d 9cfc 963c 11c6 6fbd 66ba 9ebd
00000240: 43e4 353d e867 7dbc 0316 03bd 26b0 65bd
00000250: c3fa c1ba e4f0 aabd 658f 5cbc dc3c 8b3d
00000260: b231 b8bd 4661 983c 0319 d4bd 3300 59bd
00000270: bc54 d4bd 2d52 97bd 2068 963d f6e1 d63d
00000280: 85b2 98bc 1a66 853d 3483 a23d dbae ca3d
00000290: cdf5 28bd b3b6 2fbd 7db2 80bd b168 bf3d
000002a0: a180 a8bd 1b7b b4bc 8913 b83d a0ce d13d
000002b0: aa62 7c3d c6e1 bf3c 5e57 d8bd 3d0d 893d
000002c0: f60c 893d 90d3 4e3d 7e5b 80bd 6385 97bb
000002d0: 4a81 a1bd 62f3 a9bb 194f 623d 4eab b43d
000002e0: a756 183d aec1 c5bb e863 943d a618 4ebc
000002f0: b16c 503b b8fe 883d 3752 85bd 7622 3a3d
00000300: a5b3 933c 9b9b 41bd 00b4 afbd 6f6f 69bc
00000310: f496 253d 7aac c3bc 5ee6 a8bd b529 9c3c
00000320: d396 953d 8aee cbbd 469a 093d b418 5b3d
00000330: 13ec 5fbd 01cb 333d c7d9 bebd c9eb d1bd
00000340: 8b68 6b3d eae8 8d3d 285f dabd 16e5 41bd
00000350: bdaa 51bb deb3 12bd 2ed0 44bd 8f95 ac3d
00000360: 73e0 bcbd cd1a 983d c421 d5bd eefa 1ebd
00000370: 8a5e d6bd ae60 733b 9215 74bc a3b7 113d
00000380: 21dc 6bbd 0c0e d63d 92e3 7a3d bb59 d5bc
00000390: 647f d5bd 9819 1abd f878 8bbd 4b50 86bc
000003a0: bc6c dc3d c450 c53d 707d 963c 614c d2bd
000003b0: 6bd3 1e3d 5067 d93c 71ce 90bd d281 85bd
000003c0: a041 9f3d db9e dabd 3fd8 853d 738a cfbd
000003d0: fdb5 f93b c3fc 803c 4654 843d 3aad 603d
000003e0: c6a8 3cbd de1e 883d d2e3 2bbd 2c7c 34bd
000003f0: 5394 173c ec2a d7bc 8b76 913d 7e94 a4bd

fc1.weight f4 [128, 256]
-0.018083222 0.016222686 0.045726404 -0.0033324212 0.00245177 0.034273297 0.046831474 -0.013248622
-0.047469668 -0.033799782 0.023865923 0.05642403 0.0591048 -0.052847743 0.032888383 0.0138992295
0.004908845 -0.016977869 -0.020035349 -0.061779983 0.055659197 -0.055696234 -0.060883798 0.034421504
0.044449188 0.039099924 -0.009990983 0.011927888 0.04253892 0.0077627227 0.033504553 -0.0127005875
0.009879038 0.0562578 0.037601374 -0.055394433 0.011231303 0.049443014 0.019703418 0.050357565
-0.027343333 -0.019353665 0.044521727 0.04539606 0.0230719 -0.059092633 0.041741557 -0.027958967
0.0010345355 0.053017713 -0.05377934 0.062105253 -0.008664966 0.01735212 -0.016787767 0.02473995
-0.04282449 0.042540245 -0.010671221 0.029504016 0.013489135 -0.05544021 -0.053352185 0.036348954
0.025833935 0.020220682 0.040529646 0.00011193007 0.037539892 0.031218104 -0.052177593 0.031029403
0.0014873967 0.020572223 -0.0489951 0.015121244 0.05703962 -0.027673855 -0.011460878 -0.037666015
0.007391244 -0.007418938 -0.018337078 -0.0018467084 -0.04396639 -0.06064876 -0.0138402805 -0.034144983
0.019398056 0.030743584 -0.034018338 -0.0229536 -0.030609943 0.05056072 -0.053942837 0.0028183982
-0.042467758 0.029882967 0.016373858 0.045329936 0.0005855486 -0.03566274 0.004971169 0.004120998
0.027726002 0.037175 -0.015413791 0.012718789 0.00065165013 0.009797536 0.020682253 -0.030543037
-0.032768033 -0.02892229 -0.015290514 -0.01813636 -0.03217984 0.02948349 0.027842835 0.013015695
-0.059390478 0.037842408 -0.040251054 0.055703714 0.0046931356 0.017279 -0.031456046 0.031486467
-0.05728223 -0.03438822 -0.04472275 -0.046079673 0.0005876273 0.008201286 0.040534995 -0.018571027
-0.039133437 0.05829423 -0.054123454 0.032954887 0.06244208 0.005676642 0.0137825385 0.02543471
0.05354692 -0.010774955 -0.02912616 0.048082456 -0.03045562 0.0013525039 0.014459357 0.017092459
-0.025346078 -0.006035693 0.043624714 0.03511242 0.06208484 -0.03337039 -0.047497675 0.011935592
0.019428521 -0.05241271 0.01205878 0.051958576 0.036819756 -0.020858325 -0.02262143 0.001808621
0.008607946 -0.031367183 0.017759323 0.050478622 -0.04149732 0.014064059 -0.010631889 -0.039641276
0.05265975 -0.041460358 -0.04625372 0.053742923 0.02672822 0.0028486624 0.04859659 0.05881758
0.0049300417 0.059108548 -0.046794966 -0.033273607 0.021449678 -0.004875168 0.046310842 0.01877778
-0.041953452 -0.04331719 0.0025351793 -0.00828965 0.04905562 -0.009323634 0.039479688 -0.01657787
-0.020287476 0.05087605 0.026829816 0.014849842 0.059960715 -0.02244407 0.019248039 0.049428657
0.035271667 0.041277193 -0.04651542 -0.05612264 -0.02979251 0.011301629 -0.022063568 -0.023646094
0.005087301 -0.02297648 0.04706011 0.02823519 -0.053364024 -0.047112554 -0.022639416 -0.04402958
0.016703717 -0.0040736794 0.0044668764 0.031768844 -0.021202654 -0.0057517663 0.060868487 -0.005926855
0.058998898 0.008287631 -0.043055855 -0.0045085177 0.052342393 0.05337508 0.015220404 0.056607075
-0.0065992773 0.030804202 -0.041923933 0.008626074 0.047961697 0.03685771 0.010639586 0.04792662
-0.010807961 -0.018814072 -0.020086117 0.0079333335 -0.032110967 -0.046332404 0.031155571 0.01899311
00000000: 4423 94bc 70e5 843c 9c4b 3b3d c064 5abb
00000010: e0ad 203b 2862 0c3d 5cd2 3f3d c010 59bc
00000020: 8e6f 42bd a471 0abd 7882 c33c e21c 673d
00000030: e017 723d e076 58bd f8b5 063d 98b9 633c
00000040: 60da a03b 2c15 8bbc 2c21 a4bc 020d 7dbd
00000050: e6fa 633d bc21 64bd 4a61 79bd 90fd 0c3d
00000060: 5a10 363d 3e27 203d 38b1 23bc 306d 433c
00000070: 4a3d 2e3d 705e fe3b 123c 093d 2016 50bc
00000080: b0db 213c 946e 663d e603 1a3d 46e5 62bd
00000090: 8003 383c c284 4a3d 1069 a13c bc43 4e3d
000000a0: 20ff dfbc 948b 9ebc 6a5c 363d 38f1 393d
000000b0: 4801 bd3c 1e0b 72bd 32f9 2a3d 340a e5bc
000000c0: 4099 873a 1a29 593d ba47 5cbd 1462 7e3d
000000d0: 80f7 0dbc 0826 8e3c 8086 89bc 70ab ca3c
000000e0: bc68 2fbd ae3e 2e3d 58d6 2ebc 68b2 f13c
000000f0: 8801 5d3c 4615 63bd d287 5abd a4e2 143d
00000100: b0a1 d33c d8a5 a53c 6a02 263d 00bc ea38
00000110: 6ec3 193d 1cbd ff3c 2cb8 55bd 6031 fe3c
00000120: c0f4 c23a 1487 a83c 16af 48bd 18bf 773c
00000130: 60a2 693d 48b4 e2bc 68c6 3bbc ae47 1abd
00000140: 4032 f23b 901a f3bb a437 96bc 400d f2ba
00000150: 1a16 34bd d66a 78bd 58c2 62bc 9cdb 0bbd
00000160: ace8 9e3c f8d9 fb3c d056 0bbd 3009 bcbc
00000170: b4c1 fabc c218 4f3d 2af3 5cbd e0b4 383b
00000180: acf2 2dbd 20cd f43c 7822 863c e2ab 393d
00000190: 807f 193a 1813 12bd 30e5 a23b 7009 873b
000001a0: a421 e33c d044 183d 208a 7cbc 7862 503c
000001b0: 80d3 2a3a d885 203c d46d a93c 6435 fabc
000001c0: c637 06bd 70ee ecbc 1085 7abc b492 94bc
000001d0: 02cf 03bd 5c87 f13c a816 e43c c83f 553c
000001e0: 6e43 73bd a400 1b3d 4ade 24bd 9429 643d
000001f0: e0c8 993b b08c 8d3c 0ed8 00bd f4f7 003d
00000200: c6a0 6abd aada 0cbd 342f 37bd 0abe 3cbd
00000210: 000b 1a3a b05e 063c 0608 263d 4422 98bc
00000220: 624a 20bd eec5 6e3d 8eb0 5dbd b4fb 063d
00000230: 44c3 7f3d 2003 ba3b 28d0 613c 745c d03c
00000240: 0454 5b3d 7089 30bc fc99 eebc 1cf2 443d
00000250: 107e f9bc 8046 b13a f0e6 6c3c 7c05 8c3c
00000260: 94a2 cfbc 10c7 c5bb d4af 323d 0ad2 0f3d
00000270: ac4c 7e3d 64af 08bd ec8c 42bd 808d 433c
00000280: 9028 9f3c b6ae 56bd 3092 453c 84d2 543d
00000290: 50d0 163d 14df aabc 9450 b9bc 400f ed3a
000002a0: 5808 0d3c e07a 00bd 007c 913c acc2 4e3d
000002b0: 18f9 29bd f06c 663c 6031 2ebc e45e 22bd
000002c0: c0b1 573d 56d2 29bd 8a74 3dbd 8a21 5c3d
000002d0: 24f5 da3c a0b0 3a3b 380d 473d b4ea 703d
000002e0: 308c a13b ce1b 723d 14ac 3fbd e849 08bd
000002f0: 3cb7 af3c e0bf 9fbb 70b0 3d3d dcd3 993c
00000300: 62d7 2bbd 5e6d 31bd 4025 263b 50d1 07bc
00000310: 8cee 483d 28c2 18bc 74b5 213d 50ce 87bc
00000320: ec31 a6bc 6863 503d 34ca db3c c04c 733c
00000330: 5e99 753d a0dc b7bc 10ae 9d3c b475 4a3d
00000340: 0679 103d 4612 293d f486 3ebd dae0 65bd
00000350: 6c0f f4bc 782a 393c a8be b4bc 74b5 c1bc
00000360: 60b3 a63b 2c39 bcbc 1ac2 403d 7c4d e73c
00000370: 3c94 5abd 18f9 40bd 4c76 b9bc 5c58 34bd
00000380: 3cd6 883c 807c 85bb e05e 923b 0c20 023d
00000390: 30b1 adbc 5079 bcbb 3c51 793d 1036 c2bb
000003a0: d4a8 713d d8c8 073c 565b 30bd 30bc 93bb
000003b0: fa64 563d d49f 5a3d 005f 793c d2dc 673d
000003c0: c03e d8bb 1859 fc3c 6eb8 2bbd 6054 0d3c
000003d0: 7c73 443d 1cf8 163d a851 2e3c b44e 443d
000003e0: e013 31bc f81f 9abc a48b a4bc d0fa 013c
000003f0: ca86 03bd 0cc7 3dbd f839 ff3c 7097 9b3c

fc1.bias f4 [128]
0.028076917 0.062218092 -0.053596593 -0.041672 0.016237475 0.044419296 -0.010237455 -0.043814987
-0.007083498 0.050646685 -0.018785909 -0.048249193 0.040395446 -0.03813521 -0.023076788 -0.01982446
-0.025734976 0.011980362 0.04943306 -0.059193924 -0.00729125 0.04763692 0.035284385 0.050058983
-0.061410494 -0.0033085272 0.034894608 0.05863729 0.038896278 -0.047054872 0.040486857 -0.054324932
0.051369607 0.042778723 -0.01690697 -0.025666162 -0.02046308 -0.03433276 0.039933667 0.014165819
0.015142366 0.044828348 -0.010277227 -0.04753939 0.0004509166 0.0024411008 0.028775312 -0.027573168
-0.046045177 -0.027508229 -0.024685457 -0.020074524 -0.03394378 -0.010853834 -0.0306938 0.010380164
0.0011930391 -0.0072108135 0.017372802 -0.052567296 0.030281886 -0.009240672 0.02292934 0.02586528
-0.011468656 -0.0041186213 -0.056737304 0.032048315 0.038224258 -0.017554656 -0.031444088 -0.047636285
0.0010003448 -0.045638748 -0.04265844 0.05354684 -0.035116784 0.0032919347 0.04995642 -0.033780843
0.00824973 0.022783257 -0.0019102842 0.021775901 0.0018461496 0.054864787 0.04983273 -0.047109418
-0.020592764 0.021988034 0.04873483 -0.053540707 -0.04314264 -0.048368 -0.0434654 0.012632206
-0.0024743378 0.033203095 0.041530713 0.05304052 0.018477365 -0.01227241 0.014403507 -0.023218952
0.0484645 -0.060380697 0.020674236 0.05788973 -0.045357637 0.061377913 -0.0096715465 0.034081794
0.007998832 0.053385988 0.02424603 -0.05867871 -0.0105928555 0.026904419 0.038496405 0.043623418
0.010855615 -0.021058507 0.024078213 -0.005967349 0.03334684 0.05404698 0.029642433 -0.03821686
00000000: 9001 e63c 66d8 7e3d 1a88 5bbd 42b0 2abd
00000010: 7404 853c 02f1 353d 00bb 27bc 5877 33bd
00000020: b01c e8bb e672 4f3d e8e4 99bc f2a0 45bd
00000030: b275 253d aa33 1cbd 880b bdbc e866 a2bc
00000040: 28d2 d2bc 4849 443c 527a 4a3d 5475 72bd
00000050: 70eb eebb ee1e 433d 5c86 103d a60a 4d3d
00000060: 9289 7bbd e0d3 58bb a6ed 0e3d a82d 703d
00000070: b451 1f3d 9cbc 40bd 8cd5 253d d283 5ebd
00000080: f068 523d be38 2f3d 7c80 8abc d841 d2bc
00000090: 30a2 a7bc 82a0 0cbd 7c91 233d c017 683c
000000a0: b017 783c ee9d 373d d061 28bc aab8 42bd
000000b0: 0069 ec39 e0fa 1f3b 34ba eb3c 20e1 e1bc
000000c0: de99 3cbd f058 e1bc 2839 cabc 5473 a4bc
000000d0: a208 0bbd 48d4 31bc 9071 fbbc 9011 2a3c
000000e0: c05f 9c3a b048 ecbb 6851 8e3c ce50 57bd
000000f0: b811 f83c 3066 17bc 50d6 bb3c 6ce3 d33c
00000100: 08e7 3bbc 80f5 86bb 6065 68bd 1845 033d
00000110: 0a91 1c3d c8ce 8fbc 84cb 00bd 441e 43bd
00000120: 001e 833a b2ef 3abd 9eba 2ebd ee53 5b3d
00000130: 9ed6 0fbd 80bd 573b 1a9f 4c3d c85d 0abd
00000140: e029 073c f4a3 ba3c 8062 faba 6063 b23c
00000150: 80fa f13a e6b9 603d 681d 4c3d cef5 40bd
00000160: 28b2 a8bc 4020 b43c 2c9e 473d 804d 5bbd
00000170: 56b6 30bd 861d 46bd c608 32bd 50f7 4e3c
00000180: 8028 22bb f8ff 073d 1c1c 2a3d 0441 593d
00000190: d85d 973c 3812 49bc b0fc 6b3c ac35 bebc
000001a0: b682 463d c051 77bd 045d a93c c81d 6d3d
000001b0: eec8 39bd 6867 7b3d 6875 1ebc 5a99 0b3d
000001c0: 880d 033c 44ab 5a3d 9c9f c63c 1659 70bd
000001d0: a88d 2dbc a866 dc3c 68ae 1d3d 78ae 323d
000001e0: c0db 313c e482 acbc ac3f c53c c089 c3bb
000001f0: b296 083d 5e60 5d3d b0d4 f23c 4889 1cbd

fc2.weight f4 [64, 128]
0.012326351 -0.0041908403 0.0077874414 0.08644528 0.032792207 0.060135018 -0.058793105 -0.010749722
-0.046531256 -0.029419027 0.027580233 0.045101773 0.079312645 0.06426004 -0.0060637407 0.053984877
0.012939009 -0.07036035 0.0712302 0.08605127 -0.0070307474 -0.05115699 0.04052335 -0.0023878086
0.017502837 -0.0042516477 -0.044112787 0.009778342 -0.05733712 0.050794538 -0.0058337245 0.07589085
-0.024370424 -0.056637567 0.08559015 0.032470785 -0.0065310122 -0.033848006 0.0074662613 -0.07809046
-0.058331005 0.008621328 -0.0056703947 -0.0021596255 -0.08825676 0.057356656 0.06527814 0.068676464
0.054032847 0.05561089 -0.031133085 -0.05423526 -0.018653626 0.0002716259 -0.07685388 0.014074655
-0.009837411 0.0540804 0.060443815 0.078880005 -0.031898864 -0.06820814 0.051952817 0.060545947
-0.06880942 0.010922155 -0.015999217 -0.06358069 -0.03545318 0.016863428 -0.065239415 0.049633276
0.018709565 -0.050195705 -0.04922617 -0.03939444 0.081575595 0.060027625 -0.004050333 -0.020283308
0.058625422 0.04653464 -0.061484233 0.005116343 -0.08350883 -0.026853895 -0.01713301 -0.024750672
0.015551913 -0.0740614 0.0120716365 -0.010857365 -0.07897583 0.061295014 0.043593284 0.030804005
-0.037019126 0.0842568 -0.057035908 0.028958183 -0.05669747 0.02931563 0.040664732 -0.05592504
0.041365784 -0.06206001 -0.083382115 -0.07386744 -0.085993186 -0.026230555 -0.014436581 -0.039204165
0.014026597 0.01528171 -0.045190133 -0.017198991 -0.08523291 -0.07699671 0.0015199628 0.071670406
0.06300188 -0.040938675 0.004713166 -0.07605129 -0.005105922 -0.008339807 -0.075258926 -0.018485365
-0.06885313 0.032352656 -0.07650098 -0.0009303495 0.00045031798 -0.02797124 -0.071897574 -0.0034134837
-0.035432737 -0.086740814 -0.008206055 0.009178666 -0.07581628 -0.033352498 -0.049502358 0.07561161
0.03308834 0.07705443 0.041060187 0.031863555 -0.0056095347 0.08678499 -0.022960518 -0.033190105
-0.042623654 -0.025474662 -0.05332337 0.027393028 0.061165497 0.009401307 0.04945896 -0.038443543
-0.08287453 0.07322295 -0.0698653 -0.032774273 0.07304567 0.044782046 -0.03183755 -0.021230463
0.014480666 -0.013048717 -0.027402923 -0.06858114 -0.073299184 0.03766375 0.057038426 0.07954411
0.055808675 0.037174247 0.041848205 0.03694892 0.073760755 0.081112444 -0.06712267 0.03950247
-0.014002152 0.020776015 -0.0785402 -0.07910103 -0.061396684 -0.0014366702 -0.027712816 0.081429005
-0.038015887 -0.05111124 0.029375974 -0.07234341 -0.059347913 0.06278148 0.045582436 -0.08785561
-0.034035698 0.028155684 0.0721541 0.07148928 -0.02680883 -0.010134294 -0.05716379 -0.005670237
-0.052191705 -0.08418601 -0.04728713 -0.082396984 0.017626623 0.047099587 -0.010701685 0.06807694
-0.07247009 -0.030742154 0.06375761 0.0686945 -0.040938888 -0.07318581 0.066029236 -0.05581276
0.019274523 -0.011646375 -0.071849 0.07455088 0.08408439 -0.0328571 -0.042310525 -0.027424395
-0.029163195 0.07921774 0.08595074 -0.06870838 0.054103043 -0.003959243 0.008712164 0.07255876
-0.028154727 -0.074095845 -0.051196747 -0.0780084 -0.08074965 -0.06488386 -0.009396366 0.07270137
0.002809867 0.060280994 -0.02908145 0.028277311 -0.022129266 0.012917292 0.044963047 0.03851339
00000000: 77f4 493c 5153 89bb cb2d ff3b 390a b13d
00000010: 1f51 063d 2350 763d 0ad1 70bd 9a1f 30bc
00000020: 8f97 3ebd 2c00 f1bc f1ef e13c a3bc 383d
00000030: ab6e a23d c59a 833d 58b2 c6bb 3f1f 5d3d
00000040: 23fe 533c 1619 90bd 24e1 913d a63b b03d
00000050: 2f62 e6bb fe89 51bd d0fb 253d c87c 1cbb
00000060: 1c62 8f3c 6851 8bbb 9caf 34bd 5735 203c
00000070: 54da 6abd ef0d 503d d428 bfbb a96c 9b3d
00000080: 7ca4 c7bc cbfc 67bd e349 af3d 1600 053d
00000090: 1a02 d6bb 35a4 0abd 8aa7 f43b e4ed 9fbd
000000a0: 7eec 6ebd 7840 0d3c b8ce b9bb 8188 0dbb
000000b0: f6bf b4bd d0ee 6a3d 8cb0 853d 3fa6 8c3d
000000c0: 8c51 5d3d 3fc8 633d d00a ffbc cb25 5ebd
000000d0: 7dcf 98bc 0369 8e39 9165 9dbd 6299 663c
000000e0: 182d 21bc 6983 5d3d ef93 773d d78b a13d
000000f0: 62a8 02bd b6b0 8bbd 7acc 543d 07ff 773d
00000100: f4eb 8cbd d7f2 323c ca10 83bc 9836 82bd
00000110: 5b37 11bd 2c25 8a3c 3e9c 85bd 434c 4b3d
00000120: cd44 993c 039a 4dbd 61a1 49bd 105c 21bd
00000130: 1b11 a73d 87df 753d a8b8 84bb 2e29 a6bc
00000140: 3621 703d 1b9b 3e3d e4d6 7bbd ffa6 a73b
00000150: ad06 abbd b3fc dbbc 875a 8cbc ecc1 cabc
00000160: 73cd 7e3c 81ad 97bd 1dc8 453c 17e3 31bc
00000170: 14be a1bd 7b10 7b3d df8e 323d ae58 fc3c
00000180: 5ea1 17bd d48e ac3d 7c9e 69bd b639 ed3c
00000190: 9b3b 68bd 5527 f03c 1090 263d a811 65bd
000001a0: 2b6f 293d a332 7ebd 3ec4 aabd d047 97bd
000001b0: 321d b0bd 76e1 d6bc 6987 6cbc 8c94 20bd
000001c0: d0cf 653c 2360 7a3c 4a19 39bd e6e4 8cbc
000001d0: 988e aebd 73b0 9dbd 7d39 c73a efc7 923d
000001e0: 2107 813d 50af 27bd e770 9a3b c7c0 9bbd
000001f0: 944f a7bb b0a3 08bc 5a21 9abd 9f6e 97bc
00000200: df02 8dbd 3884 043d 8cac 9cbd b3e2 73ba
00000210: a818 ec39 f123 e5bc 093f 93bd c1b4 5fbb
00000220: eb21 11bd 2ba5 b1bd b072 06bc 1e62 163c
00000230: 9145 9bbd a19c 08bd fcc2 4abd 43da 9a3d
00000240: a487 073d b7ce 9d3d ba2e 283d 5c83 023d
00000250: 30d0 b7bb 54bc b13d b217 bcbc 59f2 07bd
00000260: 2496 2ebd 3db0 d0bc 9b69 5abd 5867 e03c
00000270: ac88 7a3d f107 1a3c 7a95 4a3d fa76 1dbd
00000280: 1fba a9bd eaf5 953d 8a15 8fbd 513e 06bd
00000290: f898 953d 616d 373d 1768 02bd 82eb adbc
000002a0: 5140 6d3c 49ca 55bc 187c e0bc 4574 8cbd
000002b0: e21d 96bd 4e45 1a3d 20a1 693d 06e8 a23d
000002c0: a397 643d 0644 183d 0669 2b3d c057 173d
000002d0: e10f 973d 481e a63d 9c77 89bd 58cd 213d
000002e0: 4869 65bc 7632 aa3c afd9 a0bd b9ff a1bd
000002f0: 177b 7bbd a74e bcba fd05 e3bc 40c4 a63d
00000300: 8cb6 1bbd 055a 51bd e2a5 f03c c828 94bd
00000310: cc16 73bd 9493 803d a6b4 3a3d a4ed b3bd
00000320: 0469 0bbd c0a6 e63c 87c5 933d f968 923d
00000330: 319e dbbc 4f0a 26bc 9424 6abd 65cd b9bb
00000340: f8c6 55bd b769 acbd 26b0 41bd c0bf a8bd
00000350: b565 903c 7feb 403d 1f56 2fbc ec6b 8b3d
00000360: 336b 94bd f8d6 fbbc 5a93 823d b4af 8c3d
00000370: 89af 27bd 71e2 95bd 563a 873d ec9b 64bd
00000380: 9be5 9d3c 70d0 3ebc 9225 93bd 22ae 983d
00000390: 7034 ac3d 2b95 06bd cd4d 2dbd 20a9 e0bc
000003a0: a7e7 eebc e93c a23d f106 b03d fbb6 8cbd
000003b0: 279b 5d3d 8abc 81bb 77bd 0e3c b099 943d
000003c0: bea4 e6bc 90bf 97bd aeb3 51bd dec2 9fbd
000003d0: 1360 a5bd d4e1 84bd 37f3 19bc 75e4 943d
000003e0: bf25 383b 34e9 763d 393c eebc d2a5 e73c
000003f0: 6f48 b5bc 0da3 533c 2c2b 383d 37c0 1d3d

fc2.bias f4 [64]
-0.05714573 -0.07919517 0.06691268 0.0046034893 -0.021529105 -0.039709434 -0.064189196 0.033577476
-0.06701211 -0.04372531 0.017222688 0.078764565 0.0044767223 -0.05191635 -0.045427326 0.058068536
0.032242887 -0.07119698 0.028757405 -0.06503923 -0.02531719 0.018264052 0.07093108 -0.034096662
0.06648743 0.081022985 -0.03405048 -0.06331555 0.014507419 0.065828584 -0.06685654 -0.020482767
0.07699731 -0.031289082 -0.01773965 -0.0031038942 0.07926209 0.007907412 -0.0381946 -0.013556123
-0.077096224 0.075219 0.0011818293 -0.05045044 0.021957297 0.042899508 -0.07003711 0.037634954
-0.003092388 -0.014018905 0.0336604 -0.0474913 0.088285 0.0839928 -0.04295746 -0.05960385
-0.07520865 -0.08733463 0.0674141 0.08258506 -0.026814783 -0.074304484 -0.06704539 0.041330885
00000000: a411 6abd 1431 a2bd 8409 893d ded8 963b
00000010: ce5d b0bc 5ca6 22bd a075 83bd 8988 093d
00000020: a53d 89bd 5019 33bd 9816 8d3c 514f a13d
00000030: 78b1 923b 3da6 54bd 0112 3abd 46d9 6d3d
00000040: 1e11 043d b9cf 91bd a694 eb3c 4a33 85bd
00000050: ff65 cfbc 7e9e 953c 5044 913d f1a8 0bbd
00000060: 902a 883d 61ef a53d 8478 0bbd 95ab 81bd
00000070: 87b0 6d3c 23d1 863d 15ec 88bd 7acb a7bc
00000080: c4b0 9d3d fb28 00bd be52 91bc b46a 4bbb
00000090: 2a54 a23d 178e 013c f171 1cbd 801a 5ebc
000000a0: a0e4 9dbd 6b0c 9a3d 9ce7 9a3a 1fa5 4ebd
000000b0: cadf b33c 65b7 2f3d 9e6f 8fbd 1c27 1a3d
000000c0: a9a9 4abb 8daf 65bc 7ddf 093d 3d86 42bd
000000d0: c4ce b43d 6b04 ac3d 29f4 2fbd 2b23 74bd
000000e0: fe06 9abd 80dc b2bd 6710 8a3d 5b22 a93d
000000f0: adaa dbbc f32c 98bd 184f 89bd 934a 293d
