ImitationLearning/Models/Accepted/regression_7.pth (torch, 722788 bytes, 26 tensors)

gcn1.gcn.bias f4 [256]
00000000: 0000 0000 0000 0000 0000 0000 0000 0000
00000010: 0000 0000 0000 0000 0000 0000 0000 0000
00000020: 0000 0000 0000 0000 0000 0000 0000 0000
00000030: 0000 0000 0000 0000 0000 0000 0000 0000
00000040: 0000 0000 0000 0000 0000 0000 0000 0000
00000050: 0000 0000 0000 0000 0000 0000 0000 0000
00000060: 0000 0000 0000 0000 0000 0000 0000 0000
00000070: 0000 0000 0000 0000 0000 0000 0000 0000
00000080: 0000 0000 0000 0000 0000 0000 0000 0000
00000090: 0000 0000 0000 0000 0000 0000 0000 0000
000000a0: 0000 0000 0000 0000 0000 0000 0000 0000
000000b0: 0000 0000 0000 0000 0000 0000 0000 0000
000000c0: 0000 0000 0000 0000 0000 0000 0000 0000
000000d0: 0000 0000 0000 0000 0000 0000 0000 0000
000000e0: 0000 0000 0000 0000 0000 0000 0000 0000
000000f0: 0000 0000 0000 0000 0000 0000 0000 0000
00000100: 0000 0000 0000 0000 0000 0000 0000 0000
00000110: 0000 0000 0000 0000 0000 0000 0000 0000
00000120: 0000 0000 0000 0000 0000 0000 0000 0000
00000130: 0000 0000 0000 0000 0000 0000 0000 0000
00000140: 0000 0000 0000 0000 0000 0000 0000 0000
00000150: 0000 0000 0000 0000 0000 0000 0000 0000
00000160: 0000 0000 0000 0000 0000 0000 0000 0000
00000170: 0000 0000 0000 0000 0000 0000 0000 0000
00000180: 0000 0000 0000 0000 0000 0000 0000 0000
00000190: 0000 0000 0000 0000 0000 0000 0000 0000
000001a0: 0000 0000 0000 0000 0000 0000 0000 0000
000001b0: 0000 0000 0000 0000 0000 0000 0000 0000
000001c0: 0000 0000 0000 0000 0000 0000 0000 0000
000001d0: 0000 0000 0000 0000 0000 0000 0000 0000
000001e0: 0000 0000 0000 0000 0000 0000 0000 0000
000001f0: 0000 0000 0000 0000 0000 0000 0000 0000
00000200: 0000 0000 0000 0000 0000 0000 0000 0000
00000210: 0000 0000 0000 0000 0000 0000 0000 0000
00000220: 0000 0000 0000 0000 0000 0000 0000 0000
00000230: 0000 0000 0000 0000 0000 0000 0000 0000
00000240: 0000 0000 0000 0000 0000 0000 0000 0000
00000250: 0000 0000 0000 0000 0000 0000 0000 0000
00000260: 0000 0000 0000 0000 0000 0000 0000 0000
00000270: 0000 0000 0000 0000 0000 0000 0000 0000
00000280: 0000 0000 0000 0000 0000 0000 0000 0000
00000290: 0000 0000 0000 0000 0000 0000 0000 0000
000002a0: 0000 0000 0000 0000 0000 0000 0000 0000
000002b0: 0000 0000 0000 0000 0000 0000 0000 0000
000002c0: 0000 0000 0000 0000 0000 0000 0000 0000
000002d0: 0000 0000 0000 0000 0000 0000 0000 0000
000002e0: 0000 0000 0000 0000 0000 0000 0000 0000
000002f0: 0000 0000 0000 0000 0000 0000 0000 0000
00000300: 0000 0000 0000 0000 0000 0000 0000 0000
00000310: 0000 0000 0000 0000 0000 0000 0000 0000
00000320: 0000 0000 0000 0000 0000 0000 0000 0000
00000330: 0000 0000 0000 0000 0000 0000 0000 0000
00000340: 0000 0000 0000 0000 0000 0000 0000 0000
00000350: 0000 0000 0000 0000 0000 0000 0000 0000
00000360: 0000 0000 0000 0000 0000 0000 0000 0000
00000370: 0000 0000 0000 0000 0000 0000 0000 0000
00000380: 0000 0000 0000 0000 0000 0000 0000 0000
00000390: 0000 0000 0000 0000 0000 0000 0000 0000
000003a0: 0000 0000 0000 0000 0000 0000 0000 0000
000003b0: 0000 0000 0000 0000 0000 0000 0000 0000
000003c0: 0000 0000 0000 0000 0000 0000 0000 0000
000003d0: 0000 0000 0000 0000 0000 0000 0000 0000
000003e0: 0000 0000 0000 0000 0000 0000 0000 0000
000003f0: 0000 0000 0000 0000 0000 0000 0000 0000
0.0 0.0 0.0 0.0 0.0 0.0 0.0 0.0
0.0 0.0 0.0 0.0 0.0 0.0 0.0 0.0
0.0 0.0 0.0 0.0 0.0 0.0 0.0 0.0
0.0 0.0 0.0 0.0 0.0 0.0 0.0 0.0
0.0 0.0 0.0 0.0 0.0 0.0 0.0 0.0
0.0 0.0 0.0 0.0 0.0 0.0 0.0 0.0
0.0 0.0 0.0 0.0 0.0 0.0 0.0 0.0
0.0 0.0 0.0 0.0 0.0 0.0 0.0 0.0
0.0 0.0 0.0 0.0 0.0 0.0 0.0 0.0
0.0 0.0 0.0 0.0 0.0 0.0 0.0 0.0
0.0 0.0 0.0 0.0 0.0 0.0 0.0 0.0
0.0 0.0 0.0 0.0 0.0 0.0 0.0 0.0
0.0 0.0 0.0 0.0 0.0 0.0 0.0 0.0
0.0 0.0 0.0 0.0 0.0 0.0 0.0 0.0
0.0 0.0 0.0 0.0 0.0 0.0 0.0 0.0
0.0 0.0 0.0 0.0 0.0 0.0 0.0 0.0
0.0 0.0 0.0 0.0 0.0 0.0 0.0 0.0
0.0 0.0 0.0 0.0 0.0 0.0 0.0 0.0
0.0 0.0 0.0 0.0 0.0 0.0 0.0 0.0
0.0 0.0 0.0 0.0 0.0 0.0 0.0 0.0
0.0 0.0 0.0 0.0 0.0 0.0 0.0 0.0
0.0 0.0 0.0 0.0 0.0 0.0 0.0 0.0
0.0 0.0 0.0 0.0 0.0 0.0 0.0 0.0
0.0 0.0 0.0 0.0 0.0 0.0 0.0 0.0
0.0 0.0 0.0 0.0 0.0 0.0 0.0 0.0
0.0 0.0 0.0 0.0 0.0 0.0 0.0 0.0
0.0 0.0 0.0 0.0 0.0 0.0 0.0 0.0
0.0 0.0 0.0 0.0 0.0 0.0 0.0 0.0
0.0 0.0 0.0 0.0 0.0 0.0 0.0 0.0
0.0 0.0 0.0 0.0 0.0 0.0 0.0 0.0
0.0 0.0 0.0 0.0 0.0 0.0 0.0 0.0
0.0 0.0 0.0 0.0 0.0 0.0 0.0 0.0

gcn1.gcn.lin.weight f4 [256, 9]
00000000: 00e5 c33c 81b7 e43d bdb1 38bd 3417 09be
00000010: ffe0 a7bd 24e0 093e 88fa bb3c 3da8 94bd
00000020: f6ae 133e dbb0 cabd 6205 073e a011 d73c
00000030: 10fa eb3c 3e70 1a3c 015d 8bbd 1e41 fa3c
00000040: 648f dcbd 469e 723d f1e1 173d 8ce5 d5bc
00000050: fdb2 073e 1076 88bd e291 70bc 5c85 adbd
00000060: ad20 ee3d 47fb 13be ba2e d0bd 4677 2b3d
00000070: cf60 c93d 988f c53d 16d8 763c b609 f73d
00000080: 2b07 103e b4a4 cc3d 96b2 723c 1bf9 663d
00000090: f845 113d c6fc f0bd 56e2 c3bd 04f3 50bd
000000a0: 8f59 153d 38f8 f2bc 1649 8abd 4c99 80bd
000000b0: 76ed 873d 049e 123e fbfd a83c 771a 19be
000000c0: 1773 4dbd 4227 0f3d e02e df3c 665c 91bd
000000d0: 94de f4bd 2822 c43d bf4b bd3d c332 e2bd
000000e0: 2413 f9bd 249c 063e e080 9c3d d378 f7bc
000000f0: f5e6 19bd 706f 45bd 1a5c 9fbc 545e 3e3d
00000100: 7ea1 663c 0231 a9bd 1a1d 553d f581 ed3d
00000110: 3bdc c5bd 15f7 1cbd 2578 d5bd 8d00 bb3d
00000120: bf7f da3d ca45 583b 45ba da3d d7fe c4bd
00000130: 6ef8 eabd bcbc 353d f94a aabd 6f3b c9bd
00000140: 18db 123e 06d2 05bb c286 d2bd 33a4 b1bc
00000150: 9a78 f13d 62e7 273d f8ee e63d d6ba 083e
00000160: bd63 843c 6e37 9b3c a947 2abd 9e3d 823c
00000170: 461a 3b3d 41dc f0bd c0f2 ad3c 8a88 99bd
00000180: e898 17bd 15ab eebd af7a d6bd 8bca 923c
00000190: 74f0 f03a 4d2f de3d 8a0d 8ebd 9de5 ea3d
000001a0: 454f cebd e7e7 e73d b8dd a53d 28c4 073d
000001b0: 8057 16be 285b d83a 290c 903d aadd 9bbc
000001c0: 2e95 d9bd 6c78 a6bc d5fe 913d dd16 24bd
000001d0: 6f20 b0bd beec 223d fee3 c23d 4998 e23c
000001e0: 57c4 fe3d a618 ba3d f47a cdbd a5c3 b73d
000001f0: 262f f73d 0494 bf3d 41ac 0dbe 33d6 f3bd
00000200: 98a1 babd e407 15bd e174 b93d adf1 053e
00000210: 08c9 413d 126c a7bc 9f89 2c3d 3c05 64bd
00000220: 30d8 883d 4bc6 a4bd f3a8 c3bd 2ab6 12be
00000230: 67a5 cfbc 37c1 f9bb cde7 963c 0b87 2cbd
00000240: 9c89 eebd ecc3 62bd 30dc a43d 18a2 0abe
00000250: e7ee 82bd 2ab0 c33d 333e 31bd bc9f 493d
00000260: 56fe c13b 6d27 8bbd 1099 fc3d 00d6 e03d
00000270: a5ca d33d 0b6f da3d 4256 af3d 2d5a ec3c
00000280: 4649 ea3c e919 e53d ee84 c0bd 41c3 e1bd
00000290: b455 cdbd fdb5 8f3d ae69 0d3e 6d11 c8bd
000002a0: 354a 983d c30d 0b3e eb9b ccbc c786 d03d
000002b0: cf64 33bd 03b7 ea3d 73a5 e2bc 3064 8fbd
000002c0: 1cc4 6cbc 7c5f fa3d e530 9abb 7d17 36bd
000002d0: 721b 9ebc 602c 503c 73e6 a83d 9c48 b0bc
000002e0: 747f 2d3d c456 eb3d bcb9 acbc 3b3b f53d
000002f0: 3dcc db3c 4c80 9fbd c3e8 ef3d 5a64 d93d
00000300: 87a4 d93d 9195 093e 0aee 1f3d 87d9 013e
00000310: d1fa d83d 8eae 303d c28d c0bd 7bc7 8abd
00000320: 4535 853c d9ef d3bd bd20 c33d 6f2e 9fbd
00000330: fa56 b7bc b777 d0bd da61 bf3d 500a 00bd
00000340: 1a82 fa3d 2910 053e 2048 1f3d 94ea 0fbe
00000350: d9e3 bbbd b81a 79bc 0402 32bd ebdf eb3d
00000360: 32d0 83bd 073f a03d 76e4 9bbd cec6 183d
00000370: 9801 f7bd a9c9 b9bd 0493 e9bc b4dc f0bc
00000380: a713 183c c38b 143e 905f 3bbd 8ab3 113e
00000390: 5c9e a2bd ba64 d43d ad26 4b3b 4365 c13d
000003a0: 24f3 cd3d 8a51 8bbd 06af ab3d 1d24 ff3d
000003b0: 0d59 47bc f029 b8bd 1113 293d 8a4c 18be
000003c0: 300e 993d 501d 303c 0c47 a1bc 0669 143e
000003d0: 9e30 e93d a73c 9e3d c1a1 933d c4e0 d8bd
000003e0: 7357 83bc 1cfd e73d d871 e53b 5905 88bc
000003f0: e12e 13be b48c 01be 6928 883d 3d2e cf3d
0.023912907 0.11167813 -0.04509138 -0.13387758 -0.081972115 0.13464409 0.022946611 -0.072586514
0.14422211 -0.09897014 0.13185647 0.026253521 0.028805763 0.009426175 -0.068048485 0.030548628
-0.10769537 0.059232973 0.03708071 -0.026110433 0.13251872 -0.06663144 -0.014683219 -0.08472702
0.11627326 -0.14451323 -0.101651624 0.041861795 0.09832918 0.09646529 0.015066167 0.12062399
0.14065234 0.09992352 0.014813086 0.05638991 0.035467118 -0.11766963 -0.095646545 -0.051013008
0.036462363 -0.029659376 -0.06752221 -0.06279239 0.06637089 0.1431809 0.02062892 -0.14951502
-0.050158586 0.03494955 0.027244031 -0.07097702 -0.11956516 0.09576827 0.09242963 -0.11044838
-0.12161854 0.131455 0.076417685 -0.03020898 -0.037573773 -0.04820198 -0.019453097 0.046476677
0.014076589 -0.082613006 0.052029707 0.11597053 -0.09661146 -0.038321573 -0.104233064 0.091309644
0.10668897 0.0033000582 0.10680059 -0.09618919 -0.114731655 0.044369444 -0.08315081 -0.09825789
0.1434139 -0.0020419373 -0.10279609 -0.021684742 0.11790581 0.04099215 0.112760484 0.13352522
0.01616084 0.01894733 -0.041572247 0.015898522 0.045679353 -0.1176076 0.021233916 -0.07496746
-0.037011057 -0.11653725 -0.10472619 0.017918846 0.0018382207 0.10848866 -0.06936176 0.114695765
-0.10073713 0.11323529 0.0809893 0.033146054 -0.14681816 0.0016506659 0.07033569 -0.019026596
-0.10624157 -0.020321093 0.071286835 -0.040060867 -0.08599936 0.039776556 0.09516142 0.027660506
0.124397926 0.090867326 -0.10033217 0.08972863 0.1206954 0.093544036 -0.13835241 -0.1190609
-0.09112853 -0.03638448 0.09055496 0.13080473 0.04731086 -0.020437274 0.042123433 -0.055669054
0.066818595 -0.08045634 -0.09553709 -0.14327303 -0.025347425 -0.00762191 0.018421078 -0.042120975
-0.11647341 -0.055362627 0.0804981 -0.13538396 -0.06393223 0.09555085 -0.04327221 0.0492246
0.005920212 -0.06794629 0.12333882 0.10978317 0.10341386 0.10665711 0.08561374 0.028851593
0.028599393 0.111865826 -0.09400354 -0.1102357 -0.10026112 0.070171334 0.13809845 -0.09768949
0.07436029 0.13579468 -0.024976691 0.10181957 -0.04379731 0.11460688 -0.027666783 -0.07001531
-0.014451053 0.122252434 -0.0047055357 -0.044455994 -0.019300196 0.012705892 0.0824708 -0.021518998
0.042357877 0.114911586 -0.021084659 0.11974188 0.026830787 -0.077881426 0.11714318 0.10614844
0.10627084 0.13435961 0.03904537 0.12680636 0.105947144 0.04313522 -0.09402038 -0.06776329
0.016260752 -0.10348482 0.09527729 -0.077725284 -0.02238034 -0.10179084 0.093448356 -0.031259835
0.12231846 0.12994446 0.038887143 -0.14054328 -0.09174318 -0.015204124 -0.043458953 0.11517318
-0.064361945 0.078245215 -0.07611935 0.03729897 -0.12060851 -0.09071667 -0.028512485 -0.029402114
0.009282029 0.1450644 -0.045745432 0.14228645 -0.07940361 0.103707746 0.0030998394 0.09443142
0.10056141 -0.06802662 0.083829924 0.1245806 -0.012167227 -0.08992374 0.04127795 -0.14872947
0.07473409 0.010749176 -0.019687198 0.14493188 0.11386226 0.07726412 0.072085865 -0.10589746
-0.01603291 0.11327574 0.0070020966 -0.016604112 -0.14373352 -0.1265133 0.066483326 0.10116241

gcn2.gcn.bias f4 [256]
00000000: 0000 0000 0000 0000 0000 0000 0000 0000
00000010: 0000 0000 0000 0000 0000 0000 0000 0000
00000020: 0000 0000 0000 0000 0000 0000 0000 0000
00000030: 0000 0000 0000 0000 0000 0000 0000 0000
00000040: 0000 0000 0000 0000 0000 0000 0000 0000
00000050: 0000 0000 0000 0000 0000 0000 0000 0000
00000060: 0000 0000 0000 0000 0000 0000 0000 0000
00000070: 0000 0000 0000 0000 0000 0000 0000 0000
00000080: 0000 0000 0000 0000 0000 0000 0000 0000
00000090: 0000 0000 0000 0000 0000 0000 0000 0000
000000a0: 0000 0000 0000 0000 0000 0000 0000 0000
000000b0: 0000 0000 0000 0000 0000 0000 0000 0000
000000c0: 0000 0000 0000 0000 0000 0000 0000 0000
000000d0: 0000 0000 0000 0000 0000 0000 0000 0000
000000e0: 0000 0000 0000 0000 0000 0000 0000 0000
000000f0: 0000 0000 0000 0000 0000 0000 0000 0000
00000100: 0000 0000 0000 0000 0000 0000 0000 0000
00000110: 0000 0000 0000 0000 0000 0000 0000 0000
00000120: 0000 0000 0000 0000 0000 0000 0000 0000
00000130: 0000 0000 0000 0000 0000 0000 0000 0000
00000140: 0000 0000 0000 0000 0000 0000 0000 0000
00000150: 0000 0000 0000 0000 0000 0000 0000 0000
00000160: 0000 0000 0000 0000 0000 0000 0000 0000
00000170: 0000 0000 0000 0000 0000 0000 0000 0000
00000180: 0000 0000 0000 0000 0000 0000 0000 0000
00000190: 0000 0000 0000 0000 0000 0000 0000 0000
000001a0: 0000 0000 0000 0000 0000 0000 0000 0000
000001b0: 0000 0000 0000 0000 0000 0000 0000 0000
000001c0: 0000 0000 0000 0000 0000 0000 0000 0000
000001d0: 0000 0000 0000 0000 0000 0000 0000 0000
000001e0: 0000 0000 0000 0000 0000 0000 0000 0000
000001f0: 0000 0000 0000 0000 0000 0000 0000 0000
00000200: 0000 0000 0000 0000 0000 0000 0000 0000
00000210: 0000 0000 0000 0000 0000 0000 0000 0000
00000220: 0000 0000 0000 0000 0000 0000 0000 0000
00000230: 0000 0000 0000 0000 0000 0000 0000 0000
00000240: 0000 0000 0000 0000 0000 0000 0000 0000
00000250: 0000 0000 0000 0000 0000 0000 0000 0000
00000260: 0000 0000 0000 0000 0000 0000 0000 0000
00000270: 0000 0000 0000 0000 0000 0000 0000 0000
00000280: 0000 0000 0000 0000 0000 0000 0000 0000
00000290: 0000 0000 0000 0000 0000 0000 0000 0000
000002a0: 0000 0000 0000 0000 0000 0000 0000 0000
000002b0: 0000 0000 0000 0000 0000 0000 0000 0000
000002c0: 0000 0000 0000 0000 0000 0000 0000 0000
000002d0: 0000 0000 0000 0000 0000 0000 0000 0000
000002e0: 0000 0000 0000 0000 0000 0000 0000 0000
000002f0: 0000 0000 0000 0000 0000 0000 0000 0000
00000300: 0000 0000 0000 0000 0000 0000 0000 0000
00000310: 0000 0000 0000 0000 0000 0000 0000 0000
00000320: 0000 0000 0000 0000 0000 0000 0000 0000
00000330: 0000 0000 0000 0000 0000 0000 0000 0000
00000340: 0000 0000 0000 0000 0000 0000 0000 0000
00000350: 0000 0000 0000 0000 0000 0000 0000 0000
00000360: 0000 0000 0000 0000 0000 0000 0000 0000
00000370: 0000 0000 0000 0000 0000 0000 0000 0000
00000380: 0000 0000 0000 0000 0000 0000 0000 0000
00000390: 0000 0000 0000 0000 0000 0000 0000 0000
000003a0: 0000 0000 0000 0000 0000 0000 0000 0000
000003b0: 0000 0000 0000 0000 0000 0000 0000 0000
000003c0: 0000 0000 0000 0000 0000 0000 0000 0000
000003d0: 0000 0000 0000 0000 0000 0000 0000 0000
000003e0: 0000 0000 0000 0000 0000 0000 0000 0000
000003f0: 0000 0000 0000 0000 0000 0000 0000 0000
0.0 0.0 0.0 0.0 0.0 0.0 0.0 0.0
0.0 0.0 0.0 0.0 0.0 0.0 0.0 0.0
0.0 0.0 0.0 0.0 0.0 0.0 0.0 0.0
0.0 0.0 0.0 0.0 0.0 0.0 0.0 0.0
0.0 0.0 0.0 0.0 0.0 0.0 0.0 0.0
0.0 0.0 0.0 0.0 0.0 0.0 0.0 0.0
0.0 0.0 0.0 0.0 0.0 0.0 0.0 0.0
0.0 0.0 0.0 0.0 0.0 0.0 0.0 0.0
0.0 0.0 0.0 0.0 0.0 0.0 0.0 0.0
0.0 0.0 0.0 0.0 0.0 0.0 0.0 0.0
0.0 0.0 0.0 0.0 0.0 0.0 0.0 0.0
0.0 0.0 0.0 0.0 0.0 0.0 0.0 0.0
0.0 0.0 0.0 0.0 0.0 0.0 0.0 0.0
0.0 0.0 0.0 0.0 0.0 0.0 0.0 0.0
0.0 0.0 0.0 0.0 0.0 0.0 0.0 0.0
0.0 0.0 0.0 0.0 0.0 0.0 0.0 0.0
0.0 0.0 0.0 0.0 0.0 0.0 0.0 0.0
0.0 0.0 0.0 0.0 0.0 0.0 0.0 0.0
0.0 0.0 0.0 0.0 0.0 0.0 0.0 0.0
0.0 0.0 0.0 0.0 0.0 0.0 0.0 0.0
0.0 0.0 0.0 0.0 0.0 0.0 0.0 0.0
0.0 0.0 0.0 0.0 0.0 0.0 0.0 0.0
0.0 0.0 0.0 0.0 0.0 0.0 0.0 0.0
0.0 0.0 0.0 0.0 0.0 0.0 0.0 0.0
0.0 0.0 0.0 0.0 0.0 0.0 0.0 0.0
0.0 0.0 0.0 0.0 0.0 0.0 0.0 0.0
0.0 0.0 0.0 0.0 0.0 0.0 0.0 0.0
0.0 0.0 0.0 0.0 0.0 0.0 0.0 0.0
0.0 0.0 0.0 0.0 0.0 0.0 0.0 0.0
0.0 0.0 0.0 0.0 0.0 0.0 0.0 0.0
0.0 0.0 0.0 0.0 0.0 0.0 0.0 0.0
0.0 0.0 0.0 0.0 0.0 0.0 0.0 0.0

gcn2.gcn.lin.weight f4 [256, 256]
00000000: 6b6c 02bc 2827 8b3d 6404 9dbd af45 78bd
00000010: 6490 32bc b250 053d e2d7 91bd d5a2 b43b
00000020: 6239 223d 57b7 963d f543 763d 88c4 78bc
00000030: 2b32 1f3d 845f d0bd 6922 bcbd 5f56 d33d
00000040: c174 21bd fea6 843d fce8 3abc 178c 9c3d
00000050: bf15 873c 3752 4739 593a 7b3c 73e1 dcbc
00000060: ff39 b33d 0dd2 7ebd ac4d 6c3d 6082 2dbd
00000070: 1514 823c 3196 adbd 3f10 9d3d 7af0 a8bd
00000080: 6c2e aabd 9973 bfbd c229 043d be20 663d
00000090: 0bbe 8abd 6038 bcbd e04f 1b3b 7357 7fbd
000000a0: b21b b7bd 9408 453d 25b3 babd c962 0fbd
000000b0: 17a7 48bd 65de cdbd 972a b9bd 152c cdbd
000000c0: 2520 003d 7e2e 9a3d c8be cfbc 1fed 31bd
000000d0: eb50 92bd fe4a c03c 34ad dd3d e13b 48bc
000000e0: ddad 25bc 9c94 3e3d 5313 5abd 9a5f 4dbd
000000f0: c724 d3bd 9064 103a e02c f4bc 46fb b13d
00000100: bb24 9ebd ae9f 1fbd f6ca 19bd fbd9 9b3d
00000110: 7e3a c53d c1e8 c8bd e4a4 0bbd c19e 453d
00000120: 2892 5a3d b08f b23d 029f d0bd d439 2f3d
00000130: 40cb d53d ecc1 6e3d 7bd1 663d 893a 203c
00000140: 32c9 2fbd b95e cabb a558 423d 046e 433d
00000150: 22bd 4dbd 446e 8ebb 24b8 a1bd 5eb4 a9bd
00000160: 216c 81bd 86da 2e3d b891 8f3d c0f0 c03d
00000170: bf86 06bc 90e0 b63d e543 dc3d 08ad 553c
00000180: 056a cfbd 5f5c 48bd 9890 90bd 401a 81bd
00000190: 3242 b03c 3ded 823c ea82 d6bd 9c75 ffbc
000001a0: 654e c23d 0fa8 ad3c 0fa3 a23d 2fbf 98bc
000001b0: 2bd1 93bc a2a6 673d 7150 d63d a024 983a
000001c0: e4d2 c53c d8f0 cdbd 3023 77bd db02 ce3d
000001d0: f60d d03d 21c7 c7bc 8210 613c 30d5 49bd
000001e0: 9a78 b9bc 1c79 d6bd 6c8b a73c 9b05 36bd
000001f0: 03e1 88bc 8cf8 0ebd 3a0f 8a3d 1c75 413d
00000200: 2729 d0bd aef5 69bd aded afbc 2bad f93c
00000210: 52a0 283d 549f d83d 3dd8 a9bd 0d0a 2d3d
00000220: 2caf 0fbd f6b3 6f3c 25c3 653b 4165 613d
00000230: 5eb6 82bd e288 a43d aed0 373c 975f 24bd
00000240: 8511 cc3c af30 7bbd cb4b 0a3d 7de0 a3bd
00000250: 77e8 0dbd c0a2 1abd a346 99bb 6f51 88bd
00000260: 94be 4fbd 3e52 61bd 8181 db3d e8bf f139
00000270: 41ae 4e3c 482a 3f3c 7204 7f3d e5d5 d63d
00000280: a54e 893d 08f1 4b3d e797 1dbd 736c 873d
00000290: d339 973b b80e 78bd 36e3 8c3d 8a81 d6bd
000002a0: 0fc4 f3bc 1997 cb3d e5b5 b33c e5e2 2dbc
000002b0: 6767 58bd cbb4 973d 3c7e cfbd 6ae0 d7bd
000002c0: 8fc9 553c 9f89 aebd d8bb 9abd 3978 d33c
000002d0: fca5 293d 33c2 b4bd 770c 453b 29b2 81bd
000002e0: 7392 8bbd 696b 2fbd 077c 37bd 8110 7a3d
000002f0: eff4 92bd 53a7 a7bd e223 893d 1ece 0f3d
00000300: 1a8a d33d 74ea 0f3d aa02 d9bc aab8 783d
00000310: 096f 22bd c593 963d c78d 83bd 1d84 c3bd
00000320: 7eed e6bc 36ec 45bd ef0d bfbd 8880 953d
00000330: b1a2 b33d b3a0 b0bd d546 dbbd b600 0bbd
00000340: ba60 813d c6c3 bbbd b943 323d c9d1 3b3c
00000350: d198 313b 3c79 d3bd b2e9 a0bd 239e 343d
00000360: f5f3 bfbd b418 083d 15f7 c1bc fc0e 58bc
00000370: 6dc6 16bc 784c 67bd 25e7 063b 496d d0bc
00000380: 03d9 a7bc 704a 993d 34de 963d 6790 583d
00000390: 0677 833d 5fdd e5bc 6c04 8ebc 9d1d bc3b
000003a0: c610 e83c 34b7 d93c 6f0d 59bc 9cc2 923d
000003b0: f0cc 693d d971 d83d 2192 303d 131d 783d
000003c0: 527c 6fbb ac95 593c 9270 4fbc f3a1 813d
000003d0: 407e a6bc e985 b03d 4f80 19bd 6017 db3b
000003e0: 8642 8f3d e2c5 8fbd e27e 183d 64e5 403d
000003f0: eafb 813c 8ef5 9d3d 4d28 b63c ee4a 173d
-0.007960419 0.06794578 -0.07666853 -0.06061333 -0.010898683 0.03254766 -0.071212545 0.005512575
0.039605506 0.07359188 0.060123403 -0.015183575 0.038866203 -0.10174468 -0.09186251 0.10319208
-0.039417986 0.06477164 -0.011408087 0.076439075 0.016489862 0.00019008746 0.015333735 -0.026962971
0.08751296 -0.06221204 0.05769126 -0.042360663 0.015878716 -0.08475912 0.07669114 -0.08248992
-0.083096355 -0.093482204 0.032266386 0.05618357 -0.06774529 -0.0919044 0.0023698732 -0.062339257
-0.08940829 0.048103884 -0.091162 -0.03500632 -0.048987474 -0.10052184 -0.090413265 -0.100181736
0.031280655 0.07528399 -0.025359526 -0.043439027 -0.0714434 0.023473259 0.108240515 -0.0122213075
-0.010112253 0.046528444 -0.053241085 -0.05014 -0.10309749 0.0005508149 -0.029806554 0.08690505
-0.077218495 -0.03897064 -0.037547074 0.07609936 0.09630297 -0.09810019 -0.0340928 0.048247103
0.05336204 0.087188125 -0.10186578 0.04277976 0.104391575 0.058290407 0.05635212 0.009779581
-0.042916484 -0.0061758426 0.04744782 0.04771234 -0.0502292 -0.004346641 -0.0789645 -0.082863554
-0.06319452 0.04268887 0.070102155 0.094209194 -0.008210837 0.08929551 0.10755137 0.013041742
-0.101276435 -0.048916217 -0.07058829 -0.06303835 0.02151594 0.015982265 -0.104741886 -0.03118401
0.09487609 0.0211983 0.07941257 -0.018645851 -0.018044075 0.056555398 0.10464562 0.0011607595
0.024148412 -0.10055703 -0.06033629 0.100591384 0.10158913 -0.024386944 0.013736846 -0.049275577
-0.022640515 -0.104723185 0.020452224 -0.04443894 -0.016708856 -0.034905 0.067411855 0.047230825
-0.10164099 -0.057119064 -0.021475637 0.03047808 0.04116852 0.105772644 -0.08293197 0.042245913
-0.035079166 0.014630308 0.0035058942 0.055028204 -0.0638244 0.08033921 0.011219187 -0.040130224
0.024910698 -0.061325725 0.033763688 -0.08001802 -0.034645524 -0.037752867 -0.00467761 -0.06656157
-0.05071886 -0.055010073 0.1071806 0.00046110083 0.012614788 0.0116677955 0.0622601 0.10490016
0.067044534 0.049790412 -0.038474943 0.06612482 0.0046150475 -0.060560912 0.068792745 -0.10473926
-0.029756574 0.09940929 0.02193732 -0.010613178 -0.052832987 0.074075304 -0.10131499 -0.105408505
0.013048544 -0.08522343 -0.075553596 0.025814163 0.04141806 -0.08826103 0.0030067244 -0.063328095
-0.06815042 -0.042827044 -0.044796016 0.061050896 -0.071756236 -0.081862114 0.06696297 0.035108678
0.10329075 0.0351357 -0.026490528 0.060722984 -0.039656673 0.073524036 -0.06423526 -0.09546683
-0.028189417 -0.04832097 -0.093288295 0.07299906 0.08771265 -0.08624401 -0.107068695 -0.033936225
0.06317277 -0.091682 0.043521617 0.011463591 0.0027099142 -0.10325858 -0.07857074 0.044096123
-0.09372703 0.033226684 -0.023677388 -0.013187166 -0.009202582 -0.05646941 0.002058455 -0.025442736
-0.020489221 0.07484901 0.07366601 0.052872088 0.06419186 -0.02805966 -0.017336093 0.005740835
0.02832831 0.026576616 -0.013247832 0.07166025 0.05708021 0.1056859 0.04310811 0.060574602
-0.0036542607 0.013280313 -0.012661116 0.063297175 -0.020323873 0.08619291 -0.03747588 0.006686136
0.0699511 -0.07020165 0.03723038 0.047093764 0.015867192 0.077128515 0.022236014 0.036936693

gcn3.gcn.bias f4 [256]
00000000: 0000 0000 0000 0000 0000 0000 0000 0000
00000010: 0000 0000 0000 0000 0000 0000 0000 0000
00000020: 0000 0000 0000 0000 0000 0000 0000 0000
00000030: 0000 0000 0000 0000 0000 0000 0000 0000
00000040: 0000 0000 0000 0000 0000 0000 0000 0000
00000050: 0000 0000 0000 0000 0000 0000 0000 0000
00000060: 0000 0000 0000 0000 0000 0000 0000 0000
00000070: 0000 0000 0000 0000 0000 0000 0000 0000
00000080: 0000 0000 0000 0000 0000 0000 0000 0000
00000090: 0000 0000 0000 0000 0000 0000 0000 0000
000000a0: 0000 0000 0000 0000 0000 0000 0000 0000
000000b0: 0000 0000 0000 0000 0000 0000 0000 0000
000000c0: 0000 0000 0000 0000 0000 0000 0000 0000
000000d0: 0000 0000 0000 0000 0000 0000 0000 0000
000000e0: 0000 0000 0000 0000 0000 0000 0000 0000
000000f0: 0000 0000 0000 0000 0000 0000 0000 0000
00000100: 0000 0000 0000 0000 0000 0000 0000 0000
00000110: 0000 0000 0000 0000 0000 0000 0000 0000
00000120: 0000 0000 0000 0000 0000 0000 0000 0000
00000130: 0000 0000 0000 0000 0000 0000 0000 0000
00000140: 0000 0000 0000 0000 0000 0000 0000 0000
00000150: 0000 0000 0000 0000 0000 0000 0000 0000
00000160: 0000 0000 0000 0000 0000 0000 0000 0000
00000170: 0000 0000 0000 0000 0000 0000 0000 0000
00000180: 0000 0000 0000 0000 0000 0000 0000 0000
00000190: 0000 0000 0000 0000 0000 0000 0000 0000
000001a0: 0000 0000 0000 0000 0000 0000 0000 0000
000001b0: 0000 0000 0000 0000 0000 0000 0000 0000
000001c0: 0000 0000 0000 0000 0000 0000 0000 0000
000001d0: 0000 0000 0000 0000 0000 0000 0000 0000
000001e0: 0000 0000 0000 0000 0000 0000 0000 0000
000001f0: 0000 0000 0000 0000 0000 0000 0000 0000
00000200: 0000 0000 0000 0000 0000 0000 0000 0000
00000210: 0000 0000 0000 0000 0000 0000 0000 0000
00000220: 0000 0000 0000 0000 0000 0000 0000 0000
00000230: 0000 0000 0000 0000 0000 0000 0000 0000
00000240: 0000 0000 0000 0000 0000 0000 0000 0000
00000250: 0000 0000 0000 0000 0000 0000 0000 0000
00000260: 0000 0000 0000 0000 0000 0000 0000 0000
00000270: 0000 0000 0000 0000 0000 0000 0000 0000
00000280: 0000 0000 0000 0000 0000 0000 0000 0000
00000290: 0000 0000 0000 0000 0000 0000 0000 0000
000002a0: 0000 0000 0000 0000 0000 0000 0000 0000
000002b0: 0000 0000 0000 0000 0000 0000 0000 0000
000002c0: 0000 0000 0000 0000 0000 0000 0000 0000
000002d0: 0000 0000 0000 0000 0000 0000 0000 0000
000002e0: 0000 0000 0000 0000 0000 0000 0000 0000
000002f0: 0000 0000 0000 0000 0000 0000 0000 0000
00000300: 0000 0000 0000 0000 0000 0000 0000 0000
00000310: 0000 0000 0000 0000 0000 0000 0000 0000
00000320: 0000 0000 0000 0000 0000 0000 0000 0000
00000330: 0000 0000 0000 0000 0000 0000 0000 0000
00000340: 0000 0000 0000 0000 0000 0000 0000 0000
00000350: 0000 0000 0000 0000 0000 0000 0000 0000
00000360: 0000 0000 0000 0000 0000 0000 0000 0000
00000370: 0000 0000 0000 0000 0000 0000 0000 0000
00000380: 0000 0000 0000 0000 0000 0000 0000 0000
00000390: 0000 0000 0000 0000 0000 0000 0000 0000
000003a0: 0000 0000 0000 0000 0000 0000 0000 0000
000003b0: 0000 0000 0000 0000 0000 0000 0000 0000
000003c0: 0000 0000 0000 0000 0000 0000 0000 0000
000003d0: 0000 0000 0000 0000 0000 0000 0000 0000
000003e0: 0000 0000 0000 0000 0000 0000 0000 0000
000003f0: 0000 0000 0000 0000 0000 0000 0000 0000
0.0 0.0 0.0 0.0 0.0 0.0 0.0 0.0
0.0 0.0 0.0 0.0 0.0 0.0 0.0 0.0
0.0 0.0 0.0 0.0 0.0 0.0 0.0 0.0
0.0 0.0 0.0 0.0 0.0 0.0 0.0 0.0
0.0 0.0 0.0 0.0 0.0 0.0 0.0 0.0
0.0 0.0 0.0 0.0 0.0 0.0 0.0 0.0
0.0 0.0 0.0 0.0 0.0 0.0 0.0 0.0
0.0 0.0 0.0 0.0 0.0 0.0 0.0 0.0
0.0 0.0 0.0 0.0 0.0 0.0 0.0 0.0
0.0 0.0 0.0 0.0 0.0 0.0 0.0 0.0
0.0 0.0 0.0 0.0 0.0 0.0 0.0 0.0
0.0 0.0 0.0 0.0 0.0 0.0 0.0 0.0
0.0 0.0 0.0 0.0 0.0 0.0 0.0 0.0
0.0 0.0 0.0 0.0 0.0 0.0 0.0 0.0
0.0 0.0 0.0 0.0 0.0 0.0 0.0 0.0
0.0 0.0 0.0 0.0 0.0 0.0 0.0 0.0
0.0 0.0 0.0 0.0 0.0 0.0 0.0 0.0
0.0 0.0 0.0 0.0 0.0 0.0 0.0 0.0
0.0 0.0 0.0 0.0 0.0 0.0 0.0 0.0
0.0 0.0 0.0 0.0 0.0 0.0 0.0 0.0
0.0 0.0 0.0 0.0 0.0 0.0 0.0 0.0
0.0 0.0 0.0 0.0 0.0 0.0 0.0 0.0
0.0 0.0 0.0 0.0 0.0 0.0 0.0 0.0
0.0 0.0 0.0 0.0 0.0 0.0 0.0 0.0
0.0 0.0 0.0 0.0 0.0 0.0 0.0 0.0
0.0 0.0 0.0 0.0 0.0 0.0 0.0 0.0
0.0 0.0 0.0 0.0 0.0 0.0 0.0 0.0
0.0 0.0 0.0 0.0 0.0 0.0 0.0 0.0
0.0 0.0 0.0 0.0 0.0 0.0 0.0 0.0
0.0 0.0 0.0 0.0 0.0 0.0 0.0 0.0
0.0 0.0 0.0 0.0 0.0 0.0 0.0 0.0
0.0 0.0 0.0 0.0 0.0 0.0 0.0 0.0

gcn3.gcn.lin.weight f4 [256, 256]
00000000: 8c61 a8b9 ba30 c13d 3204 04bd 32c9 edbc
00000010: e41e f3bc 6220 b3bd ddb9 10bb a054 3d3b
00000020: b62e b0bb fe3f a7bd 98dc 9dbd 61d6 803d
00000030: 1ce0 b93d 9f42 8abd 3b90 663c 74f0 7d3d
00000040: 59d8 cfbd e078 ac3d 23bc f2bb 5bca 293d
00000050: 67e0 8cbd f0fd c33c 13c0 723d 8e2e e03c
00000060: 319e 9abd 199d a1bd 3818 6b3b 27f8 7d3d
00000070: 58e7 d7bd 4517 db3d b240 14b9 bfea 953d
00000080: b9a3 9b3d 9a9b 4d3d ac0f db3d 3c65 92bd
00000090: 7123 38bd 935e c83c 65b2 83bc 66fc 5b3d
000000a0: ca15 9cbc 0639 b8bd 4552 963a 0e19 c13d
000000b0: 4eee c1bd f6ae e1bc bd98 bdbd dd85 0bbc
000000c0: 9e6b dcbc d9be a0bd eee0 58bd ffc2 fabb
000000d0: 8fcd b83b a8e1 023c 2dd7 90bd 9262 50bd
000000e0: dd54 afbd fa40 92bd 4082 c1bc 5b73 a33d
000000f0: b2bf be3d 22e3 d8bd b822 283d 39c4 f63c
00000100: e037 3ebd accc d3bd 92d7 c63d 9b30 f13c
00000110: 611e c6bd 225c 98bd ee5f ad3d 261f c33d
00000120: a2ea d3bd 6a55 b33d 36ae 9fbc 70a0 ed3b
00000130: e661 09bd c4d8 c33d 7f51 98bd 6bac 913d
00000140: b1a7 d2bd a004 c2bd 5e5e ba3d 445a 44bd
00000150: 0b7f 0bbd b03c c23b 7603 853d d1b2 593d
00000160: c233 613d d5d5 343d 536c dd3d 966f 463c
00000170: a8f4 503d 0f52 24bd a10a c23d a944 fe3c
00000180: de6e 973d c071 973d 6611 013d 232e cebd
00000190: 3fb7 c93d 0279 b23d 61fa 82bd d259 d5bd
000001a0: b79f 91bc 32a6 d2bd 3e7f 39bd c397 6a3d
000001b0: 05d7 b43d a177 3f3c b388 a6bb 90d1 323c
000001c0: 17e1 b9bd a917 22bc e6c7 a0bd 0f05 bd3b
000001d0: 08d4 6f3d 57d4 cd3b 2d67 353d 7e39 2a3d
000001e0: dafe 8a3d f698 0ebd 2da4 25bd b061 5a3d
000001f0: 7180 cb3d 9069 433d 87f7 ac3d c9fc c5bd
00000200: 3a43 b33d d26b afbd e342 cf3d b2b4 70bd
00000210: 40e7 b3bd f255 d2bd 4767 bf3d 069d a53d
00000220: b37d 3ebd 6dff b6bd 62ec cebd 0a07 bcbd
00000230: f816 1abd 19d9 59bd 3975 8a3d 3042 0fbd
00000240: 9f06 43bd 9c17 a83b 92bb 88bd 82de 37bd
00000250: 168e 3e3d 10b6 943d 278f d6bd 3902 cd3b
00000260: 7c90 c03d cbac 9a3d d810 353d feca 8abd
00000270: 9c99 cabb 072e e83c b78d d8bd 6aca d23d
00000280: d240 31bd 9900 823d 160a a73c d179 583d
00000290: 5091 853d 70ed 4c3c 5dae 863c b104 9b3c
000002a0: 88b2 86bc e92f 993d 727e 7c3d df9f 9e3d
000002b0: 9056 b8bc 1102 d13d f495 373d aa8e 35bd
000002c0: 9428 7dbc b87c 6e3d 42bf cabd 42cd 59bd
000002d0: d231 06bc 66cd 2e3d 241c c43c 9fb8 68bd
000002e0: f36a 82bd e300 8d3c 9cdf 233d aa9d ca3d
000002f0: af13 d5bd ad9e 7c3d 8b5b a2bd 106b ca3c
00000300: 69c3 45bc d64a 7a3d 0e74 1abd af10 9b3c
00000310: 6219 3a3d f340 ad3b b22f a83c cc55 89bd
00000320: a780 a33d 917f 1f3d 0f76 1d3d b8ac cd3b
00000330: ed30 10bc 53e0 c4bc 95b4 4d3d 6aeb 853d
00000340: 2060 473d 81cb 99bd 1f44 4dbd 0f0c b8bc
00000350: a151 243d 86a8 fb3c 0faa c6bd 9eac b0bd
00000360: a7e9 33bd d4fe 993d b5fb a3bd 5547 603d
00000370: bb43 313b 5b6e a7bc 4eee 1ebd 370c 813c
00000380: b624 e9bc 9e91 8abc 5541 d13d 31e2 81bd
00000390: f175 52bd 2e97 e7bc e042 f13b 8e6c 6abd
000003a0: e707 873d 0644 52bd dba9 ab3d 6d4e dd3d
000003b0: 9888 653d ef7a 69bd 4025 81bd 45de 69bd
000003c0: d56f 3cbc 6804 d23d 3fb8 d7bd 3851 bfbd
000003d0: d349 933d d535 8b3d a505 b63d 8356 8d3d
000003e0: ce7d 79bc 2e8d 82bd 3fc5 103d 5cc5 38bd
000003f0: 566f d4bd 82cc d53d 016e c1bc b4b7 2dbb
-0.00032116135 0.09433122 -0.032230563 -0.029026601 -0.029677816 -0.08746411 -0.002208344 0.0028889552
-0.005376662 -0.081665024 -0.077080905 0.062908895 0.090759486 -0.06750988 0.014072473 0.061996892
-0.10148687 0.084214926 -0.0074076816 0.041452747 -0.06878739 0.023924798 0.059265207 0.027365949
-0.07549704 -0.07891292 0.003587259 0.062004235 -0.10542172 0.10697798 -0.00014138481 0.07320165
0.07599587 0.05019722 0.106963485 -0.07148215 -0.044955675 0.024459159 -0.016076276 0.053707503
-0.019053359 -0.08995251 0.001146861 0.09428607 -0.09469281 -0.027549248 -0.09257648 -0.008515802
-0.026906785 -0.07848901 -0.052948885 -0.00765264 0.005639739 0.007988371 -0.070722915 -0.050875254
-0.08561108 -0.071412995 -0.023621678 0.07980987 0.09313907 -0.10590197 0.041048735 0.030122863
-0.046440005 -0.103417724 0.097090855 0.029442122 -0.09673763 -0.07439448 0.08465563 0.095274255
-0.10347487 0.08756526 -0.01949225 0.0072517917 -0.03354063 0.09562829 -0.07437419 0.07112964
-0.10285891 -0.094735384 0.0910003 -0.047937647 -0.034056704 0.0059276447 0.06494801 0.05314905
0.054981 0.04414924 0.10811677 0.012111565 0.051014572 -0.04011732 0.094746836 0.0310386
0.07394193 0.07394743 0.031510733 -0.10067394 0.098494045 0.08714487 -0.06395412 -0.104175225
-0.017776353 -0.102856055 -0.045287363 0.057273638 0.08830074 0.011686237 -0.005082214 0.010914221
-0.090761356 -0.009893336 -0.078506276 0.0057684253 0.058551818 0.0062814164 0.04428785 0.041558735
0.0678689 -0.034813844 -0.040439773 0.05331582 0.09936608 0.047708094 0.084456496 -0.096673556
0.08753057 -0.08565487 0.101201795 -0.058766074 -0.08784342 -0.10270299 0.093458705 0.080865905
-0.046506595 -0.08935437 -0.1010368 -0.0918103 -0.03761956 -0.053185556 0.0676064 -0.03497523
-0.047613736 0.0051297676 -0.06676401 -0.044889934 0.046522222 0.07261288 -0.10476523 0.0062563685
0.09402558 0.07552489 0.044205517 -0.06776999 -0.0061828624 0.02834226 -0.10573905 0.10292514
-0.043274708 0.0634777 0.020390552 0.05285055 0.06521857 0.012507781 0.016440565 0.018923135
-0.016442552 0.07479841 0.061644025 0.07745337 -0.022502214 0.10205472 0.04482074 -0.04432551
-0.015451569 0.05822441 -0.09899761 -0.053174265 -0.008190589 0.042676352 0.0239392 -0.056816693
-0.06368055 0.017212337 0.040008172 0.09893353 -0.10404145 0.061674763 -0.07927617 0.024709255
-0.012070515 0.061106525 -0.037708335 0.018928854 0.045434363 0.0052872836 0.020530555 -0.067058176
0.07983523 0.038940016 0.038442668 0.006276693 -0.008800727 -0.024032747 0.050221045 0.06539042
0.048675656 -0.075095184 -0.050113793 -0.022466687 0.04011691 0.030720007 -0.09700405 -0.08626674
-0.043924 0.07519308 -0.08006994 0.054755528 0.0027048427 -0.020438364 -0.038801484 0.015752895
-0.028459888 -0.016915139 0.10217539 -0.06341971 -0.05138201 -0.02827033 0.0073627084 -0.057232432
0.06593304 -0.051334403 0.08382007 0.10805974 0.05603847 -0.057002004 -0.06305933 -0.05709674
-0.011501272 0.10254747 -0.10533189 -0.09341663 0.07191815 0.06797377 0.08887795 0.069012664
-0.015227748 -0.06374584 0.03534436 -0.04511009 -0.10372798 0.104393974 -0.023612024 -0.00265072

fc1.weight f4 [128, 256]
00000000: 9c9c a2bc e430 393d d446 4d3d 88c4 683d
00000010: 5808 293d dcae 71bd d87a 1dbc 4047 34bc
00000020: b477 b03c b03d 5e3c c889 203d 0ae5 2e3d
00000030: 48d7 15bc 44af 683d 16dc 5c3d 2c16 6f3d
00000040: 12e5 6a3d 10a1 bdbc d82d e83c 00d7 8b3c
00000050: d080 1d3c b0cf ef3c fa02 073d c045 4f3d
00000060: c441 d63c 280b e2bc 309c c83b 5606 1f3d
00000070: e8ce 2fbd 4260 323d 6e73 13bd ba13 70bd
00000080: 7263 1dbd 1077 a6bb 0a61 473d 800d 7d3c
00000090: 00dc 4eba e0bb 193d 8cad 2dbd cac2 5e3d
000000a0: 009b 62bd 5840 453c 80a8 683c 4c87 c6bc
000000b0: 5877 29bd 2037 debb ea90 743d b622 38bd
000000c0: 4cd2 9ebc 3203 5d3d 740b 213d 0082 bdbc
000000d0: 505f 3cbd 0022 0e3d 4c09 db3c f2b4 29bd
000000e0: 0086 68bd c2b1 183d 286f 293d 4075 513b
000000f0: 608e 42bd 4852 3cbc 7664 44bd 280b 64bc
00000100: 84ca 433d 2000 81bc ec5c 99bc 8ef1 4c3d
00000110: 2236 2ebd a012 debb a8ac 2a3c eae7 41bd
00000120: c00c 683d da4b 403d 3860 04bc 10d4 8a3c
00000130: fc6b dfbc 10f1 70bc 4808 3e3d 60f8 c73b
00000140: 4497 d83c ee0c 4bbd e495 e23c 501c 023d
00000150: b09b 0ebc 0ac3 7fbd 5604 1fbd 18b9 1a3d
00000160: da6c 6f3d 623c 7abd 52b1 4e3d a07c ebbb
00000170: 0055 703b a24e 29bd ec22 00bd e0b6 f0bc
00000180: c0a3 3fbb 72d4 723d f80d 063c aa17 08bd
00000190: e6ff 443d 78ce 42bc e493 bf3c 1200 5bbd
000001a0: 48ab ffbc 767f 1abd 203b 943c 40f6 b83b
000001b0: 00a9 fabb aa46 1f3d e088 ccbb cc40 9e3c
000001c0: c01e e5bc 24c0 a3bc 786d 6b3c 708d 9fbb
000001d0: e420 0dbd dc0e 3cbd 8058 c03a 4c01 65bd
000001e0: e029 5bbd a08f b43b c0ac 99bc f035 9c3b
000001f0: 5006 953c 744f 45bd b6c2 3b3d 0240 7b3d
00000200: 0c86 e63c 3050 a2bc 8262 533d 80a3 d1bc
00000210: be50 433d 4061 ffbc 1c69 283d 74a0 753d
00000220: 1c91 65bd 288c 543c 66fc 0b3d 201f 2c3c
00000230: 9029 d4bb 7cf1 3abd 00f5 eabc 4cc8 abbc
00000240: 60e1 b73b 48ca 07bc 4c6e c93c 8064 bc3c
00000250: 3872 dd3c c01d 3f3d 9619 3f3d d682 4ebd
00000260: 54f9 64bd 76e8 653d cc5f 193d 0844 043d
00000270: b6f5 22bd ccb4 dd3c b4fc a33c b0d9 d9bc
00000280: f895 5bbc 309d 2b3c 00d5 3ebc 0a4a 783d
00000290: f465 803c 309c f93b 1860 5f3d 40c4 adba
000002a0: 90d5 723d 106c 92bb b41f 9c3c e0c3 663c
000002b0: 4494 bebc 6875 63bd 282c 433d daa8 1bbd
000002c0: 4808 713c e00d 333c 6851 873c a092 25bd
000002d0: b22d 59bd 886a 6e3c f67c 433d ec1f 9b3c
000002e0: 708e bebc 6010 113d 78d6 193d b668 253d
000002f0: c019 6d3c 50a8 433d 24fd 51bd 260b 533d
00000300: e81e 283c 80ef 37bb 1efe 3abd aa62 10bd
00000310: 14c1 7e3d f4b3 c6bc a01e e53b 0016 4339
00000320: b0fb adbb 2c61 df3c 9062 95bb 00c3 31ba
00000330: a0ba 0f3d 5467 e93c daf6 143d a05d 27bc
00000340: e463 92bc dcba 25bd 2290 1dbd 66ad 2f3d
00000350: c45c 603d 6ed4 5a3d 7cd1 643d 50c1 da3b
00000360: b64c 19bd 44c1 8d3c 5057 afbb 5aac 77bd
00000370: 0cd5 10bd a09b a73c ee2a 6ebd f4c6 c53c
00000380: 76ee 2ebd 38ff 7f3d 8419 a5bc 1e59 0cbd
00000390: d88f 823c 7e4f 1b3d b20c 00bd 38b4 c0bc
000003a0: 300e da3b 0098 adba 1a85 3ebd 2411 94bc
000003b0: 5027 9c3c c0cf 8cba 328a 353d 3c6d 2e3d
000003c0: a090 f8bc 107f f5bb b413 c0bc 60e8 ebbb
000003d0: f831 cf3c 7e2b 77bd 880c 07bd d297 1c3d
000003e0: 2c5c 523d 14fe 543d 5027 4b3d ca81 503d
000003f0: 289e cc3c 12a6 533d 4805 193d 6cae 53bd
-0.019850068 0.04521264 0.050116375 0.05682805 0.041267723 -0.05900465 -0.009611808 -0.011003315
0.021541454 0.013564512 0.0391939 0.042698897 -0.009145565 0.05680777 0.053920828 0.058370754
0.057347365 -0.02314809 0.028342173 0.017070293 0.009613231 0.029273838 0.032961823 0.05060363
0.026154406 -0.02759321 0.0061221346 0.0388244 -0.04292193 0.04354883 -0.035998754 -0.058612563
-0.038424917 -0.0050801113 0.048676528 0.015445113 -0.0007891059 0.037532687 -0.042401835 0.054384984
-0.0553236 0.0120392665 0.01420033 -0.024234436 -0.04137358 -0.0067814738 0.059708513 -0.044954978
-0.019387387 0.053958125 0.039317563 -0.023133278 -0.045989335 0.034700394 0.026737832 -0.04143233
-0.056768417 0.037278898 0.041365772 0.0031960756 -0.04749906 -0.011494227 -0.04794737 -0.0139186755
0.047800556 -0.01574713 -0.018721066 0.050035052 -0.042532094 -0.0067771226 0.010417141 -0.04734031
0.056652784 0.046947338 -0.008079581 0.016946822 -0.02727317 -0.014705911 0.046394616 0.0061026067
0.026439317 -0.049572878 0.027659364 0.031765282 -0.008704111 -0.062441863 -0.038822494 0.037774175
0.05845342 -0.06109274 0.050462075 -0.0071864873 0.0036671758 -0.041334756 -0.031283304 -0.029384077
-0.002924189 0.059284635 0.008182041 -0.033225693 0.048095606 -0.011890046 0.02338595 -0.053466864
-0.031209603 -0.037719212 0.0180946 0.0056445897 -0.007649541 0.03888575 -0.0062419027 0.019318007
-0.027968764 -0.01998908 0.014369361 -0.0048691556 -0.034455195 -0.04591261 0.0014674813 -0.05590944
-0.053506732 0.0055102855 -0.018759131 0.004767172 0.018191487 -0.048171476 0.045839988 0.06134034
0.02814009 -0.019813627 0.051607616 -0.025590658 0.047684424 -0.031174302 0.041115865 0.059967473
-0.05604659 0.012972869 0.034176253 0.010505468 -0.006474681 -0.045640454 -0.028681278 -0.020969532
0.0056115836 -0.008287974 0.024588726 0.02299714 0.027032003 0.04665923 0.04665526 -0.050417744
-0.05590184 0.056129895 0.037444875 0.032291442 -0.03978511 0.02706375 0.02001796 -0.02659306
-0.013402455 0.010474488 -0.011647463 0.060617484 0.015673615 0.007617496 0.054535 -0.001325734
0.0592857 -0.0044684485 0.019058086 0.014084786 -0.023264058 -0.05553189 0.047649533 -0.038002826
0.014711447 0.010928601 0.01651831 -0.040423036 -0.053022094 0.014551766 0.047726594 0.01893612
-0.023261279 0.035416007 0.03755805 0.040383063 0.014471471 0.047767937 -0.051266804 0.051524304
0.010261275 -0.0028066337 -0.0456525 -0.035250343 0.062195852 -0.02425573 0.006992176 0.00018604845
-0.0053095445 0.027268015 -0.0045588687 -0.00067810714 0.03509009 0.028491654 0.03636823 -0.010215193
-0.017869897 -0.040461406 -0.038467534 0.042889975 0.05477597 0.053425245 0.055863842 0.0066758767
-0.037426673 0.01730407 -0.0053509846 -0.0604671 -0.035359427 0.02045995 -0.05814641 0.02414272
-0.042707883 0.062499255 -0.020153768 -0.034264676 0.01593773 0.037917607 -0.031262107 -0.023523435
0.0066545233 -0.0013244152 -0.046513654 -0.01807458 0.019061714 -0.0010743067 0.044321246 0.042584643
-0.0303424 -0.0074919537 -0.023446895 -0.007199332 0.025292382 -0.06034421 -0.032970935 0.038230725
0.051357433 0.05200012 0.04959804 0.050905026 0.024977759 0.05167205 0.037358552 -0.051680014

fc1.bias f4 [128]
00000000: 725c 1ebd d4d1 b83c ec2b e03c 5686 713d
00000010: 6cfb e1bc 00d2 8bba 0025 303b f0eb e23b
00000020: 4854 50bc 800d 2a3c 34c5 9c3c fa65 42bd
00000030: c8f5 743c 422e 26bd d0ce 0fbc f41c b5bc
00000040: 86d4 19bd f0e3 f5bb d876 7ebc 62ae 74bd
00000050: 74c0 993c c86a 2e3c 043d a33c ac20 383d
00000060: 58db 32bc 6c69 983c 0ae5 40bd 2c13 ae3c
00000070: a03b 333d 9052 df3c 9825 34bd 5032 d73c
00000080: 22f0 7fbd 006c 0cba 9046 923c 680a 8cbc
00000090: 6051 0dbb 744d 41bd 60c5 4d3b 788c 8abc
000000a0: a81b 6b3d ccec ed3c a071 863c 60d6 923b
000000b0: 64da 80bc ee24 163d ccb2 82bc 20d4 c2bb
000000c0: 2417 a4bc 36d0 4ebd d867 573d 4a54 183d
000000d0: 6073 103d 40c3 09bb d851 aa3c 3021 323c
000000e0: 8e2b 66bd 4015 b0ba fafb 6cbd 20e3 77bc
000000f0: 9685 0d3d b43c 583d 4062 e53a a86a 423d
00000100: 9611 593d d859 0d3c 00fe 79bc 766b 293d
00000110: 608d 53bc da44 7a3d 884e 5c3c 70da 23bd
00000120: 5c81 e5bc c4c1 f83c 008e 6dbd 80b3 533b
00000130: 7630 4c3d 5aa4 49bd c420 87bc 30c4 00bd
00000140: b0a6 253d 924a 1c3d 981b 883c 5859 debc
00000150: 20a0 9cbc c87e 2c3c e861 363d f252 7ebd
00000160: 8054 753c bcb3 09bd f077 d43b 4c5e 71bd
00000170: 5c5b 613d dc1c e53c a42c 82bc a043 efbc
00000180: 026c 6cbd 4c07 1fbd 144d f23c 8240 13bd
00000190: 109d 3f3d 2855 293c 4073 30bc 1423 843c
000001a0: d8d0 0ebd 8088 16ba c422 ea3c c80a 603c
000001b0: 6477 76bd 8028 7abd 007a 14bd fe23 113d
000001c0: a883 473c 6cd3 bdbc 7e5e 323d d45d 7e3d
000001d0: 407c 283d 1055 cdbc 7837 f43c 26ab 4f3d
000001e0: 6879 4c3d 92d8 7abd 6090 f8bc a604 503d
000001f0: e02d 493c 40c7 07bb 600e 90bc e038 4d3b
-0.03866238 0.022560991 0.027364694 0.058966003 -0.027585708 -0.0010667443 0.0026877522 0.0069250986
-0.012715407 0.010379195 0.019137003 -0.047460534 0.014951177 -0.04057146 -0.008777335 -0.022108532
-0.037556194 -0.007503979 -0.015531264 -0.059736617 0.018768527 0.010645576 0.019926555 0.044953033
-0.010916553 0.018604957 -0.04709343 0.021249376 0.043758035 0.027261049 -0.043981165 0.026269108
-0.062484868 -0.00053566694 0.017855912 -0.017094806 -0.0021563396 -0.047193006 0.0031398162 -0.016912684
0.057399422 0.029043578 0.016411602 0.004481122 -0.015729137 0.036656313 -0.015954398 -0.0059456974
-0.020030566 -0.050491534 0.052589267 0.03718976 0.03526628 -0.002102092 0.02079098 0.01087217
-0.05619388 -0.0013434067 -0.05785749 -0.015129834 0.034551226 0.052792266 0.0017500594 0.047464997
0.052995287 0.008627377 -0.015258312 0.04136225 -0.012912124 0.06110082 0.013446458 -0.04000324
-0.028015785 0.030365832 -0.05799675 0.0032303035 0.049850903 -0.049229003 -0.016495116 -0.0314371
0.04044217 0.038157053 0.01661472 -0.027142212 -0.019119322 0.010528274 0.044526964 -0.06209082
0.01497376 -0.033618674 0.006484024 -0.05892782 0.055018768 0.027967863 -0.015890427 -0.02920705
-0.05772019 -0.03882532 0.02957777 -0.03595019 0.046780646 0.010335244 -0.010769665 0.016130008
-0.034867138 -0.0005742386 0.02858103 0.013674445 -0.060172454 -0.06107378 -0.03624916 0.035434715
0.012177385 -0.023172103 0.043547146 0.0621012 0.04113412 -0.025064975 0.029811606 0.05070033
0.04992047 -0.061241694 -0.03034228 0.050785683 0.012279004 -0.0020718127 -0.01758498 0.0031314418

fc2.weight f4 [64, 128]
00000000: c877 cb3c d914 613c b5c3 f53c 2d23 b1bc
00000010: 665f b13d 26bc d83c 6ac9 913d ac1e 35bd
00000020: 30d0 393d 8aed 75bd 75b9 94ba 6891 a6bd
00000030: f71a 213d a9f2 2a3b b8fc 0e3d 25e8 fa3c
00000040: f99c 0abd b28e 5e3d 2adc a43d ac8e aebb
00000050: ff81 9e3d 5f2a 133d d48f 8a3d 7212 363d
00000060: b717 85bd 4366 2d3d dda8 8bbd aa49 bf3c
00000070: cfca 9b3d e297 ff3c 86b9 ec3b 1356 49bc
00000080: 55b7 04bd 981d 0a3c 2775 aebc 277b a7bb
00000090: 7532 8dbd e620 e8ba 6bd4 8f3d 0b3b 873d
000000a0: 94b9 acbd f9d7 4fbd 095c 70bc 80b3 9f39
000000b0: c3af 4c3d f446 783d fd1b 94bd be32 38bd
000000c0: 44c8 133d d40c 50bd 605f 6bbd 0694 7b3d
000000d0: a2d7 eaba 8e9d 133c 837d 8dbd 51d1 3b3c
000000e0: d5ee 7dbd 514c 063d ffa9 a9bd 6125 82bd
000000f0: 5534 abbd c8de 7d3d e8ea a8bd f09d 8b3d
00000100: 110b 14bc 09b8 243d 5a61 b2bc 03b1 15bd
00000110: 3820 ac3c 60ba c0ba 057d 4b3d 569f 9bbd
00000120: 35f2 983d 4e41 6e3c 1f1a b93c c17e 233d
00000130: b37a 913d bd2d 313d e3fb 0f3b 4340 2e3d
00000140: eec4 3d3c ad6e 88bd 5ebb a6bd 8c88 853b
00000150: 4f51 3f3d 8202 9ebc a2fc 013d f604 a6bd
00000160: e8d2 3fbd d310 273d b739 9f3d 9380 19bc
00000170: 2672 a2bd f676 723d 34ce 903c 50ca 83bd
00000180: d4cf 62bd 5b61 923d 8511 533c fe8e 433d
00000190: 838d 43bd 48bd ac3d 5df5 403d 4418 86bb
000001a0: eba0 3ebd b71d 1fbd 2ba8 533d ad38 1abd
000001b0: a018 353d 0c00 b03c 347a 18bd 3461 b2bd
000001c0: c9f7 763d e521 88bd 302c 9abd 77ed b03d
000001d0: a26a 7c3d 4ce4 bfbc 2484 78bd e375 a43c
000001e0: 7578 a7bc 5f5e 8c3b cb05 abbd c46c 5e3d
000001f0: 66be 8bbd 1c35 11bd 4516 733d 924d 44bd
00000200: c0e9 2f3d ab57 99bd 6a84 683d aff6 843c
00000210: 9503 78bd fde8 163d a488 b2bd 1b6e 2b3d
00000220: 43d4 a7bd 61ec a7bd c73a df3b 0587 92bd
00000230: 64cc 17bd 342f 85bd 9cc0 33bc 356a ea3b
00000240: 777e aa3d 378f 52bd f808 ae3d cb8e 85bd
00000250: fb8e 503d 723b 5cbd ecff afbd 6d72 363d
00000260: fe31 abbc b28b 72bd db1f adbd 6344 553d
00000270: 9e0c f0bc c026 693d 3b4b 50bc baf4 0f3d
00000280: 1f2c 0e3d df35 9abd a4a6 5e3b 5a96 543d
00000290: 11ef 3ebc 6df4 ff3c 3683 83bc 0446 aabd
000002a0: da33 a6bc 4866 8f3d 19ec abbd 0eed 5bbd
000002b0: 1fe3 96bb 21b1 393d d7f9 a33d 4aab 473c
000002c0: fa76 a53d b71e 26bd 023f 5f3d 1b7a 8a3d
000002d0: f563 a53d 70c1 b43d 1da2 9ebb 0002 52bd
000002e0: 5ba8 293d e2fb fd39 e601 a03c ea1b f3bc
000002f0: f5e5 3f3d 2073 8f3d 55c9 c9bc 6d4b fbbc
00000300: 4931 33bc cf81 33bc 40ce 7d3d 1b47 033d
00000310: 00a9 99bd c7d7 9bbd 5ed9 6abd 2e87 3dbd
00000320: e23e 88bc a050 713d 5a2d 7f3c c8ec 44bd
00000330: 117c a73d b043 843d 54f4 13bd 2926 86bd
00000340: d73b 83bd af20 563c 1c84 673d d622 e5bc
00000350: 93cd f33b c686 953d 48ba e7bc 58a0 8ebd
00000360: 6ff7 863d f4ea a93d ddca a3bd bd15 0abd
00000370: 5e1b 763d d38f 793d 9344 013d 49a2 5a3c
00000380: 7967 3dbd 2416 0bbd a6b1 2f3c 9c3d ef3c
00000390: 6873 973d 8ba5 06bd a0c8 453d 6699 ca3c
000003a0: 76de 85bb 4b82 c43c f4f0 5ebd 71d4 8c3d
000003b0: f356 59bd fe8c 113d 8f97 a43d 34c3 313d
000003c0: 8205 e2bc e9b3 3abc 7a99 99bc 806e 0ebd
000003d0: 2e00 063c 9250 233d 19d7 91bd 2ccc a63d
000003e0: 8e4f de3c 5012 b13d d5af 273d 5c63 a03d
000003f0: 5e92 2d3c f84b b03d 2c0c 593d 66e6 52bd
0.02483739 0.013737881 0.030000547 -0.021623218 0.08660774 0.026456904 0.07118495 -0.044218704
0.04536456 -0.060040988 -0.0011346774 -0.08133203 0.039332356 0.0026084578 0.03490898 0.030628273
-0.033841107 0.054335304 0.080498055 -0.0053270664 0.077396385 0.03592908 0.06765714 0.044451185
-0.06498664 0.042333852 -0.068193175 0.023350555 0.07607042 0.031200353 0.0072242646 -0.012288588
-0.0324014 0.008429907 -0.021296097 -0.0051111165 -0.068943895 -0.001771 0.070229374 0.066030584
-0.08433834 -0.050743077 -0.01467038 0.0003046058 0.049972307 0.06061454 -0.07231901 -0.044970267
0.03607966 -0.050793484 -0.057464004 0.061420463 -0.0017917047 0.009009732 -0.06908705 0.011463479
-0.061995346 0.032787625 -0.08284377 -0.06354786 -0.08359591 0.06198004 -0.0824793 0.068172336
-0.009035842 0.040214572 -0.021774936 -0.036545765 0.021011457 -0.0014703982 0.049679775 -0.0759875
0.07468072 0.014541937 0.022595463 0.039915804 0.07103481 0.04325651 0.0021970205 0.042541754
0.011582596 -0.06661735 -0.08141206 0.0040751155 0.0467084 -0.019288305 0.03173507 -0.08106415
-0.046831995 0.04078753 0.0777468 -0.009369033 -0.07931928 0.05919548 0.01767645 -0.064350724
-0.05537398 0.07147475 0.012882595 0.04774379 -0.047742378 0.0843454 0.047108997 -0.004092248
-0.046540182 -0.038846698 0.05167405 -0.037651706 0.044212937 0.021484397 -0.037225917 -0.08709946
0.0602949 -0.0664709 -0.07527959 0.08639043 0.06162513 -0.02342429 -0.060672894 0.020075744
-0.02044318 0.004283711 -0.08350714 0.054302946 -0.06823425 -0.03545104 0.05934741 -0.04792554
0.04294753 -0.074874245 0.056766905 0.01623091 -0.06055029 0.03684329 -0.087174684 0.04185305
-0.081947826 -0.081993826 0.0068124267 -0.07154659 -0.037060156 -0.06503144 -0.010971215 0.007153774
0.083249025 -0.05140611 0.084978044 -0.06521376 0.050917607 -0.05376763 -0.08593735 0.04454272
-0.020897862 -0.059215255 -0.084533416 0.05206717 -0.029302891 0.05692172 -0.012713249 0.0351455
0.034710046 -0.07529806 0.0033973837 0.0519012 -0.011653678 0.031244481 -0.016053777 -0.08314136
-0.020288397 0.070019305 -0.083946414 -0.05369287 -0.0046047117 0.04533494 0.080066375 0.012186835
0.080793336 -0.040556636 0.05450345 0.06761571 0.08075706 0.08825958 -0.0048411028 -0.05127144
0.041420322 0.00048443588 0.019532155 -0.029676396 0.046850163 0.0700438 -0.024632135 -0.030675614
-0.0109370435 -0.010956242 0.061964273 0.032050233 -0.07502937 -0.07609516 -0.057336204 -0.046271496
-0.016631547 0.05891478 0.0155747775 -0.048077375 0.08177961 0.06458223 -0.03612168 -0.06550247
-0.06407898 0.013069316 0.056522474 -0.027970713 0.007440278 0.073010966 -0.028287068 -0.06964177
0.06590163 0.08296767 -0.079976775 -0.033712137 0.060084693 0.060928177 0.031559538 0.013344356
-0.046241257 -0.03395666 0.010723507 0.029204182 0.07395059 -0.032872718 0.048287034 0.02473135
-0.0040853573 0.02398791 -0.05442901 0.068764575 -0.053061437 0.03553485 0.0803672 0.04339905
-0.027590517 -0.011395433 -0.018749941 -0.03477335 0.008178754 0.03987176 -0.07121105 0.081444114
0.027137544 0.08646071 0.04093917 0.07831451 0.010593979 0.0860824 0.052990124 -0.051489256

fc2.bias f4 [64]
00000000: 83c0 ac3c 1bf1 f33b 9c6e 89bd 994e 8a3d
00000010: ddbe ee3c 4c81 1abd 95cc 91bd 30fe 3abd
00000020: f6b8 af3c c6fc b43c bb64 96bd be5b a6bd
00000030: 9c61 343a dfe4 3bbd daa3 94bd 7237 52bd
00000040: 849e 3dbd 8934 b13d 58e2 673d 5042 5b3d
00000050: aa4a a9bb d0d5 90bd 7ef6 e33b 0b19 5e3d
00000060: 8381 783b 39b9 6d3d 5e54 63bd 8c1d 303d
00000070: 8c14 92bd a1c3 94bd 5325 26bd 9818 4ebd
00000080: 14e3 813d fe90 083c afe8 133c b124 9ebb
00000090: 339d 3dbd 1113 3ebc 5d2d 9ebd 8f1b 49bb
000000a0: ffaa 31bd 47e0 0abd 3880 763d 56ad 793d
000000b0: fb3f 97bd ae19 1bbc de03 3b3d 3e9c 8e3d
000000c0: 60c8 57bc bc65 133c 2a45 8bbc d775 80bd
000000d0: d3f6 1c3d aeb2 913d cce2 6dbd 9e3b ecbc
000000e0: 86d4 b13d 28b6 4c3d a178 61bd 8732 b03d
000000f0: 393e 7bbd 10c4 64bd cac6 47bd a5d9 6ebd
0.02108789 0.0074445135 -0.0671055 0.067532726 0.029143745 -0.037720963 -0.07119099 -0.04565257
0.021450501 0.022093188 -0.073434316 -0.08122967 0.0006881 -0.045872565 -0.07257815 -0.051322408
-0.04629375 0.086525984 0.056612343 0.053530037 -0.0051663714 -0.070720315 0.0069568744 0.0542231
0.0037918992 0.05803797 -0.05550038 0.042996928 -0.07132825 -0.07263876 -0.04056294 -0.050316423
0.0634214 0.00833535 0.009027644 -0.0048261513 -0.046292495 -0.0116012255 -0.07723496 -0.0030686592
-0.043375965 -0.033905294 0.060180873 0.06095632 -0.0738525 -0.009466572 0.045657985 0.069633946
-0.013170332 0.008996423 -0.017000753 -0.06272476 0.038321327 0.071141586 -0.05807762 -0.028837021
0.08683114 0.049978405 -0.05504668 0.08603387 -0.061338637 -0.055851042 -0.048773564 -0.05831303
