ImitationLearning/Models/Accepted/simplerank_17.pth (torch, 722821 bytes, 26 tensors)

gcn1.gcn.bias f4 [256]
0.0 0.0 0.0 0.0 0.0 0.0 0.0 0.0
0.0 0.0 0.0 0.0 0.0 0.0 0.0 0.0
0.0 0.0 0.0 0.0 0.0 0.0 0.0 0.0
0.0 0.0 0.0 0.0 0.0 0.0 0.0 0.0
0.0 0.0 0.0 0.0 0.0 0.0 0.0 0.0
0.0 0.0 0.0 0.0 0.0 0.0 0.0 0.0
0.0 0.0 0.0 0.0 0.0 0.0 0.0 0.0
0.0 0.0 0.0 0.0 0.0 0.0 0.0 0.0
0.0 0.0 0.0 0.0 0.0 0.0 0.0 0.0
0.0 0.0 0.0 0.0 0.0 0.0 0.0 0.0
0.0 0.0 0.0 0.0 0.0 0.0 0.0 0.0
0.0 0.0 0.0 0.0 0.0 0.0 0.0 0.0
0.0 0.0 0.0 0.0 0.0 0.0 0.0 0.0
0.0 0.0 0.0 0.0 0.0 0.0 0.0 0.0
0.0 0.0 0.0 0.0 0.0 0.0 0.0 0.0
0.0 0.0 0.0 0.0 0.0 0.0 0.0 0.0
0.0 0.0 0.0 0.0 0.0 0.0 0.0 0.0
0.0 0.0 0.0 0.0 0.0 0.0 0.0 0.0
0.0 0.0 0.0 0.0 0.0 0.0 0.0 0.0
0.0 0.0 0.0 0.0 0.0 0.0 0.0 0.0
0.0 0.0 0.0 0.0 0.0 0.0 0.0 0.0
0.0 0.0 0.0 0.0 0.0 0.0 0.0 0.0
0.0 0.0 0.0 0.0 0.0 0.0 0.0 0.0
0.0 0.0 0.0 0.0 0.0 0.0 0.0 0.0
0.0 0.0 0.0 0.0 0.0 0.0 0.0 0.0
0.0 0.0 0.0 0.0 0.0 0.0 0.0 0.0
0.0 0.0 0.0 0.0 0.0 0.0 0.0 0.0
0.0 0.0 0.0 0.0 0.0 0.0 0.0 0.0
0.0 0.0 0.0 0.0 0.0 0.0 0.0 0.0
0.0 0.0 0.0 0.0 0.0 0.0 0.0 0.0
0.0 0.0 0.0 0.0 0.0 0.0 0.0 0.0
0.0 0.0 0.0 0.0 0.0 0.0 0.0 0.0
00000000: 0000 0000 0000 0000 0000 0000 0000 0000
00000010: 0000 0000 0000 0000 0000 0000 0000 0000
00000020: 0000 0000 0000 0000 0000 0000 0000 0000
00000030: 0000 0000 0000 0000 0000 0000 0000 0000
00000040: 0000 0000 0000 0000 0000 0000 0000 0000
00000050: 0000 0000 0000 0000 0000 0000 0000 0000
00000060: 0000 0000 0000 0000 0000 0000 0000 0000
00000070: 0000 0000 0000 0000 0000 0000 0000 0000
00000080: 0000 0000 0000 0000 0000 0000 0000 0000
00000090: 0000 0000 0000 0000 0000 0000 0000 0000
000000a0: 0000 0000 0000 0000 0000 0000 0000 0000
000000b0: 0000 0000 0000 0000 0000 0000 0000 0000
000000c0: 0000 0000 0000 0000 0000 0000 0000 0000
000000d0: 0000 0000 0000 0000 0000 0000 0000 0000
000000e0: 0000 0000 0000 0000 0000 0000 0000 0000
000000f0: 0000 0000 0000 0000 0000 0000 0000 0000
00000100: 0000 0000 0000 0000 0000 0000 0000 0000
00000110: 0000 0000 0000 0000 0000 0000 0000 0000
00000120: 0000 0000 0000 0000 0000 0000 0000 0000
00000130: 0000 0000 0000 0000 0000 0000 0000 0000
00000140: 0000 0000 0000 0000 0000 0000 0000 0000
00000150: 0000 0000 0000 0000 0000 0000 0000 0000
00000160: 0000 0000 0000 0000 0000 0000 0000 0000
00000170: 0000 0000 0000 0000 0000 0000 0000 0000
00000180: 0000 0000 0000 0000 0000 0000 0000 0000
00000190: 0000 0000 0000 0000 0000 0000 0000 0000
000001a0: 0000 0000 0000 0000 0000 0000 0000 0000
000001b0: 0000 0000 0000 0000 0000 0000 0000 0000
000001c0: 0000 0000 0000 0000 0000 0000 0000 0000
000001d0: 0000 0000 0000 0000 0000 0000 0000 0000
000001e0: 0000 0000 0000 0000 0000 0000 0000 0000
000001f0: 0000 0000 0000 0000 0000 0000 0000 0000
00000200: 0000 0000 0000 0000 0000 0000 0000 0000
00000210: 0000 0000 0000 0000 0000 0000 0000 0000
00000220: 0000 0000 0000 0000 0000 0000 0000 0000
00000230: 0000 0000 0000 0000 0000 0000 0000 0000
00000240: 0000 0000 0000 0000 0000 0000 0000 0000
00000250: 0000 0000 0000 0000 0000 0000 0000 0000
00000260: 0000 0000 0000 0000 0000 0000 0000 0000
00000270: 0000 0000 0000 0000 0000 0000 0000 0000
00000280: 0000 0000 0000 0000 0000 0000 0000 0000
00000290: 0000 0000 0000 0000 0000 0000 0000 0000
000002a0: 0000 0000 0000 0000 0000 0000 0000 0000
000002b0: 0000 0000 0000 0000 0000 0000 0000 0000
000002c0: 0000 0000 0000 0000 0000 0000 0000 0000
000002d0: 0000 0000 0000 0000 0000 0000 0000 0000
000002e0: 0000 0000 0000 0000 0000 0000 0000 0000
000002f0: 0000 0000 0000 0000 0000 0000 0000 0000
00000300: 0000 0000 0000 0000 0000 0000 0000 0000
00000310: 0000 0000 0000 0000 0000 0000 0000 0000
00000320: 0000 0000 0000 0000 0000 0000 0000 0000
00000330: 0000 0000 0000 0000 0000 0000 0000 0000
00000340: 0000 0000 0000 0000 0000 0000 0000 0000
00000350: 0000 0000 0000 0000 0000 0000 0000 0000
00000360: 0000 0000 0000 0000 0000 0000 0000 0000
00000370: 0000 0000 0000 0000 0000 0000 0000 0000
00000380: 0000 0000 0000 0000 0000 0000 0000 0000
00000390: 0000 0000 0000 0000 0000 0000 0000 0000
000003a0: 0000 0000 0000 0000 0000 0000 0000 0000
000003b0: 0000 0000 0000 0000 0000 0000 0000 0000
000003c0: 0000 0000 0000 0000 0000 0000 0000 0000
000003d0: 0000 0000 0000 0000 0000 0000 0000 0000
000003e0: 0000 0000 0000 0000 0000 0000 0000 0000
000003f0: 0000 0000 0000 0000 0000 0000 0000 0000

gcn1.gcn.lin.weight f4 [256, 9]
0.063248344 0.040528283 0.12875475 -0.13815087 0.008739257 0.03916932 -0.07580478 0.049542077
0.14376777 0.10072276 -0.08856321 -0.05486762 0.13275433 -0.028588003 0.081314296 0.0016263605
-0.007756298 0.12510909 -0.14840639 -0.13502656 0.07201069 -0.11871868 -0.029839216 -0.10830786
-0.039003037 0.13179903 -0.02172989 -0.06296678 0.082778 -0.09609967 0.083687216 -0.14420365
0.0044984827 -0.10488556 -0.033119526 -0.1320125 -0.059417997 -0.07571197 0.052562505 0.04762448
-0.047911983 -0.041609865 -0.084369935 0.12037082 0.045791283 0.0905139 0.1251404 -0.027292464
0.03719018 0.14862825 0.029758982 0.045325067 0.030318508 0.1471348 0.035270363 -0.05547332
0.10043318 -0.08541824 0.12918563 0.090442635 0.033391334 0.10546303 -0.033140298 0.020627486
0.100539155 -0.093745686 -0.043424048 -0.11617651 -0.08215056 -0.10586639 -0.0497384 -0.13710764
0.061051603 -0.14864428 0.009578805 -0.026948566 0.12480799 0.11667461 -0.04186689 -0.060170423
0.11400122 0.13029824 0.11266335 -0.023957374 0.11798054 -0.066673316 0.14012414 0.08867916
-0.07340497 -0.0322575 0.08231505 -0.14349252 0.10455617 0.07972417 -0.06709096 -0.100168705
-0.13778996 -0.08482149 0.09755293 0.09075113 0.06465445 0.05368387 -0.06509374 -0.061869018
0.062081058 0.036711607 -0.070489764 -0.068558194 0.039649505 -0.012295912 -0.013851383 -0.029577706
0.009760244 -0.039412856 0.07808975 -0.09199773 -0.09568626 -0.08422701 0.105518885 -0.14448772
0.10592908 -0.029772848 -0.09330557 0.06865325 -0.04116184 0.12029995 0.0850848 -0.036618818
0.08517282 -0.016639324 0.046836827 -0.008698665 0.09707603 0.05961931 -0.03745354 0.08602139
0.10532227 0.058245476 -0.014409887 -0.08841542 0.03502953 0.14120467 0.12121374 0.02255803
-0.06913094 -0.0045338017 0.10423755 -0.012845894 -0.045166876 -0.12036809 0.11235045 0.010309832
-0.110658005 -0.026568523 0.0040870137 -0.031853475 -0.017058255 0.030326543 0.036547676 -0.033765547
0.042361304 0.010561334 -0.1209824 0.13862969 0.08873186 -0.058817074 0.023576487 0.12961134
-0.13984697 0.029317612 -0.10732293 -0.01042126 0.055427704 -0.09385486 -0.004248649 0.010220826
-0.012879492 -0.08167369 -0.022551429 0.039798673 0.06124106 -0.092663765 0.11985298 0.13933797
0.026923865 -0.018057287 -0.10523423 0.079159066 0.022149198 0.049604822 -0.06053915 0.10851017
-0.11223755 0.019427536 -0.081081964 0.07301083 0.04468511 0.049275704 -0.0898665 -0.047656644
-0.12677275 0.04388106 0.042689256 -0.06081422 0.14808786 -0.14845265 0.12493284 -0.09558396
-0.0557916 0.05047418 0.05025633 0.114465244 0.06375235 0.07621503 -0.0041162698 -0.015935313
0.02376668 -0.14120676 0.14576083 -0.010088016 -0.057773 0.02345878 -0.11695315 0.0549407
-0.06288726 0.12252801 0.06271013 -0.09868832 -0.028392842 0.031916723 0.054989185 -0.026446098
0.0121199805 -0.12361021 0.049484048 0.052273225 -0.14505325 0.033933226 0.014559109 0.12647276
-0.09772443 -0.13337232 0.10922653 -0.066601835 -0.06502523 0.040080026 -0.08474722 -0.024646496
0.03547451 0.1327459 -0.0062036966 -0.024631878 -0.13204667 -0.060164273 0.035779662 0.07477007
00000000: 5988 813d fc00 263d 49d8 033e 6c77 0dbe
00000010: 1a2f 0f3c 0270 203d 893f 9bbd a2ec 4a3d
00000020: dc37 133e bc47 ce3d a160 b5bd dfbc 60bd
00000030: c0f0 073e 6331 eabc 1c88 a63d 9a2b d53a
00000040: 8b28 febb 991c 003e d8f7 17be 6744 0abe
00000050: 577a 933d c822 f3bd 5f71 f4bc 83d0 ddbd
00000060: a6c1 1fbd 53f6 063e e202 b2bc baf4 80bd
00000070: 8387 a93d e7cf c4bd 3464 ab3d 1faa 13be
00000080: 0268 933b 3ece d6bd 57a8 07bd 492e 07be
00000090: 4960 73bd e10e 9bbd c84b 573d e311 433d
000000a0: 5b3f 44bd 1b6f 2abd 25ca acbd fa84 f63d
000000b0: a48f 3b3d 5a5f b93d ce24 003e 7294 dfbc
000000c0: bb54 183d 0132 183e 1cc9 f33c c7a6 393d
000000d0: 855e f83c 81aa 163e a877 103d fe37 63bd
000000e0: e9af cd3d c2ef aebd 3d49 043e fd39 b93d
000000f0: 5ac5 083d 00fd d73d 1fbe 07bd f9fa a83c
00000100: 79e7 cd3d bdfd bfbd 6add 31bd f3ed edbd
00000110: 8e3e a8bd 7ad0 d8bd 7eba 4bbd f265 0cbe
00000120: 3f11 7a3d 3536 18be 6cf0 1c3c 3dc3 dcbc
00000130: 559b ff3d 19f3 ee3d 9e7c 2bbd 4375 76bd
00000140: 7979 e93d e76c 053e 0bbc e63d 4142 c4bc
00000150: c89f f13d 058c 88bd b47c 0f3e 6b9d b53d
00000160: 5855 96bd 7120 04bd cb94 a83d b4ef 12be
00000170: 8c21 d63d 6d46 a33d fc66 89bd 4025 cdbd
00000180: d018 0dbe e4b6 adbd d5c9 c73d badb b93d
00000190: 8d69 843d 9ee3 5b3d de4f 85bd 5e6a 7dbd
000001a0: b548 7e3d e95e 163d f05c 90bd 3d68 8cbd
000001b0: 8567 223d cb74 49bc e9f0 62bc f24c f2bc
000001c0: 6ee9 1f3c 606f 21bd 85ed 9f3d 4e69 bcbd
000001d0: 28f7 c3bd 367f acbd 491a d83d 97f4 13be
000001e0: 58f1 d83d 30e6 f3bc fe16 bfbd 139a 8c3d
000001f0: 5199 28bd d25f f63d f140 ae3d 9dfd 15bd
00000200: 166f ae3d 314f 88bc f9d7 3f3d d884 0ebc
00000210: cccf c63d 6133 743d e268 19bd fc2b b03d
00000220: 34b3 d73d cf92 6e3d 7217 6cbc 2513 b5bd
00000230: 207b 0f3d f597 103e e93e f83d 9ecb b83c
00000240: 8694 8dbd 4990 94bb 7f7a d53d 9677 52bc
00000250: e700 39bd 8c83 f6bd fe17 e63d 92ea 283c
00000260: aaa0 e2bd 3ba6 d9bc 5bec 853b ca78 02bd
00000270: c1bd 8bbc 5f6f f83c 04b3 153d be4d 0abd
00000280: 0c83 2d3d 7209 2d3c 9fc5 f7bd f1f4 0d3e
00000290: 0db9 b53d 2cea 70bd 7a23 c13c d6b8 043e
000002a0: 0b34 0fbe 7d2b f03c 20cc dbbd efbd 2abc
000002b0: 2908 633d fa36 c0bd 4038 8bbb 4075 273c
000002c0: 8104 53bc 8944 a7bd c6bd b8bc ef03 233d
000002d0: e8d7 7a3d 80c6 bdbd 7b75 f53d 9dae 0e3e
000002e0: 708f dc3c e0ec 93bc 0b85 d7bd 261e a23d
000002f0: 3c72 b53c 6d2e 4b3d e6f7 77bd 943a de3d
00000300: cddc e5bd 7f26 9f3c 4d0e a6bd b486 953d
00000310: bc07 373d 52d5 493d ed0b b8bd 9d33 43bd
00000320: b7d0 01be a0bc 333d eeda 2e3d 5518 79bd
00000330: 58a4 173e f903 18be cadc ff3d 86c1 c3bd
00000340: bc85 64bd 04be 4e3d 95d9 4d3d c16c ea3d
00000350: 9890 823d a016 9c3d c6e1 86bb c68a 82bc
00000360: 57b2 c23c 8198 10be 5442 153e 3548 25bc
00000370: 62a3 6cbd a12c c03c 2285 efbd 8009 613d
00000380: 09cb 80bd f7ef fa3d 2b6e 803d 1a1d cabd
00000390: 1b98 e8bc 1cbb 023d 573c 613d 7da5 d8bc
000003a0: e292 463c 5a27 fdbd c9af 4a3d 731c 563d
000003b0: d788 14be 91fd 0a3d 5489 6e3c 1382 013e
000003c0: bf23 c8bd c192 08be 29b2 df3d 8b66 88bd
000003d0: f32b 85bd f42a 243d f38f adbd 73e7 c9bc
000003e0: b84d 113d 8bee 073e 6148 cbbb cbc8 c9bc
000003f0: 3e37 07be d06e 76bd b28d 123d 0d21 993d

gcn2.gcn.bias f4 [256]
0.0 0.0 0.0 0.0 0.0 0.0 0.0 0.0
0.0 0.0 0.0 0.0 0.0 0.0 0.0 0.0
0.0 0.0 0.0 0.0 0.0 0.0 0.0 0.0
0.0 0.0 0.0 0.0 0.0 0.0 0.0 0.0
0.0 0.0 0.0 0.0 0.0 0.0 0.0 0.0
0.0 0.0 0.0 0.0 0.0 0.0 0.0 0.0
0.0 0.0 0.0 0.0 0.0 0.0 0.0 0.0
0.0 0.0 0.0 0.0 0.0 0.0 0.0 0.0
0.0 0.0 0.0 0.0 0.0 0.0 0.0 0.0
0.0 0.0 0.0 0.0 0.0 0.0 0.0 0.0
0.0 0.0 0.0 0.0 0.0 0.0 0.0 0.0
0.0 0.0 0.0 0.0 0.0 0.0 0.0 0.0
0.0 0.0 0.0 0.0 0.0 0.0 0.0 0.0
0.0 0.0 0.0 0.0 0.0 0.0 0.0 0.0
0.0 0.0 0.0 0.0 0.0 0.0 0.0 0.0
0.0 0.0 0.0 0.0 0.0 0.0 0.0 0.0
0.0 0.0 0.0 0.0 0.0 0.0 0.0 0.0
0.0 0.0 0.0 0.0 0.0 0.0 0.0 0.0
0.0 0.0 0.0 0.0 0.0 0.0 0.0 0.0
0.0 0.0 0.0 0.0 0.0 0.0 0.0 0.0
0.0 0.0 0.0 0.0 0.0 0.0 0.0 0.0
0.0 0.0 0.0 0.0 0.0 0.0 0.0 0.0
0.0 0.0 0.0 0.0 0.0 0.0 0.0 0.0
0.0 0.0 0.0 0.0 0.0 0.0 0.0 0.0
0.0 0.0 0.0 0.0 0.0 0.0 0.0 0.0
0.0 0.0 0.0 0.0 0.0 0.0 0.0 0.0
0.0 0.0 0.0 0.0 0.0 0.0 0.0 0.0
0.0 0.0 0.0 0.0 0.0 0.0 0.0 0.0
0.0 0.0 0.0 0.0 0.0 0.0 0.0 0.0
0.0 0.0 0.0 0.0 0.0 0.0 0.0 0.0
0.0 0.0 0.0 0.0 0.0 0.0 0.0 0.0
0.0 0.0 0.0 0.0 0.0 0.0 0.0 0.0
00000000: 0000 0000 0000 0000 0000 0000 0000 0000
00000010: 0000 0000 0000 0000 0000 0000 0000 0000
00000020: 0000 0000 0000 0000 0000 0000 0000 0000
00000030: 0000 0000 0000 0000 0000 0000 0000 0000
00000040: 0000 0000 0000 0000 0000 0000 0000 0000
00000050: 0000 0000 0000 0000 0000 0000 0000 0000
00000060: 0000 0000 0000 0000 0000 0000 0000 0000
00000070: 0000 0000 0000 0000 0000 0000 0000 0000
00000080: 0000 0000 0000 0000 0000 0000 0000 0000
00000090: 0000 0000 0000 0000 0000 0000 0000 0000
000000a0: 0000 0000 0000 0000 0000 0000 0000 0000
000000b0: 0000 0000 0000 0000 0000 0000 0000 0000
000000c0: 0000 0000 0000 0000 0000 0000 0000 0000
000000d0: 0000 0000 0000 0000 0000 0000 0000 0000
000000e0: 0000 0000 0000 0000 0000 0000 0000 0000
000000f0: 0000 0000 0000 0000 0000 0000 0000 0000
00000100: 0000 0000 0000 0000 0000 0000 0000 0000
00000110: 0000 0000 0000 0000 0000 0000 0000 0000
00000120: 0000 0000 0000 0000 0000 0000 0000 0000
00000130: 0000 0000 0000 0000 0000 0000 0000 0000
00000140: 0000 0000 0000 0000 0000 0000 0000 0000
00000150: 0000 0000 0000 0000 0000 0000 0000 0000
00000160: 0000 0000 0000 0000 0000 0000 0000 0000
00000170: 0000 0000 0000 0000 0000 0000 0000 0000
00000180: 0000 0000 0000 0000 0000 0000 0000 0000
00000190: 0000 0000 0000 0000 0000 0000 0000 0000
000001a0: 0000 0000 0000 0000 0000 0000 0000 0000
000001b0: 0000 0000 0000 0000 0000 0000 0000 0000
000001c0: 0000 0000 0000 0000 0000 0000 0000 0000
000001d0: 0000 0000 0000 0000 0000 0000 0000 0000
000001e0: 0000 0000 0000 0000 0000 0000 0000 0000
000001f0: 0000 0000 0000 0000 0000 0000 0000 0000
00000200: 0000 0000 0000 0000 0000 0000 0000 0000
00000210: 0000 0000 0000 0000 0000 0000 0000 0000
00000220: 0000 0000 0000 0000 0000 0000 0000 0000
00000230: 0000 0000 0000 0000 0000 0000 0000 0000
00000240: 0000 0000 0000 0000 0000 0000 0000 0000
00000250: 0000 0000 0000 0000 0000 0000 0000 0000
00000260: 0000 0000 0000 0000 0000 0000 0000 0000
00000270: 0000 0000 0000 0000 0000 0000 0000 0000
00000280: 0000 0000 0000 0000 0000 0000 0000 0000
00000290: 0000 0000 0000 0000 0000 0000 0000 0000
000002a0: 0000 0000 0000 0000 0000 0000 0000 0000
000002b0: 0000 0000 0000 0000 0000 0000 0000 0000
000002c0: 0000 0000 0000 0000 0000 0000 0000 0000
000002d0: 0000 0000 0000 0000 0000 0000 0000 0000
000002e0: 0000 0000 0000 0000 0000 0000 0000 0000
000002f0: 0000 0000 0000 0000 0000 0000 0000 0000
00000300: 0000 0000 0000 0000 0000 0000 0000 0000
00000310: 0000 0000 0000 0000 0000 0000 0000 0000
00000320: 0000 0000 0000 0000 0000 0000 0000 0000
00000330: 0000 0000 0000 0000 0000 0000 0000 0000
00000340: 0000 0000 0000 0000 0000 0000 0000 0000
00000350: 0000 0000 0000 0000 0000 0000 0000 0000
00000360: 0000 0000 0000 0000 0000 0000 0000 0000
00000370: 0000 0000 0000 0000 0000 0000 0000 0000
00000380: 0000 0000 0000 0000 0000 0000 0000 0000
00000390: 0000 0000 0000 0000 0000 0000 0000 0000
000003a0: 0000 0000 0000 0000 0000 0000 0000 0000
000003b0: 0000 0000 0000 0000 0000 0000 0000 0000
000003c0: 0000 0000 0000 0000 0000 0000 0000 0000
000003d0: 0000 0000 0000 0000 0000 0000 0000 0000
000003e0: 0000 0000 0000 0000 0000 0000 0000 0000
000003f0: 0000 0000 0000 0000 0000 0000 0000 0000

gcn2.gcn.lin.weight f4 [256, 256]
-0.023908384 -0.017990043 -0.09222395 0.08780659 0.06264902 -0.057786215 0.09676789 0.010265213
0.08621744 -0.042009767 0.08704602 -0.05690705 0.011894043 0.08047077 0.019252853 0.08352102
-0.021207258 0.037038382 0.028965225 -0.07407086 -0.09478633 -0.03596394 -0.0138789015 0.03839026
0.08223042 -6.654997e-05 -0.016256168 0.0816539 -0.048156925 -0.07400837 0.086493924 -0.05309232
0.07401408 0.023489274 0.08235147 0.10512015 -0.10518862 0.094631925 -0.006391159 -0.041158337
-0.032888047 0.025038132 -0.01762591 0.08120885 0.10177185 -0.07221011 -0.053991072 0.065781
-0.038868163 -0.039091855 -0.08164849 -0.016182857 0.041145924 0.07673299 0.04467782 0.10678329
-0.095766656 0.07079726 0.053111624 0.065373935 0.048211616 -0.04234225 -0.025948333 0.003003666
0.01139846 0.048599016 0.047471434 -0.038266078 -0.0505664 -0.09476362 -0.038181063 0.007616842
0.016902182 0.04419976 0.05577138 0.08657661 0.050888274 0.043410584 -0.011830835 0.044901267
-0.04721423 -0.08893124 -0.003217369 0.107005395 -0.093275495 -0.05070665 -0.080815434 -0.08193906
-0.06876786 -0.10508617 -0.009106428 0.03957182 -0.014026545 -0.003587917 -0.07042276 -0.071661554
0.015803805 -0.030894672 0.034987465 0.08340159 0.095489874 -0.022071155 -0.07855248 0.02483647
-0.10511582 -0.101523474 -0.00933212 -0.06359444 0.10001926 0.04177947 -0.062269196 -0.044123907
-0.022697179 -0.07955057 0.05751458 0.05844774 -0.031629987 -0.09034688 -0.07314086 -0.041070558
0.012145453 -0.0019456414 0.08732146 0.026002688 0.017935842 0.018192183 -0.107989565 -0.045148328
0.062063906 0.015695896 -0.007516146 -0.048618488 0.008693501 0.10726874 0.039846074 0.013343507
-0.06708074 0.040899146 0.0058682826 -0.06339236 0.09078695 -0.020190826 -0.08869673 -0.05122598
-0.06841755 -0.02746569 0.037638325 0.1061565 -0.017873269 0.08802699 0.09963524 -0.07854042
0.10465905 0.02184029 -0.022959314 0.08510021 0.013201439 0.08267135 -0.03259355 0.06649633
-0.0045268047 -0.07281061 -0.07511969 -0.07497776 0.008948693 -0.10222104 -0.074565366 0.01342193
0.09542192 0.04414328 0.0076537626 -0.02807388 0.07288503 -0.018882254 0.10324567 0.030636886
-0.006869513 0.046413153 0.03151619 0.07166707 -0.031893246 0.00017052381 0.09410843 -0.06352819
0.06421257 -0.005388212 0.079075485 -0.09712433 -0.1003461 -0.067518845 0.059809014 0.08590679
-0.017917957 0.052291412 0.041297995 -0.094194286 0.07184994 0.10511009 0.06669386 0.10267718
0.03165591 -0.006367711 0.07084686 -0.057945266 0.07570116 0.10514067 -0.1018217 0.04084084
0.007566023 0.059174977 0.09486431 0.04229076 0.053383775 -0.097201824 -0.008477798 0.014394809
0.054027155 0.017201936 -0.059196554 -0.02169067 0.04943477 0.0264004 0.062199626 -0.040127438
-0.022999512 0.053748697 -0.033373836 -0.047887716 0.04073653 -0.062084604 -0.01912551 0.05686049
0.07554628 0.0249303 0.08514118 0.05009516 0.0060263663 -0.01583915 0.09615451 0.10170847
-0.08107526 -0.10336733 -0.08175093 -0.017388564 0.03617762 0.07767189 0.009735872 -0.046747826
0.10433016 0.014933997 0.03968701 -0.077832595 -0.09070739 0.05866397 -0.02603766 0.07034398
00000000: 84db c3bc db5f 93bc e9df bcbd f1d3 b33d
00000010: 214e 803d 3db1 6cbd 3e2e c63d 6d2f 283c
00000020: c592 b03d 6f12 2cbd 2f45 b23d 5e17 69bd
00000030: 3bdf 423c dccd a43d 29b8 9d3c 120d ab3d
00000040: d8ba adbc 8fb5 173d 7b48 ed3c 77b2 97bd
00000050: 561f c2bd ed4e 13bd 5564 63bc 1b3f 1d3d
00000060: 6c68 a83d be90 8bb8 a82b 85bc 293a a73d
00000070: 3240 45bd b391 97bd ba23 b13d 5577 59bd
00000080: b294 973d 946c c03c e3a7 a83d 3c49 d73d
00000090: 226d d7bd 62ce c13d ed6c d1bb a595 28bd
000000a0: 9eb5 06bd c51c cd3c 3664 90bc d350 a63d
000000b0: c26d d03d e5e2 93bd be25 5dbd 30b8 863d
000000c0: 3934 1fbd c81e 20bd 5337 a7bd e991 84bc
000000d0: a188 283d 3026 9d3d 1700 373d 33b1 da3d
000000e0: 4f21 c4bd 27fe 903d 938b 593d c5e2 853d
000000f0: 8b79 453d 116f 2dbd 9991 d4bc 27d9 443b
00000100: 9bc0 3a3c c30f 473d 6871 423d e4bc 1cbd
00000110: b71e 4fbd 6e13 c2bd bf63 1cbd b496 f93b
00000120: 7276 8a3c cf0a 353d 8870 643d 144f b13d
00000130: 3970 503d 4ccf 313d 1ed6 41bc 64ea 373d
00000140: b563 41bd 9521 b6bd 7fda 52bb a525 db3d
00000150: 3907 bfbd c7b1 4fbd 9082 a5bd aacf a7bd
00000160: 2ad6 8cbd 6b37 d7bd 2133 15bc 1016 223d
00000170: 98cf 65bc 4223 6bbb cf39 90bd 4bc3 92bd
00000180: fb76 813c d316 fdbc 044f 0f3d 74ce aa3d
00000190: 3290 c33d 91ce b4bc 1fe0 a0bd da75 cb3c
000001a0: f746 d7bd 8aeb cfbd c0e5 18bc cd3d 82bd
000001b0: e6d6 cc3d f320 2b3d fc0d 7fbd 45bb 34bd
000001c0: 6fef b9bc 69eb a2bd 6994 6b3d e666 6f3d
000001d0: 728e 01bd c907 b9bd e0ca 95bd 9a39 28bd
000001e0: b9fd 463c e404 ffba 98d5 b23d 9703 d53c
000001f0: 30ee 923c c607 953c a229 ddbd 74ed 38bd
00000200: b936 7e3d ae94 803c 014a f6bb 2e24 47bd
00000210: 306f 0e3c b7af db3d a335 233d ba9e 5a3c
00000220: a161 89bd dd85 273d b94a c03b dbd3 81bd
00000230: 82ee b93d 3b67 a5bc a2a6 b5bd 55d2 51bd
00000240: 801e 8cbd baff e0bc a52a 1a3d 9468 d93d
00000250: f66a 92bc 7f47 b43d 900d cc3d cdd9 a0bd
00000260: 7c57 d63d 68ea b23c 2c15 bcbc 0549 ae3d
00000270: d94a 583c 994f a93d d080 05bd 3a2f 883d
00000280: 9755 94bb bb1d 95bd 5ad8 99bd f18d 99bd
00000290: 8a9d 123c 4459 d1bd bab5 98bd a8e7 5b3c
000002a0: 916c c33d 95cf 343d 6acc fa3b 32fb e5bc
000002b0: bf44 953d f5ae 9abc 7772 d33d 35fa fa3c
000002c0: a719 e1bb b81b 3e3d 1f17 013d 2fc6 923d
000002d0: 7ea2 02bd a3ce 3239 ecbb c03d 111b 82bd
000002e0: e181 833d 998f b0bb 54f2 a13d 1fe9 c6bd
000002f0: 4282 cdbd 5247 8abd 4cfa 743d e6ef af3d
00000300: aec8 92bc 852f 563d 1628 293d efe8 c0bd
00000310: 1026 933d f543 d73d ca96 883d 6a48 d23d
00000320: a1a9 013d 3ba8 d0bb 2918 913d 0458 6dbd
00000330: 3609 9b3d fe53 d73d e587 d0bd ba48 273d
00000340: 67ec f73b 7661 723d 3848 c23d 1339 2d3d
00000350: f2a8 5a3d c011 c7bd 76e6 0abc 34d8 6b3c
00000360: 944b 5d3d 13eb 8c3c 1678 72bd a2b0 b1bc
00000370: 1d7c 4a3d a745 d83c 09c5 7e3d ab5c 24bd
00000380: 7969 bcbc 9827 5c3d 01b3 08bd e925 44bd
00000390: 59db 263d 6d4c 7ebd 1aad 9cbc 8ce6 683d
000003a0: 02b8 9a3d a13a cc3c 805e ae3d 9530 4d3d
000003b0: d378 c53b 1bc1 81bc a8ec c43d 884c d03d
000003c0: c90a a6bd 40b2 d3bd 086d a7bd 7672 8ebc
000003d0: fc2e 143d 7112 9f3d 3583 1f3c a67a 3fbd
000003e0: 0dab d53d b9ad 743c d98e 223d b266 9fbd
000003f0: ccc4 b9bd a249 703d ee4c d5bc 8110 903d

gcn3.gcn.bias f4 [256]
0.0 0.0 0.0 0.0 0.0 0.0 0.0 0.0
0.0 0.0 0.0 0.0 0.0 0.0 0.0 0.0
0.0 0.0 0.0 0.0 0.0 0.0 0.0 0.0
0.0 0.0 0.0 0.0 0.0 0.0 0.0 0.0
0.0 0.0 0.0 0.0 0.0 0.0 0.0 0.0
0.0 0.0 0.0 0.0 0.0 0.0 0.0 0.0
0.0 0.0 0.0 0.0 0.0 0.0 0.0 0.0
0.0 0.0 0.0 0.0 0.0 0.0 0.0 0.0
0.0 0.0 0.0 0.0 0.0 0.0 0.0 0.0
0.0 0.0 0.0 0.0 0.0 0.0 0.0 0.0
0.0 0.0 0.0 0.0 0.0 0.0 0.0 0.0
0.0 0.0 0.0 0.0 0.0 0.0 0.0 0.0
0.0 0.0 0.0 0.0 0.0 0.0 0.0 0.0
0.0 0.0 0.0 0.0 0.0 0.0 0.0 0.0
0.0 0.0 0.0 0.0 0.0 0.0 0.0 0.0
0.0 0.0 0.0 0.0 0.0 0.0 0.0 0.0
0.0 0.0 0.0 0.0 0.0 0.0 0.0 0.0
0.0 0.0 0.0 0.0 0.0 0.0 0.0 0.0
0.0 0.0 0.0 0.0 0.0 0.0 0.0 0.0
0.0 0.0 0.0 0.0 0.0 0.0 0.0 0.0
0.0 0.0 0.0 0.0 0.0 0.0 0.0 0.0
0.0 0.0 0.0 0.0 0.0 0.0 0.0 0.0
0.0 0.0 0.0 0.0 0.0 0.0 0.0 0.0
0.0 0.0 0.0 0.0 0.0 0.0 0.0 0.0
0.0 0.0 0.0 0.0 0.0 0.0 0.0 0.0
0.0 0.0 0.0 0.0 0.0 0.0 0.0 0.0
0.0 0.0 0.0 0.0 0.0 0.0 0.0 0.0
0.0 0.0 0.0 0.0 0.0 0.0 0.0 0.0
0.0 0.0 0.0 0.0 0.0 0.0 0.0 0.0
0.0 0.0 0.0 0.0 0.0 0.0 0.0 0.0
0.0 0.0 0.0 0.0 0.0 0.0 0.0 0.0
0.0 0.0 0.0 0.0 0.0 0.0 0.0 0.0
00000000: 0000 0000 0000 0000 0000 0000 0000 0000
00000010: 0000 0000 0000 0000 0000 0000 0000 0000
00000020: 0000 0000 0000 0000 0000 0000 0000 0000
00000030: 0000 0000 0000 0000 0000 0000 0000 0000
00000040: 0000 0000 0000 0000 0000 0000 0000 0000
00000050: 0000 0000 0000 0000 0000 0000 0000 0000
00000060: 0000 0000 0000 0000 0000 0000 0000 0000
00000070: 0000 0000 0000 0000 0000 0000 0000 0000
00000080: 0000 0000 0000 0000 0000 0000 0000 0000
00000090: 0000 0000 0000 0000 0000 0000 0000 0000
000000a0: 0000 0000 0000 0000 0000 0000 0000 0000
000000b0: 0000 0000 0000 0000 0000 0000 0000 0000
000000c0: 0000 0000 0000 0000 0000 0000 0000 0000
000000d0: 0000 0000 0000 0000 0000 0000 0000 0000
000000e0: 0000 0000 0000 0000 0000 0000 0000 0000
000000f0: 0000 0000 0000 0000 0000 0000 0000 0000
00000100: 0000 0000 0000 0000 0000 0000 0000 0000
00000110: 0000 0000 0000 0000 0000 0000 0000 0000
00000120: 0000 0000 0000 0000 0000 0000 0000 0000
00000130: 0000 0000 0000 0000 0000 0000 0000 0000
00000140: 0000 0000 0000 0000 0000 0000 0000 0000
00000150: 0000 0000 0000 0000 0000 0000 0000 0000
00000160: 0000 0000 0000 0000 0000 0000 0000 0000
00000170: 0000 0000 0000 0000 0000 0000 0000 0000
00000180: 0000 0000 0000 0000 0000 0000 0000 0000
00000190: 0000 0000 0000 0000 0000 0000 0000 0000
000001a0: 0000 0000 0000 0000 0000 0000 0000 0000
000001b0: 0000 0000 0000 0000 0000 0000 0000 0000
000001c0: 0000 0000 0000 0000 0000 0000 0000 0000
000001d0: 0000 0000 0000 0000 0000 0000 0000 0000
000001e0: 0000 0000 0000 0000 0000 0000 0000 0000
000001f0: 0000 0000 0000 0000 0000 0000 0000 0000
00000200: 0000 0000 0000 0000 0000 0000 0000 0000
00000210: 0000 0000 0000 0000 0000 0000 0000 0000
00000220: 0000 0000 0000 0000 0000 0000 0000 0000
00000230: 0000 0000 0000 0000 0000 0000 0000 0000
00000240: 0000 0000 0000 0000 0000 0000 0000 0000
00000250: 0000 0000 0000 0000 0000 0000 0000 0000
00000260: 0000 0000 0000 0000 0000 0000 0000 0000
00000270: 0000 0000 0000 0000 0000 0000 0000 0000
00000280: 0000 0000 0000 0000 0000 0000 0000 0000
00000290: 0000 0000 0000 0000 0000 0000 0000 0000
000002a0: 0000 0000 0000 0000 0000 0000 0000 0000
000002b0: 0000 0000 0000 0000 0000 0000 0000 0000
000002c0: 0000 0000 0000 0000 0000 0000 0000 0000
000002d0: 0000 0000 0000 0000 0000 0000 0000 0000
000002e0: 0000 0000 0000 0000 0000 0000 0000 0000
000002f0: 0000 0000 0000 0000 0000 0000 0000 0000
00000300: 0000 0000 0000 0000 0000 0000 0000 0000
00000310: 0000 0000 0000 0000 0000 0000 0000 0000
00000320: 0000 0000 0000 0000 0000 0000 0000 0000
00000330: 0000 0000 0000 0000 0000 0000 0000 0000
00000340: 0000 0000 0000 0000 0000 0000 0000 0000
00000350: 0000 0000 0000 0000 0000 0000 0000 0000
00000360: 0000 0000 0000 0000 0000 0000 0000 0000
00000370: 0000 0000 0000 0000 0000 0000 0000 0000
00000380: 0000 0000 0000 0000 0000 0000 0000 0000
00000390: 0000 0000 0000 0000 0000 0000 0000 0000
000003a0: 0000 0000 0000 0000 0000 0000 0000 0000
000003b0: 0000 0000 0000 0000 0000 0000 0000 0000
000003c0: 0000 0000 0000 0000 0000 0000 0000 0000
000003d0: 0000 0000 0000 0000 0000 0000 0000 0000
000003e0: 0000 0000 0000 0000 0000 0000 0000 0000
000003f0: 0000 0000 0000 0000 0000 0000 0000 0000

gcn3.gcn.lin.weight f4 [256, 256]
0.08339532 0.042142857 0.012468821 0.0050838008 0.070997216 0.020751111 0.09074339 -0.032674048
0.07130391 -0.04344064 -0.07794807 0.105797134 0.02865368 -0.10652551 0.047361292 -0.03723857
0.031434093 -0.09778542 -0.034797866 0.09568757 -0.101895064 -0.0016063488 -0.016780348 -0.10757225
0.06217694 -0.03944427 -0.006683659 -0.097243235 -0.04907301 -0.089766 0.034306865 -0.015757928
-0.08006604 0.08138283 0.0735558 -0.0058097206 -0.07324986 0.06870046 0.09346108 -0.031967692
0.0781587 0.0604127 -0.090707265 -0.055257175 -0.0857248 0.0398504 -0.098058134 -0.019534823
-0.028533844 0.062749706 -0.0062009166 0.031490423 0.019758036 0.007515114 0.027948923 -0.03389373
0.10214832 -0.0681484 0.0806473 -0.03735913 -0.072095364 0.09025761 -0.011863845 -0.06905177
0.02934455 0.02539446 -0.038149495 -0.0024332616 -0.039607532 -0.038705964 0.020899568 -0.00047063746
0.054749887 0.02007663 -0.10010657 0.0119993845 0.06538622 -0.009229502 -0.014607235 -0.038451314
0.060923677 -0.07811306 -0.055525593 -0.1014726 -0.09553538 -0.055793125 -0.013389255 0.05691784
0.019592417 -0.06432416 0.046016667 -0.09445731 -0.027904453 -0.022786932 0.026517421 0.0022024466
0.010790103 0.09614776 -0.09787247 -0.034393016 -0.087677956 -0.09947401 0.049076725 -0.034857187
0.005973173 -0.018029673 -0.08239161 0.102808245 -0.09817553 -0.08496458 -0.098068334 0.038638018
-0.08592812 0.06718522 0.03022303 0.0069036465 -0.025822291 0.05182631 0.08112381 0.04965979
0.072762266 0.033622332 0.0770361 -0.085687846 -0.022629185 -0.07137012 -0.057955965 -0.05247124
-0.04960647 -0.073913 -0.088224925 -0.06397642 -0.00018982937 -0.07285784 -0.085751824 0.015577997
-0.096236974 0.050476935 0.0787234 -0.030901628 0.010245185 -0.04077233 0.047501452 -0.037583634
0.041940626 -0.004375754 0.008689024 -0.024222383 0.017009744 0.07016881 0.04992289 0.0533112
0.02951821 -0.020829225 -0.089363135 0.06267931 0.017563436 0.068928376 -0.07009392 -0.053639688
0.049381576 0.0049782526 -0.03321823 0.01270667 -0.089344196 -0.05051904 -0.08745741 0.08875002
0.09561276 -0.010862073 -0.022636577 0.01843491 -0.020282475 -0.09514538 0.0067048613 0.031884506
0.0302775 0.06748746 -0.06367937 0.08192141 -0.090156354 -0.022758348 0.09859796 0.08460028
0.023249052 0.005597024 0.030417854 0.10741387 0.059521884 0.06726307 0.014176692 -0.06934671
-0.04313455 0.022481618 0.025732435 0.04854159 -0.07317591 0.09761954 -0.083169475 0.0453159
-0.10625651 0.028640632 0.051902678 -0.07457015 0.004711085 0.01262666 -0.026021775 -0.09084313
0.012708231 -0.073933765 0.021602001 0.011444608 0.017216 0.04162269 0.06635236 0.10169877
-0.02584294 0.057127867 0.08792301 0.07896785 0.07459292 -0.10191592 0.04550619 -0.10282012
0.0082056355 -0.052593227 0.014934784 0.049158517 -0.082339734 -0.030058945 -0.0438937 -0.012955319
-0.03672366 -0.0690694 -0.025780687 -0.09983603 -0.05542987 0.05572865 0.080609836 -0.08203071
-0.087055415 0.0917391 0.07465206 -0.019107623 0.06490066 0.08485018 0.0069193128 -0.005399452
0.0567504 0.09174388 -0.059538506 -0.04677068 0.03744261 -0.018437555 -0.013856886 0.058091607
00000000: 2acb aa3d fd9d 2c3d 074a 4c3c 0396 a63b
00000010: fd66 913d 3cfe a93c acd7 b93d 39d5 05bd
00000020: c907 923d d0ee 31bd 3da3 9fbd 2bac d83d
00000030: 1fbb ea3c 0c2a dabd eafd 413d 7987 18bd
00000040: 09c1 003d b943 c8bd 3588 0ebd d8f7 c33d
00000050: 5cae d0bd 1f8c d2ba f176 89bc d74e dcbd
00000060: 3fad 7e3d 5190 21bd 9802 dbbb 7627 c7bd
00000070: c800 49bd 3dd7 b7bd 5b85 0c3d c516 81bc
00000080: aaf9 a3bd 0bac a63d 6ca4 963d 785f bebb
00000090: 0604 96bd d4b2 8c3d 8668 bf3d 8ef0 02bd
000000a0: ab11 a03d 4f73 773d bbc4 b9bd 5955 62bd
000000b0: 7c90 afbd 2c3a 233d b4d2 c8bd 7e07 a0bc
000000c0: cfbf e9bc eb82 803d 0f31 cbbb 1afc 003d
000000d0: 9bdb a13c 5841 f63b 24f5 e43c 27d4 0abd
000000e0: 2333 d13d 6391 8bbd 692a a53d e305 19bd
000000f0: bca6 93bd fbd8 b83d 9360 42bc 046b 8dbd
00000100: fb63 f03c 0b08 d03c a542 1cbd 5b77 1fbb
00000110: 823b 22bd 258a 1ebd 9235 ab3c e4bf f6b9
00000120: 6b41 603d bf77 a43c ac04 cdbd 1199 443c
00000130: 36e9 853d 5637 17bc 2f53 6fbc 207f 1dbd
00000140: 1b8b 793d bdf9 9fbd ce6e 63bd ded0 cfbd
00000150: 0ea8 c3bd 5587 64bd 9b5e 5bbc ae22 693d
00000160: 4780 a03c 63bc 83bd f97b 3c3d d672 c1bd
00000170: e197 e4bc a9ab babc 103b d93c ec56 103b
00000180: f9c8 303c 1ee9 c43d 5d71 c8bd b1df 0cbd
00000190: 8090 b3bd 08b9 cbbd ad04 493d 69c6 0ebd
000001a0: 9bba c33b f7b2 93bc efbc a8bd 218d d23d
000001b0: 4110 c9bd e901 aebd 0dd8 c8bd e642 1e3d
000001c0: 15fb afbd 6898 893d 4a96 f73c fc37 e23b
000001d0: 4589 d3bc d347 543d 3d24 a63d 1068 4b3d
000001e0: 6204 953d 92b7 093d 1ac5 9d3d 1c7d afbd
000001f0: d760 b9bc 7f2a 92bd 3c63 6dbd 15ec 56bd
00000200: 2730 4bbd b35f 97bd 45af b4bd 1206 83bd
00000210: ef0c 47b9 7e36 95bd a79e afbd db3a 7f3c
00000220: e417 c5bd e7c0 4e3d bc39 a13d 6925 fdbc
00000230: 6cdb 273c e300 27bd e290 423d 4cf1 19bd
00000240: efc9 2b3d 7c62 8fbb 685c 0e3c 056e c6bc
00000250: 0558 8b3c aab4 8f3d f27b 4c3d d85c 5a3d
00000260: 2cd0 f13c 0da2 aabc 0504 b7bd 035e 803d
00000270: 32e1 8f3c 522a 8d3d 678d 8fbd 4ab5 5bbd
00000280: 5644 4a3d 9c20 a33b d70f 08bd a32f 503c
00000290: 17fa b6bd 0eed 4ebd df1c b3bd 92c2 b53d
000002a0: 9fd0 c33d d6f6 31bc 5870 b9bc cf04 973c
000002b0: 6f27 a6bc 95db c2bd 74b4 db3b 5499 023d
000002c0: 8508 f83c de36 8a3d 546a 82bd 6ac6 a73d
000002d0: e5a3 b8bd b76f babc baed c93d e942 ad3d
000002e0: cc74 be3c 3e67 b73b dd2e f93c cefb db3d
000002f0: 38cd 733d 38c1 893d 5b45 683c a605 8ebd
00000300: dbad 30bd 5f2b b83c d4cc d23c 8cd3 463d
00000310: 40dd 95bd c1ec c73d c254 aabd 2a9d 393d
00000320: 039d d9bd c29f ea3c e797 543d 3cb8 98bd
00000330: 725f 9a3b 0de0 4e3c 9e2b d5bc f70b babd
00000340: 2f36 503c 966a 97bd aef6 b03c 2a82 3b3c
00000350: 9208 8d3c 8e7c 2a3d bfe3 873d 7247 d03d
00000360: 93b4 d3bc e9fe 693d fb10 b43d e5b9 a13d
00000370: 2cc4 983d 4bb9 d0bd b364 3a3d 5b93 d2bd
00000380: ee70 063c ff6b 57bd 06b1 743c 715a 493d
00000390: bca1 a8bd 2d3e f6bc e1c9 33bd 8c42 54bc
000003a0: 8c6b 16bd 4274 8dbd 0532 d3bc d576 ccbd
000003b0: 6e0a 63bd ba43 643d c516 a53d b8ff a7bd
000003c0: 1c4a b2bd b6e1 bb3d 2ee3 983d 9787 9cbc
000003d0: a3ea 843d eec5 ad3d 67bb e23b e3ed b0bb
000003e0: 1c73 683d 37e4 bb3d a6de 73bd 9d92 3fbd
000003f0: 6c5d 193d 5b0a 97bc fe07 63bc 77f1 6d3d

fc1.weight f4 [128, 256]
0.06045804 -0.019394487 -0.042832255 -0.026089132 0.011470385 -0.03049913 0.016782872 0.009905763
0.0012448132 0.028373137 -0.06227675 -0.003091909 0.043168485 -0.002145201 0.060585096 -0.060994282
0.030944876 0.001790382 -0.026675403 0.05795517 0.0021806061 -0.025950134 -0.00078418106 0.0049828663
-0.049613424 -0.019315831 0.058928996 -0.061781228 -0.04978644 -0.041722834 -0.04893861 0.048262715
-0.038556293 -0.061701164 -0.035744227 -0.0069568604 0.029817864 -0.044892006 -0.057811417 -0.0013015494
0.022156686 0.051568568 0.051406495 0.056492977 0.039896958 0.020562649 0.0040826723 -0.036962807
-0.034660354 -0.06154283 -0.01794494 -0.053648286 -0.055313386 -0.054048315 0.04154598 -0.010091804
-0.021213397 -0.051861122 0.026700906 0.020005897 -0.024967834 0.015173413 -0.039231084 -0.040358275
0.05766695 -0.006365031 -0.06076572 0.059629045 -0.024205431 -0.008523144 -0.046686098 0.0039824694
-0.004946962 -0.04369267 -0.0073882192 -0.04958131 0.002256602 0.0520854 -0.035594754 -0.033443496
-0.027930379 -0.029123418 -0.028644033 -0.013537608 0.041682005 0.044562213 0.007923789 0.045648836
-0.05439142 -0.015535109 -0.030467391 -0.00089331716 -0.05420381 0.03464584 -0.010484405 0.005412489
-0.033677697 -0.011633731 0.0011691898 0.036923483 -0.026424147 0.009065926 0.06098827 -0.038709022
0.060583167 -0.058288686 -0.05321353 -0.012713715 -0.0327866 0.029335737 -0.061948106 0.061024085
-0.0459944 0.05277346 0.019878127 0.047113232 -0.036172412 -0.014915206 -0.029776424 0.019823357
-0.05886025 0.035534836 0.011375979 -0.03215386 -0.05216468 -0.011866674 0.060078025 0.01832851
-0.010555923 0.050217018 0.01360894 0.021142587 0.02286712 0.022030547 -0.022124909 -0.035034128
0.014665112 0.04723203 0.01342202 -0.052189283 0.06003812 -0.054506138 -0.046104066 -0.004078582
0.03258367 0.0056581795 -0.014509268 0.042375267 -0.032797158 -0.022402152 0.005779147 -0.055890486
0.024580069 -0.007992841 -0.027600624 0.03190568 0.021125816 -0.05638521 -0.03198959 0.013305783
0.036736593 0.04222876 -0.043552592 0.016443603 0.05677487 0.011272073 0.027949527 0.033511847
0.01881393 -0.011733115 0.056130946 -0.0147480965 0.03784913 0.029229678 0.044770792 -0.028566524
0.006239563 -0.014094487 -0.02476532 0.04286837 0.05878716 0.06202072 0.023788042 0.025077842
0.026801266 0.020227157 -0.023989439 -0.021541446 0.036766164 -0.054544784 -0.045296356 -0.03090825
0.0027797073 -0.012210898 -0.003417842 0.04250528 -0.022523485 -0.055979796 0.025981046 -0.056418963
-0.027407415 -0.055377297 0.052741915 0.030184463 -0.039551847 0.049655467 -0.043925747 -0.047520213
0.023292378 -0.03167013 -0.034025617 -0.040800594 -0.009893961 -0.020688012 0.0029782578 0.04838281
-0.026952155 0.01603932 -0.01414755 -0.022231571 0.04789328 0.049025193 -0.060992435 -0.045128293
0.011487082 0.05091986 0.024132624 0.0010472387 -0.017319426 -0.059642963 -0.035080537 -0.025752462
-0.029668093 -0.036641262 -0.04015314 -0.057477556 -0.028286442 -0.02813533 0.019891202 0.00653141
0.039278224 0.05465495 -0.030090377 -0.0072894916 0.047259487 0.0011570081 -0.017344482 -0.028538227
-0.04376273 0.020452477 0.0333857 -0.011875875 0.0006015748 -0.032668836 -0.04883857 -0.061145566
00000000: daa2 773d 30e1 9ebc e070 2fbd e0b8 d5bc
00000010: 48ee 3b3c 50d9 f9bc 3c7c 893c c84b 223c
00000020: 0029 a33a c86e e83c e815 7fbd a0a1 4abb
00000030: 70d1 303d 8096 0cbb 1428 783d 24d5 79bd
00000040: 1c80 fd3c 40ab ea3a 6086 dabc 6662 6d3d
00000050: 80e8 0e3b 6095 d4bc 8091 4dba 5047 a33b
00000060: 7237 4bbd 3c3c 9ebc 885f 713d 500e 7dbd
00000070: deec 4bbd 90e5 2abd da73 48bd 20af 453d
00000080: 34ed 1dbd 5cba 7cbd 8a68 12bd 60f6 e3bb
00000090: 9844 f43c aee0 37bd aacb 6cbd c098 aaba
000000a0: f081 b53c 9039 533d 9e8f 523d 2e65 673d
000000b0: fe6a 233d 0073 a83c f0c7 853b 5066 17bd
000000c0: 04f8 0dbd 5614 7cbd 4401 93bc 4ebe 5bbd
000000d0: 4a90 62bd c461 5dbd 1e2c 2a3d 1858 25bc
000000e0: b8c7 adbc 546c 54bd dcbb da3c 68e3 a33c
000000f0: 5889 ccbc e899 783c c6b0 20bd b84e 25bd
00000100: 2e34 6c3d c091 d0bb 7ae5 78bd 963d 743d
00000110: 784a c6bc a8a4 0bbc ec39 3fbd 607f 823b
00000120: 201a a2bb 16f7 32bd e018 f2bb c615 4bbd
00000130: 80e3 133b 8057 553d cecb 11bd 0cfc 08bd
00000140: 40ce e4bc 3c94 eebc e4a6 eabc d8cc 5dbc
00000150: c0ba 2a3d de86 363d c8d2 013c 46fa 3a3d
00000160: 8ac9 5ebd f886 7ebc c096 f9bc 802d 6aba
00000170: d004 5ebd cce8 0d3d c8c6 2bbc 405b b13b
00000180: a0f1 09bd 689b 3ebc 803f 993a 143d 173d
00000190: 7477 d8bc 4089 143c d6ce 793d 5a8d 1ebd
000001a0: 0e26 783d 1ec0 6ebd 6ef6 59bd 304d 50bc
000001b0: 3e4b 06bd 8051 f03c 4cbd 7dbd 64f4 793d
000001c0: a064 3cbd fc28 583d 74d7 a23c cef9 403d
000001d0: 8629 14bd e85e 74bc b0ed f3bc 9864 a23c
000001e0: 7217 71bd fa8c 113d 5062 3a3c c4b3 03bd
000001f0: a2aa 55bd 706c 42bc 6014 763d ac25 963c
00000200: c0f2 2cbc 5cb0 4d3d 08f8 5e3c 3833 ad3c
00000210: d453 bb3c 6879 b43c 4c3f b5bc f27f 0fbd
00000220: f045 703c 6076 413d 08e8 5b3c 6ec4 55bd
00000230: 88ea 753d d441 5fbd 9ed7 3cbd a0a5 85bb
00000240: 7476 053d 4068 b93b 48b8 6dbc b091 2d3d
00000250: 5056 06bd b884 b7bc 005f bd3b 6ced 64bd
00000260: 245c c93c 68f4 02bc b41a e2bc 88af 023d
00000270: 0c10 ad3c 2ef4 66bd 8407 03bd 8000 5a3c
00000280: 1c79 163d 10f8 2c3d 3464 32bd bcb4 863c
00000290: c48c 683d 80ae 383c 68f6 e43c b843 093d
000002a0: ac1f 9a3c 403c 40bc 90e9 653d 00a2 71bc
000002b0: b007 1b3d 1473 ef3c 9461 373d 5804 eabc
000002c0: 4075 cc3b 90ec 66bc a4e0 cabc be96 2f3d
000002d0: ceca 703d 7009 7e3d 24df c23c 0c70 cd3c
000002e0: 548e db3c 6cb3 a53c 8085 c4bc b077 b0bc
000002f0: 1e98 163d 5a6a 5fbd ac88 39bd 4c33 fdbc
00000300: c02b 363b 3810 48bc e0fd 5fbb 041a 2e3d
00000310: 2c83 b8bc 124b 65bd 34d6 d43c 9217 67bd
00000320: 8485 e0bc 4ed3 62bd e807 583d 6845 f73c
00000330: 1e01 22bd 8863 4b3d 7ceb 33bd 8ea4 42bd
00000340: a8cf be3c 8ab8 01bd 725e 0bbd 861e 27bd
00000350: 481a 22bc e879 a9bc e02e 433b 0e2d 463d
00000360: c4ca dcbc e464 833c 20cb 67bc fc1e b6bc
00000370: be2b 443d a4ce 483d 34d3 79bd 72d8 38bd
00000380: 5034 3c3c 5891 503d c8b1 c53c 8043 893a
00000390: 78e1 8dbc 2e4c 74bd 9cb0 0fbd d4f6 d2bc
000003a0: 800a f3bc 2615 16bd 9e77 24bd 966d 6bbd
000003b0: f8b8 e7bc 107c e6bc e0f2 a23c 7005 d63b
000003c0: 34e2 203d dedd 5f3d 1880 f6bc b0dc eebb
000003d0: 2a93 413d c0a6 973a 0416 8ebc 00c9 e9bc
000003e0: 8c40 33bd f48b a73c 72bf 083d 0893 42bc
000003f0: 00b3 1d3a c2cf 05bd f40a 48bd c673 7abd

fc1.bias f4 [128]
0.050918996 -0.026172802 -0.02562496 -0.04160983 0.004250735 0.051487543 0.039304577 0.025501542
0.020722665 -0.05784507 0.01899153 0.025606617 -0.04725445 0.026799038 -0.053633332 0.0073088706
-0.01813344 -0.049332134 -0.0043537915 0.01374127 -0.046670794 -0.02564229 0.05359993 -0.0101244375
-0.057541944 0.017330281 0.0018535033 0.016846634 0.034754798 0.004197173 -0.062239833 -0.010456085
-0.054971732 -0.04953351 0.020466879 -0.029201217 0.02557543 -0.04562077 0.038935304 -0.012832478
-0.011113428 -0.043959074 0.053287208 0.0048868805 0.047161162 -0.045468427 0.06033597 0.02671276
-0.027144983 -0.020616256 0.024751283 0.031785615 0.022257753 0.026647292 -0.025710069 -0.03756155
-0.062411077 -0.051446393 -0.024680719 0.003315702 0.034160674 -0.038266115 -0.033432245 -0.029059164
0.03741146 0.051179223 0.046247326 -0.011497743 0.052301593 -0.029798582 -0.023052864 -0.044652753
-0.017277189 -0.022904612 0.01359833 0.04221391 0.06146767 0.017904617 -0.0591873 -0.001020275
0.039544404 0.021731205 0.050522454 0.004322849 -0.03616374 0.02973625 -0.042130023 0.043170504
-0.03964702 0.053659037 -0.0054896697 -0.03788884 0.050337672 -0.062323354 -0.04972183 0.026787765
0.038090304 -0.04311137 0.04399895 0.0113019645 0.044303685 0.027451701 0.033381253 0.018803768
0.03649129 0.0315267 0.0018970892 -0.02038937 -0.033559114 0.010796383 -0.052369 0.044073656
0.043862812 0.020346425 0.030840352 -0.0057081357 0.052367777 -0.048075132 0.0011792704 -0.050279647
0.042218715 0.03733789 -0.015175045 -0.06154088 -0.01818768 -0.009798981 0.046843566 0.027717382
00000000: 7090 503d 5868 d6bc 70eb d1bc 126f 2abd
00000010: c049 8b3b 9ae4 523d d6fd 203d 9ce8 d03c
00000020: 94c2 a93c f4ee 6cbd 2094 9b3c f8c4 d13c
00000030: e28d 41bd a889 db3c a0ae 5bbd 407f ef3b
00000040: 948c 94bc 7e10 4abd 40aa 8ebb 1023 613c
00000050: e029 3fbd c80f d2bc 9a8b 5b3d f8e0 25bc
00000060: 1ab1 6bbd 3cf8 8d3c 40f1 f23a f401 8a3c
00000070: 0c5b 0e3d 7088 893b 32ef 7ebd 0050 2bbc
00000080: 0a2a 61bd a6e3 4abd 28aa a73c 6437 efbc
00000090: 9083 d13c d8dc 3abd a07a 1f3d 503f 52bc
000000a0: 1815 36bc 6e0e 34bd b043 5a3d 2022 a03b
000000b0: 102c 413d 1a3d 3abd da22 773d b8d4 da3c
000000c0: 285f debc 6ce3 a8bc 34c3 ca3c a231 023d
000000d0: e455 b63c 6c4b da3c ec9d d2bc 24da 19bd
000000e0: c2a2 7fbd 74b9 52bd 382f cabc 404c 593b
000000f0: 10ec 0b3d eebc 1cbd 40f0 08bd 7c0d eebc
00000100: c23c 193d 4ea1 513d d66d 3d3d 0861 3cbc
00000110: 323a 563d 281c f4bc 5cd9 bcbc cee5 36bd
00000120: e488 8dbc 74a2 bbbc 88cb 5e3c 7ee8 2c3d
00000130: 86c5 7b3d b4ac 923c 626e 72bd c0ba 85ba
00000140: 50f9 213d a405 b23c a2f0 4e3d b0a6 8d3b
00000150: 6e20 14bd 7099 f33c 8890 2cbd 8ed3 303d
00000160: ea64 22bd 94c9 5b3d b0e2 b3bb 5431 1bbd
00000170: e02e 4e3d c646 7fbd 1ea9 4bbd 0472 db3c
00000180: 9404 1c3d 8c95 30bd 3e38 343d e02b 393c
00000190: c877 353d 64e2 e03c c8ba 083d 5c0a 9a3c
000001a0: e477 153d 2422 013d c0a7 f83a 9c07 a7bc
000001b0: 4875 09bd 50e3 303c e080 56bd 9486 343d
000001c0: 7ea9 333d 8cad a63c e8a4 fc3c 500b bbbb
000001d0: 987f 563d 6eea 44bd c091 9a3a 08f2 4dbd
000001e0: 88ed 2c3d 9eef 183d c0a0 78bc 4a12 7cbd
000001f0: 54fe 94bc e88b 20bc 0adf 3f3d 900f e33c

fc2.weight f4 [64, 128]
0.051597193 -0.02722229 0.022731945 0.04994471 0.06708789 0.013328108 -0.00071371475 -0.046450324
-0.012685347 0.011941034 -0.06254575 0.075585 -0.025702633 -0.055902947 0.029925527 -0.029464798
-0.08486016 0.045921426 0.030564725 0.012995495 -0.01764151 0.05580547 0.027312232 0.069580376
0.0015260426 -0.08439861 -0.039178792 0.022243788 0.07984857 -0.044426233 0.054281853 0.051821835
-0.019817248 -0.034055505 0.043257356 0.009379285 -0.02970825 0.06079624 -0.082630664 -0.021490563
0.033685774 -0.05960521 -0.021689896 0.029483827 0.06405585 -0.043077663 0.056107327 0.07672996
0.038701132 -0.019166257 -0.045939084 -0.0370544 0.0049356595 -0.007685383 -0.052717414 -0.019722933
-0.016280495 -0.006528146 -0.027479703 0.009146667 -0.07763212 -0.0246297 -0.025649855 0.008447208
0.052411817 -0.0045192908 -0.044797212 -0.022026047 0.035429176 0.030634595 -0.04559584 0.04484944
-0.07728622 0.04660291 0.06292635 0.026149612 -0.08555614 -0.014584695 0.066395275 0.058506705
-0.014522603 0.0805042 0.057020545 0.043811627 0.0688992 -0.050368 0.020094564 -0.022917634
0.02995545 -0.07302199 0.052252956 -0.01157423 0.053339597 0.015645448 -0.04702233 0.054740105
0.008470979 -0.08135014 -0.085877374 -0.016641809 -0.03256726 -0.026312172 -0.024882056 -0.015767083
0.007328873 0.044291776 -0.051986273 0.08078851 -0.048106298 0.04819393 -0.08051402 -0.052389544
0.069526926 -0.0071388753 0.024772158 -0.08359228 0.08759786 0.006243876 -0.0042923405 0.033184078
-0.0023942043 0.05337347 -0.0645103 -0.0075949356 -0.01611862 -0.04791753 0.06618156 0.039826695
0.044021286 -0.03892116 -0.07859789 -0.011475206 -0.059162635 0.08810276 -0.076683305 0.08073829
-0.08257974 -0.08124276 0.07487242 0.039565984 -0.017129228 0.06799905 0.037851218 -0.036577784
-0.052043043 -0.052730333 -0.042261265 0.0129055865 -0.08150573 -0.03607064 -0.005895522 -0.08226692
-0.026095727 0.08131817 -0.04712088 -0.03945946 -0.08611458 0.0037150972 -0.06380058 0.0084031755
-0.046709906 -0.0058731423 0.076247536 -0.023409793 -0.06102911 -0.079543166 0.028229348 -0.059079047
0.07090863 -0.007984446 -0.018163405 -0.026370114 -0.06427425 -0.019572206 -0.052218605 0.0709968
-0.041036993 0.07738119 0.05674525 -0.042268768 0.021918152 -0.072644584 -0.060173053 -0.035907146
-0.026237192 -0.019203136 -0.024713332 -0.06560614 -0.049590603 -0.07405879 -0.042694557 -0.028351963
-0.01908799 -0.045951456 0.03770537 0.041372493 0.013293948 -0.046595678 0.017529454 0.0653874
0.03337216 0.04816935 -0.06959118 -0.029646061 0.08336321 -0.050220992 0.021898448 0.058702666
0.010292123 -0.021094022 0.009636392 -0.024249546 -0.07745731 -0.07903497 0.051887363 0.06428298
0.011064274 -0.052972455 -0.06280748 -0.07405459 -0.082387164 0.014775083 -0.039583024 -0.08831183
-0.016905997 -0.06083101 0.024566133 0.018606843 -0.0008298504 0.050534196 0.030395053 0.023748178
-0.06435841 -0.02493832 0.004961769 0.07009961 -0.035637066 -0.02449498 0.05702463 -0.059594978
0.010019107 0.04746639 -0.0879662 0.06360033 0.019711427 0.06792128 -0.06363859 -0.051315337
-0.0061519435 -0.0454339 0.046051446 0.004835982 -0.049213473 -0.025905149 0.042739347 -0.06146302
00000000: 9457 533d 4801 dfbc 5838 ba3c d392 4c3d
00000010: 6065 893d 235e 5a3c 9618 3bba b242 3ebd
00000020: 34d6 4fbc 54a4 433c fc17 80bd 4fcc 9a3d
00000030: 548e d2bc 7dfa 64bd 6126 f53c 2960 f1bc
00000040: 2acb adbd 1b18 3c3d e062 fa3c 0feb 543c
00000050: ee84 90bc 4794 643d e7bd df3c 2880 8e3d
00000060: 7e05 c83a 2ed9 acbd f179 20bd 9b38 b63c
00000070: a687 a33d 48f8 35bd a656 5e3d 2243 543d
00000080: c857 a2bc c97d 0bbd a02e 313d 93ab 193c
00000090: b75e f3bc 7a05 793d 443a a9bd fa0c b0bc
000000a0: 18fa 093d 9824 74bd 02af b1bc 1188 f13c
000000b0: b72f 833d 3472 30bd ccd0 653d 9924 9d3d
000000c0: 1485 1e3d 8e02 9dbc 9f2a 3cbd 5bc6 17bd
000000d0: 50bb a13b aad5 fbbb 37ee 57bd fd91 a1bc
000000e0: ac5e 85bc 0fea d5bb 1d1d e1bc e7db 153c
000000f0: 97fd 9ebd 3ac4 c9bc a51f d2bc 2966 0a3c
00000100: c6ad 563d 8f16 94bb 487d 37bd f86f b4bc
00000110: 2f1e 113d 67f5 fa3c b4c2 3abd 0cb4 373d
00000120: 3d48 9ebd b1e2 3e3d 88df 803d b637 d63c
00000130: 0f38 afbd a5f4 6ebc 3ffa 873d baa4 6f3d
00000140: 36f0 6dbc 63df a43d 608e 693d d273 333d
00000150: 061b 8d3d ad4e 4ebd 5b9d a43c c3bd bbbc
00000160: 2265 f53c 8e8c 95bd 3207 563d d7a1 3dbc
00000170: 9f7a 5a3d e22a 803c 7d9a 40bd 2937 603d
00000180: dcc9 0a3c e79a a6bd 7ae0 afbd 6754 88bc
00000190: 3f65 05bd a08c d7bc 74d5 cbbc f829 81bc
000001a0: 0b27 f03b 4b6b 353d 8fef 54bd 7274 a53d
000001b0: 1c0b 45bd 0067 453d 89e4 a4bd 6b96 56bd
000001c0: 2264 8e3d 3aed e9bb fbee ca3c 6e32 abbd
000001d0: 8266 b33d 6e99 cc3b c3a6 8cbb 07ec 073d
000001e0: 15e8 1cbb 249e 5a3d fa1d 84bd f0de f8bb
000001f0: 320b 84bc 2c45 44bd 338a 873d 5121 233d
00000200: aa4f 343d cb6b 1fbd eef7 a0bd 8102 3cbc
00000210: 8554 72bd 386f b43d 230c 9dbd 1e5a a53d
00000220: 911f a9bd 9b62 a6bd b656 993d f10f 223d
00000230: 9852 8cbc 1643 8b3d e109 1b3d 96d2 15bd
00000240: 162b 55bd c3fb 57bd 261a 2dbd f471 533c
00000250: 7aec a6bd cfbe 13bd 392f c1bb 8f7b a8bd
00000260: b5c6 d5bc 248a a63d d301 41bd 3ea0 21bd
00000270: d75c b0bd fd78 733b e1a9 82bd 79ad 093c
00000280: e352 3fbd 7d73 c0bb ab27 9c3d e5c5 bfbc
00000290: a9f9 79bd 87e7 a2bd 3c41 e73c dffc 71bd
000002a0: 8b38 913d 32d1 02bc 6ccb 94bc 2306 d8bc
000002b0: 38a2 83bd e455 a0bc 2de3 55bd c566 913d
000002c0: 6816 28bd 087a 9e3d b56d 683d 0422 2dbd
000002d0: b28d b33c afc6 94bd 0578 76bd 5f13 13bd
000002e0: 61ef d6bc e54f 9dbc 9d73 cabc 835c 86bd
000002f0: 841f 4bbd 23ac 97bd 7de0 2ebd 6042 e8bc
00000300: 6b5e 9cbc 9837 3cbd f270 1a3d 3476 293d
00000310: dcce 593c 1cdb 3ebd ee99 8f3c d4e9 853d
00000320: 3fb1 083d 394d 453d d285 8ebd 4cdc f2bc
00000330: 55ba aa3d 87b4 4dbd 6064 b33c 3572 703d
00000340: 4ba0 283c 5fcd acbc f5e1 1d3c fca6 c6bc
00000350: f0a1 9ebd 16dd a1bd d887 543d cca6 833d
00000360: ee46 353c a5f9 58bd 35a1 80bd efa9 97bd
00000370: 9aba a8bd 3113 723c cf21 22bd d5dc b4bd
00000380: 727e 8abc f029 79bd ea3e c93c 616d 983c
00000390: 518a 59ba f2fc 4e3d 0cff f83c 8a8b c23c
000003a0: 58ce 83bd 734b ccbc 5696 a23b 6290 8f3d
000003b0: 2cf8 11bd b2a9 c8bc a992 693d dd19 74bd
000003c0: 2e27 243c 1e6c 423d a027 b4bd e440 823d
000003d0: dc79 a13c 501a 8b3d f354 82bd 0830 52bd
000003e0: 3e96 c9bb e618 3abd 71a0 3c3d 2877 9e3b
000003f0: 1194 49bd 0937 d4bc 740f 2f3d a6c0 7bbd

fc2.bias f4 [64]
0.021217398 0.06977604 0.079945564 0.06783332 0.045393873 -0.06207879 0.00039015338 -0.0010594558
-0.055645734 -0.053002536 0.02886094 0.023786796 -0.023489323 -0.0883795 0.042622898 -0.016666055
0.06860687 0.08597843 0.036355913 -0.010411999 -0.0015903587 -0.015118759 -0.0051080296 0.04259337
0.038484678 0.048557773 -0.08076813 0.07634775 0.04100336 -0.0727406 0.051349614 -5.646624e-05
-0.05197012 -0.07088543 -0.05729926 0.026920814 0.0030816826 -0.06955512 0.06247598 0.06671365
0.038885072 0.012141822 -0.08561666 0.050921947 0.021345787 -0.056111667 0.07966117 0.012731962
-0.021322649 -0.079018585 -0.029987799 -0.049924184 -0.027281296 0.08511375 0.07518897 -0.041625943
0.030520713 0.049125165 -0.002997568 0.04507243 -0.07934101 0.046664685 0.0062197368 0.049286555
00000000: 1cd0 ad3c bee6 8e3d 80ba a33d 32ec 8a3d
00000010: edee 393d 5446 7ebd 808d cc39 70dd 8aba
00000020: c8ec 63bd 3019 59bd c76d ec3c 87dc c23c
00000030: ae6c c0bc 5000 b5bd 5995 2e3d 4087 88bc
00000040: c281 8c3d 7615 b03d f0e9 143d 1797 2abc
00000050: 9573 d0ba acb4 77bc 4261 a7bb 6376 2e3d
00000060: 1ca2 1d3d 84e4 463d c369 a5bd 365c 9c3d
00000070: 24f3 273d 06f9 94bd f953 523d 2ad6 6cb8
00000080: 9fde 54bd 612c 91bd a1b2 6abd 0a89 dc3c
00000090: 0ef6 493b ea72 8ebd d0e6 7f3d 2ba1 883d
000000a0: f445 1f3d 7eee 463c ca57 afbd 8893 503d
000000b0: 5cdd ae3c 59d5 65bd 6525 a33d b899 503c
000000c0: d6ac aebc 7fd4 a1bd f9a8 f5bc 4d7d 4cbd
000000d0: 067d dfbc 1e50 ae3d adfc 993d f77f 2abd
000000e0: 9306 fa3c 7837 493d d972 44bb de9d 383d
000000f0: 8a7d a2bd 7823 3f3d efce cb3b b3e0 493d
